models/d3qn_agent.pth (torch, 141474 bytes, 11 tensors)

fc1.weight f4 [128, 7]
0	0x3e38848e	0.18019316
1	0xbd6c52c8	-0.057696134
2	0xbdcfbf00	-0.10143852
3	0x3dccb110	0.099947095
4	0x3e13538e	0.14387342
5	0xbd3a71b8	-0.045518607
6	0x3e935e4d	0.28782883
7	0x3ea20e54	0.31651556
8	0xbe0632b8	-0.13105285
9	0x3eb00537	0.3437898
10	0xbe8d8940	-0.27643776
11	0x3e8a68b7	0.27033016
12	0x3e0cc682	0.137476
13	0xbda61cdc	-0.08110973
14	0xbe0d78fb	-0.13815682
15	0x3ea73d36	0.32663888
16	0xbde820a0	-0.11334348
17	0xbe585e93	-0.21129827
18	0x3d65dcf8	0.056118935
19	0xbeac029f	-0.3359575
20	0x3ea20d7d	0.31650916
21	0x3e0359c4	0.12827212
22	0x3e4f026a	0.20215765
23	0x3dee22f2	0.11627759
24	0x3eb5774b	0.35442576
25	0xbe9d7abe	-0.30757707
26	0xbeb2a3c0	-0.34890556
27	0x3e657c46	0.22410688
28	0xbe059890	-0.13046479
29	0x3e8bc227	0.27296564
30	0xbe46cdb5	-0.19414409
31	0xbe1f579a	-0.15560761
32	0x3e5b27ce	0.21401903
33	0x3da47b4c	0.080313295
34	0x3e4a7ec2	0.19774917
35	0xbdc86789	-0.09785373
36	0xbeaaac14	-0.3333441
37	0xbeb2c64a	-0.34916908
38	0x3e9a868b	0.30180773
39	0x3e1225ea	0.14272276
40	0xbe9d991a	-0.3078087
41	0x3d484ee8	0.048903376
42	0x3e4d5576	0.20052132
43	0xbdc2ddf4	-0.095149904
44	0xbe0242ee	-0.12720844
45	0xbe992849	-0.29913548
46	0x3ebaaa57	0.36458084
47	0xbe809570	-0.25114012
48	0xbcd4e920	-0.025990069
49	0xbd97c360	-0.07410312
50	0x3dc6cf34	0.097074896
51	0xbe3a4fc6	-0.18194494
52	0xbe116312	-0.14197949
53	0x3e2f5a96	0.171244
54	0x3e704bae	0.2346637
55	0x3e5b3ac2	0.21409133
56	0xbeaa2918	-0.33234477
57	0xbdfb827c	-0.12280747
58	0x3d903f58	0.07043332
59	0xbe7dcab6	-0.2478436
60	0x3e9dc751	0.3081613
61	0x3d0be4a8	0.03415361
62	0xbe300cfb	-0.17192452
63	0xbeb04647	-0.34428617
64	0xbe8b8cca	-0.2725585
65	0x3eba5e8d	0.36400262
66	0xba40f600	-0.00073608756
67	0xbd647850	-0.0557788
68	0xbe5ad25a	-0.21369305
69	0xbe24695b	-0.16055815
70	0x3eb494f5	0.35269895
71	0xbce46f20	-0.02788502
72	0x3bfa5e21	0.0076406156
73	0x3e5c852e	0.21535179
74	0x3d999500	0.074991226
75	0xbe8df0cd	-0.2772278
76	0x3e44373e	0.19161698
77	0x3e3aa806	0.18228158
78	0x3e53b653	0.2067502
79	0xbcbc9a91	-0.023022922
80	0xbe85d83a	-0.2614153
81	0x3ea5f1d7	0.32411072
82	0xbccb06d0	-0.024783522
83	0xbe45e06e	-0.19323894
84	0xbeb4ebee	-0.3533625
85	0x3e37842a	0.1792151
86	0x3e4289ff	0.18997954
87	0x3eb888d3	0.3604189
88	0xbe419f19	-0.18908347
89	0x3e831cf3	0.25608024
90	0x3e31859e	0.17336127
91	0xbe55e1b7	-0.20886885
92	0x3e2a2d92	0.16618946
93	0xbe4def49	-0.20110811
94	0x3da683f0	0.08130634
95	0x3e336a92	0.17521122
96	0x3b7f5f00	0.0038966537
97	0x3d9a9a24	0.07548931
98	0x3cb95273	0.022622323
99	0xbe78f3d0	-0.24311757
100	0xbeb8a3e3	-0.36062536
101	0xbdbfe814	-0.09370437
102	0xbeafc90a	-0.34333068
103	0x3da39bbc	0.07988688
104	0x3e64db32	0.22349241
105	0x3c988680	0.018618822
106	0xbd99ba58	-0.075062454
107	0xbe89dfe9	-0.26928642
108	0xbd08ea88	-0.03342679
109	0x3ca7c990	0.020481855
110	0x3e93feab	0.28905234
111	0x3e70f952	0.23532608
112	0xbea6093e	-0.32428926
113	0x3e687686	0.22701463
114	0xbdfac801	-0.12245179
115	0xbde6134c	-0.11234149
116	0x3e8435a7	0.25822183
117	0x3ddab49c	0.1067898
118	0x3e9a8e07	0.30186483
119	0x3e13ff76	0.1445292
120	0x3e46878a	0.19387642
121	0xbbed3b40	-0.007239729
122	0xbe46e64f	-0.19423793
123	0xbd34d390	-0.044147074
124	0xbc7d7ea0	-0.015472084
125	0xbdd5d27c	-0.10440537
126	0x3e8b6a8f	0.27229735
127	0x3eb23634	0.3480698
128	0xbe75288d	-0.2394125
129	0x3d240880	0.04004717
130	0xbeb2c775	-0.349178
131	0x3e6f5aee	0.2337453
132	0xbdc0a73c	-0.094068974
133	0x3e1701e6	0.14746818
134	0xbe1b5e9e	-0.15172812
135	0x3df95815	0.121750034
136	0x3e6b3abe	0.22971627
137	0xbe8b4e2c	-0.27208078
138	0x3c743860	0.014906019
139	0x3dd09498	0.10184592
140	0x3e7b7feb	0.24560516
141	0xbe21bb99	-0.15794219
142	0xbe6701ef	-0.22559331
143	0xbe05b372	-0.13056734
144	0xbcdbade0	-0.026816308
145	0xbdc47e9c	-0.09594461
146	0x3db09ac8	0.08623272
147	0xbeafa2a9	-0.34303787
148	0x3e172ae8	0.14762461
149	0xbe133422	-0.14375356
150	0x3e5c501a	0.21514931
151	0xbec119b9	-0.37714937
152	0xbd87c468	-0.066292584
153	0x3eb64265	0.3559753
154	0xbc849a3a	-0.016186822
155	0x3e9a71a0	0.30164814
156	0xbe5f8fae	-0.21832153
157	0xbdf29628	-0.11845046
158	0x3ba3cbc0	0.004998654
159	0x3e5ac5de	0.21364543
160	0xbcd94530	-0.026522249
161	0xbea47439	-0.3211992
162	0xbdb64308	-0.08899504
163	0xbea1b0d0	-0.3158021
164	0x3ec01c05	0.37521377
165	0xbd037370	-0.03209251
166	0x3e98ee59	0.29869345
167	0x3d98f7a4	0.07469109
168	0x3e33ff7a	0.17577925
169	0xbe8b932c	-0.2726072
170	0xbe1fb9f2	-0.15598276
171	0xbe856546	-0.26053828
172	0xbe4dbf13	-0.2009242
173	0xbeaf51e8	-0.34242177
174	0xbe3cb432	-0.18428114
175	0x3eaba1cf	0.33521888
176	0x3d45c7ef	0.048286375
177	0x3e60788f	0.2192099
178	0x3d32d1b8	0.043657035
179	0x3e476692	0.19472721
180	0x3c81f330	0.015863031
181	0x3ea2c7c3	0.3179303
182	0x3e06f1b1	0.13178135
183	0xbe1d277a	-0.1534709
184	0xbebf0323	-0.3730708
185	0x3dfcc234	0.12341729
186	0xbeb95986	-0.36201113
187	0xbe4d56a3	-0.2005258
188	0xbeb2e22e	-0.34938186
189	0x3e8d93f8	0.27651954
190	0x3d5c0aa1	0.053721074
191	0x3e1f45bb	0.15553944
192	0xbc5d0f80	-0.013492465
193	0xbe578a13	-0.21048765
194	0x3eae0ded	0.33995
195	0x3d77e340	0.060519457
196	0xbe66616e	-0.22498104
197	0xbec0d062	-0.37658983
198	0xbe9ba8ee	-0.3040232
199	0x3e9f555b	0.3111981
200	0x3e8a5ed1	0.27025464
201	0x3e9e6483	0.3093606
202	0xbdd73f54	-0.10510126
203	0x3e71a58d	0.23598309
204	0xbead0d83	-0.3379937
205	0x3e810044	0.25195515
206	0xbe082b91	-0.1329787
207	0x3e9f30db	0.3109196
208	0xbeb0b7b2	-0.34515148
209	0xbe86b479	-0.26309565
210	0xbeb9b3e3	-0.36270055
211	0xbebea47f	-0.37234876
212	0x3c827eb0	0.01592955
213	0xbe6976ac	-0.22799176
214	0xbd4ce9e0	-0.050027728
215	0xbeaa357e	-0.33243936
216	0x3e31a0b6	0.17346463
217	0x3de39970	0.1111325
218	0x3bc05440	0.0058694184
219	0xbec11aae	-0.37715667
220	0xbd6e6b08	-0.05820754
221	0xbdac4b90	-0.0841285
222	0xbea8c1fe	-0.32960504
223	0x3e7e0fa2	0.24810651
224	0xbe8cd55d	-0.27506533
225	0x3ebef326	0.37294883
226	0xbe9821c7	-0.2971327
227	0x3e1a35ca	0.15059581
228	0xbe854898	-0.26031947
229	0x3e1482de	0.14503047
230	0xbd067098	-0.03282222
231	0x3ea1b306	0.31581897
232	0xbe83fdf2	-0.25779682
233	0xbe08482a	-0.13308778
234	0xbe2f8f4e	-0.1714451
235	0x3d0ff648	0.03514698
236	0xbe320e87	-0.17388354
237	0x3e91ddc5	0.2848951
238	0xbeaced9c	-0.33775032
239	0xbdde9ac8	-0.10869366
240	0xbeaee02c	-0.34155405
241	0xbe5764d6	-0.2103456
242	0x3e7523de	0.23939463
243	0x3e66aeda	0.22527638
244	0x3c0634c0	0.0081912875
245	0x3e4ba9f1	0.19889046
246	0xbe7116cc	-0.23543853
247	0x3e91a2be	0.28444475
248	0xbd747ec8	-0.05969122
249	0x3e41809a	0.18896714
250	0x3e8e85ab	0.27836356
251	0xbebd8e88	-0.37022805
252	0xbd6c9c68	-0.057766348
253	0x3d5c2b30	0.053752124
254	0xbe737116	-0.23773608
255	0x3e2a47ba	0.16628924

fc1.bias f4 [128]
0	0xbdc37776	-0.0954427
1	0x3ea4fb4a	0.32222968
2	0x3e2e8c69	0.1704575
3	0xbdd69275	-0.10477153
4	0xbda88be1	-0.08229805
5	0x3e330924	0.17483956
6	0xbe8a6630	-0.27031088
7	0xbe226cce	-0.15861818
8	0xbd200598	-0.039067835
9	0xbea3fde4	-0.3202964
10	0xbc8eaf42	-0.017417554
11	0xbda97a80	-0.08275318
12	0xbe08e3b2	-0.13368109
13	0xbeb36c72	-0.35043675
14	0x3e7161d4	0.23572475
15	0xbdfa413c	-0.12219474
16	0x3e97f689	0.2968028
17	0xbe49a182	-0.19690517
18	0x3e8d4691	0.275929
19	0xbde7c69d	-0.11317179
20	0x3dee500b	0.11636361
21	0xbdade8e8	-0.08491689
22	0x3e824f18	0.2545097
23	0xbe8d64bc	-0.27615917
24	0xbea63112	-0.32459313
25	0xbdef8bb0	-0.11696565
26	0x3e65f979	0.22458448
27	0x3db4918b	0.088168226
28	0x3eb59a14	0.35469115
29	0xbe5907b5	-0.21194346
30	0x3d204988	0.039132625
31	0xbe88eced	-0.2674326
32	0xbde2a096	-0.110657856
33	0xbe53c819	-0.206818
34	0x3def23e3	0.11676767
35	0xbe9d1a4c	-0.30684125
36	0xbdc7f200	-0.09762955
37	0x3dcc15e3	0.09965112
38	0x3e3384ae	0.17531082
39	0x3d015b8d	0.03158145
40	0xbeae474f	-0.3403878
41	0x3e6d0b39	0.23148812
42	0xbd2b7daf	-0.041867908
43	0xbcae3150	-0.021263748
44	0x3dff696b	0.12471279
45	0xbea241f7	-0.31690952
46	0xbe3d8f54	-0.18511707
47	0x3e81684b	0.25274882
48	0xbb5255eb	-0.0032094668
49	0xbe022577	-0.12709604
50	0x3e21ff33	0.15820007
51	0x3e6b9f80	0.23010063
52	0xbdd22d86	-0.10262589
53	0x390b5000	0.00013285875
54	0xbd55d7b8	-0.05220768
55	0x3ea781dd	0.32716265
56	0xbeba4051	-0.36377195
57	0x3e96efdb	0.2947987
58	0x3c8ecbcb	0.01743116
59	0x3eb6f5f4	0.35734522
60	0x3e20a3ed	0.15687533
61	0xbcf94009	-0.030426042
62	0x3dfd2a39	0.12361569
63	0x3eb2529e	0.34828657
64	0x3dd9e79a	0.106398776
65	0x3e13b34b	0.14423864
66	0xbe891522	-0.26773936
67	0x3d5c78fe	0.053826325
68	0x3dbe665c	0.09296867
69	0xbe5bc43b	-0.21461575
70	0xbe3ea1a1	-0.18616344
71	0xbd17ad88	-0.037030727
72	0xbd883cb2	-0.06652202
73	0xbe436e71	-0.19085099
74	0xbeadad3c	-0.3392123
75	0xbebf6b38	-0.3738649
76	0xbe530ae7	-0.20609628
77	0xbe2e4013	-0.1701663
78	0xbd02f13e	-0.031968348
79	0x3d64bec5	0.055845995
80	0xbcb0c044	-0.021576054
81	0xbe8ea2f1	-0.2785869
82	0xbc635e53	-0.013877469
83	0xbd1fced0	-0.03901559
84	0x3e6db600	0.23213959
85	0x3e84bb6b	0.2592424
86	0x3e2271dc	0.15863746
87	0xbdcc05f7	-0.09962075
88	0x3dbe2bbd	0.09285686
89	0xbe9ad09a	-0.30237275
90	0xbe358600	-0.17726898
91	0xbdd8ca20	-0.10585427
92	0xbced562a	-0.02897175
93	0xbe66b444	-0.22529703
94	0xbda84e18	-0.0821802
95	0x3e27db18	0.16392171
96	0x3e8c5ff0	0.27416945
97	0xbe5229b5	-0.20523722
98	0xbebf74ea	-0.37393886
99	0xbc3d88fa	-0.011568302
100	0x3d25ab9d	0.040446866
101	0x3e0d4593	0.13796072
102	0x3eb99287	0.36244604
103	0x3e874f47	0.2642767
104	0x3eb35274	0.35023844
105	0xbe23431e	-0.15943572
106	0xbdfa0ae0	-0.122091055
107	0xbcf3bfdf	-0.029754577
108	0x3e8f2d21	0.27964118
109	0xbe6cfc20	-0.23143053
110	0x3dc97634	0.098369986
111	0x3ebeb4c9	0.37247303
112	0x3e2be022	0.16784719
113	0x3dda5a0f	0.106617086
114	0xbea9ec4a	-0.33188087
115	0x3e1db1a5	0.15399797
116	0xbe3f9966	-0.1871086
117	0xbe2474a9	-0.16060127
118	0x3a579013	0.0008223068
119	0x3eadb346	0.33925837
120	0xbcd848a8	-0.026401833
121	0x3e7b1f02	0.24523547
122	0x3ea3e863	0.32013234
123	0x3e511125	0.20416696
124	0xbeaca622	-0.337205
125	0xbe21147b	-0.15730469
126	0xbe83eec7	-0.2576811
127	0xbeaf7116	-0.34265965

fc2.weight f4 [128, 128]
0	0x3ab72500	0.0013972819
1	0xbdb38ba4	-0.08766869
2	0x3db500c9	0.088380404
3	0xbd8c8a98	-0.06862372
4	0xbd42bb01	-0.047541622
5	0x3cef0800	0.02917862
6	0xbbd90370	-0.0066227242
7	0x3d9a9649	0.07548196
8	0x3d8b720f	0.06808864
9	0xbd292e6f	-0.04130405
10	0x3d03fc4e	0.03222304
11	0x3d070b48	0.032969743
12	0xbda4a529	-0.08039314
13	0x3cc93078	0.024559245
14	0x3cb6afd8	0.022300646
15	0x3da38e1f	0.07986092
16	0x3db2e9f9	0.08736033
17	0x3ccd236c	0.025041305
18	0xbd4ab4c4	-0.049488798
19	0xbd140182	-0.03613425
20	0x3d4d4592	0.050115176
21	0xbaf69640	-0.0018813089
22	0x3afc4080	0.0019245297
23	0x3d40f8be	0.04711222
24	0x3d039c7a	0.03213165
25	0x3b3ba080	0.00286296
26	0xbd8bfd00	-0.06835365
27	0xbd3be1ae	-0.04586952
28	0xbd28e03e	-0.04122948
29	0xbd970a5c	-0.07375023
30	0xbd377c54	-0.044796303
31	0xbd537a23	-0.05163015
32	0x3d043a9a	0.03228245
33	0xbcea15b6	-0.028574806
34	0xbd878c1f	-0.06618523
35	0x3d997d61	0.07494617
36	0x3d8fd0a1	0.07022215
37	0xbcf6e75e	-0.030139621
38	0x3c871b1c	0.016492419
39	0xbd1dc6b9	-0.038519595
40	0xba60ee00	-0.00085803866
41	0x3d7a3bea	0.061092295
42	0x3d15ca2c	0.03656976
43	0x3c5b47c8	0.013383813
44	0x3d66b382	0.056323536
45	0x3d29d32e	0.041461162
46	0x3c852b80	0.016256094
47	0xbca90258	-0.020631
48	0xbbe87ec0	-0.007095188
49	0x3ce87efc	0.028380863
50	0x3d637f82	0.055541523
51	0x3c06fab0	0.0082384795
52	0x3da67a47	0.08128791
53	0xbc8ff690	-0.017573625
54	0xba8eee40	-0.0010904744
55	0xbcd33660	-0.025782764
56	0xbd643655	-0.055715878
57	0x3c4bd7b8	0.012441568
58	0x3cb9b828	0.02267082
59	0xbd333497	-0.043751325
60	0x3da17b67	0.07884865
61	0xbd4df02e	-0.05027788
62	0x3d70063e	0.058599703
63	0xbd8a7d4a	-0.06762178
64	0xbd8d823e	-0.06909607
65	0xbd077087	-0.0330663
66	0xbd803684	-0.06260398
67	0xbd153b8e	-0.03643375
68	0xbd87901f	-0.06619286
69	0xbd84f9df	-0.06492972
70	0xbd2b5dad	-0.041837383
71	0x3cc1b510	0.023645908
72	0x3d3420fe	0.043976776
73	0xbd382efc	-0.044966683
74	0xbb240f00	-0.0025033355
75	0x3d796b96	0.060893618
76	0xbc298ae0	-0.010348052
77	0x3da291ad	0.07937942
78	0x3b8d4f10	0.0043124035
79	0x3cb011f4	0.021492936
80	0x3ce3f344	0.027825959
81	0xbd4e8adc	-0.050425395
82	0x3cd8710c	0.026421092
83	0xbcb0a534	-0.02156315
84	0xbd07d3e6	-0.033161066
85	0x3d98c60d	0.0745965
86	0x3d730dbe	0.059339277
87	0x3d8bd901	0.068284996
88	0xbd3d1b80	-0.046168804
89	0x3c25a560	0.010110229
90	0xbd191c33	-0.03738041
91	0xbd1c4549	-0.038152013
92	0xbda76a7b	-0.081746064
93	0xbc99f3c0	-0.018792987
94	0x3cebfc9c	0.028806977
95	0x3c7195e8	0.014745213
96	0xbd9db1fb	-0.07699963
97	0xbd81b622	-0.06333567
98	0x3da07737	0.078352384
99	0xbc924570	-0.017855376
100	0xbb603700	-0.003421247
101	0x3c8e3618	0.017359778
102	0x3c02cbd0	0.007983163
103	0xbaaec940	-0.0013335124
104	0xbd535652	-0.051595993
105	0x3d506852	0.050880738
106	0xbc0f0060	-0.008728117
107	0x3adb9140	0.0016751662
108	0x3b35f9c0	0.002776727
109	0x3d23821a	0.039918996
110	0x3bc9d4a0	0.00615938
111	0x3d70fd9a	0.058835603
112	0x3daad305	0.0834103
113	0xbd9b89e5	-0.07594661
114	0xbd227104	-0.03965856
115	0x3d0cae1c	0.03434573
116	0xbc2e0bc8	-0.010622926
117	0xbad46cc0	-0.0016206726
118	0xbc92aab4	-0.017903663
119	0x3c0f5ce0	0.0087501705
120	0x3d6ff616	0.058584295
121	0x3c619fc0	0.0137709975
122	0xbd89f203	-0.06735613
123	0x3a8ac440	0.0010587052
124	0x3d8bf805	0.06834415
125	0xbd75d53e	-0.060017817
126	0x39983400	0.00029030442
127	0x3d8d1db5	0.06890432
128	0x3d4b9b5b	0.049708705
129	0xbd6acbaa	-0.057323135
130	0x3da5d817	0.080978565
131	0x3d3a8710	0.045538962
132	0x3cea56f5	0.028605917
133	0x3cc29213	0.023751294
134	0xbcb99560	-0.022654235
135	0x3d93b9e7	0.072131924
136	0x3d689f8a	0.056792773
137	0xbd9a7f17	-0.07543772
138	0x3cc6d0a5	0.024269411
139	0x3da1ecae	0.07906471
140	0xbd9395fa	-0.0720634
141	0xbd172698	-0.03690204
142	0x3d87ad18	0.06624812
143	0x3d2c4e22	0.0420667
144	0xbd4c1ccd	-0.049832154
145	0x3ccb6fb0	0.02483353
146	0xbd4542c7	-0.048159387
147	0x3d6ee3a9	0.058322582
148	0xbd9a2a5a	-0.07527609
149	0xbd62c01f	-0.055359002
150	0x3cd63d58	0.026152298
151	0xbd198348	-0.037478715
152	0x3d2734a6	0.040821694
153	0xbd1c6b91	-0.03818852
154	0xbd958204	-0.07300189
155	0xbd25c4b1	-0.040470783
156	0x3cf28284	0.02960325
157	0xbcb6b86f	-0.022304742
158	0xbd833123	-0.064058565
159	0xbd9725ba	-0.07380243
160	0x3a57331e	0.0008209216
161	0xbb414436	-0.002949012
162	0xbcce1b9a	-0.025159646
163	0xbd44cfc4	-0.048049703
164	0x3d16e20e	0.036836676
165	0xbd27507f	-0.04084825
166	0x3c0fcf4f	0.008777454
167	0xbd8260b8	-0.06366104
168	0x3cb097ac	0.021556698
169	0xbdb5f5d4	-0.088847786
170	0xbdb28ef7	-0.08718675
171	0x3d0e689f	0.034767743
172	0x3b44c8e4	0.0030026967
173	0x3d296336	0.04135438
174	0xbcf818c6	-0.03028525
175	0x3ad69c90	0.0016373564
176	0xbd1e1a19	-0.038599107
177	0xbc77b990	-0.015119925
178	0x3c9a1c12	0.018812213
179	0x3d0e386a	0.03472177
180	0x3d7b8cd4	0.0614136
181	0xbcfe5cb6	-0.031050067
182	0xbd08cc1b	-0.033397775
183	0x3cf2e217	0.029648824
184	0x3d3b826a	0.04577867
185	0xbc0f72c4	-0.00875539
186	0x3d022d42	0.031781442
187	0x3daac54e	0.08338414
188	0xbd12dbd4	-0.035854176
189	0xbdae461c	-0.08509466
190	0xbd9a12ca	-0.07523115
191	0x3cf8dd9a	0.030379105
192	0x3ca48f9f	0.020088015
193	0x3d1e5dd1	0.03866369
194	0xbc6503d8	-0.013977967
195	0x3cd974a4	0.026544876
196	0x3cbd695b	0.023121526
197	0x3d9b7bcd	0.075919725
198	0x3d924ab4	0.07143155
199	0xbd9d3808	-0.07676703
200	0xbda8746b	-0.0822533
201	0x3c609863	0.013708207
202	0x3d91ab73	0.071127795
203	0xbc9df238	-0.019280538
204	0x3d740ff5	0.05958553
205	0x3da618b0	0.081101775
206	0xbd38fa8f	-0.045160826
207	0xbd8133f2	-0.06308736
208	0xbd1465ba	-0.036229827
209	0xbd8b94aa	-0.06815465
210	0x3d2d7bb4	0.0423543
211	0x3cac04e5	0.020998428
212	0x3c2f68c3	0.0107061295
213	0xbd1415af	-0.03615349
214	0xbd0c1e6e	-0.034208708
215	0xbd3cabb1	-0.046062175
216	0x3d95aa34	0.07307854
217	0x3d39f688	0.045401126
218	0x3d960991	0.073260434
219	0xbd3d6275	-0.046236474
220	0x3c7613ec	0.015019398
221	0x3d2f0a7a	0.0427346
222	0xbd21160f	-0.039327677
223	0x3d2045b8	0.03912899
224	0x3d9e5a02	0.077320114
225	0xbd109f37	-0.03530809
226	0x3ce21210	0.027596503
227	0xbdaace12	-0.08340086
228	0x3d975b49	0.07390458
229	0x3d443fcf	0.047912415
230	0x3ce4e957	0.027943296
231	0xbdb46e46	-0.088100955
232	0xbce06745	-0.027392993
233	0xbdae3c6a	-0.08507617
234	0xbdacb4de	-0.08432935
235	0x3d1d84ee	0.03845685
236	0x3d657c32	0.056026645
237	0xbda962ee	-0.082708225
238	0x3c64fb28	0.013975896
239	0xbcc03503	-0.023462778
240	0x3d8aeb50	0.067831635
241	0x3d7f3288	0.06230405
242	0x3d9d9ebb	0.07696291
243	0x3cf29b3d	0.029615039
244	0xbdb6be73	-0.08923044
245	0xbd07102f	-0.03297442
246	0xbd6618d4	-0.05617602
247	0xbc2afe18	-0.010436557
248	0xbc93f4b1	-0.018061014
249	0x3d419bc2	0.047267683
250	0xbd449df4	-0.0480022
251	0x3d55fdc3	0.05224396
252	0xbd877795	-0.06614605
253	0x3d20950e	0.03920465
254	0x3c60c4d5	0.013718803
255	0x3d85403d	0.06506393

fc2.bias f4 [128]
0	0x3cefce8c	0.029273294
1	0xbd61d129	-0.05513111
2	0x3d929769	0.071577854
3	0x3d9e28be	0.07722615
4	0x3da00dc4	0.078151256
5	0x3d76e2f4	0.060275033
6	0xbda83f6a	-0.0821522
7	0xbd94b598	-0.07261199
8	0x3d1279bd	0.03576063
9	0xbd8faf97	-0.07015913
10	0xbd171a2c	-0.036890194
11	0x3da2bdcf	0.07946359
12	0x3d957856	0.07298343
13	0xbc8c4a67	-0.017125322
14	0xbd45a265	-0.048250575
15	0x3d0b18f2	0.033959337
16	0xbd1b5a4d	-0.037927914
17	0xbd5ad813	-0.05342872
18	0xbd6df8ea	-0.05809871
19	0xbd01ccb1	-0.03168935
20	0x3d8a8549	0.067637034
21	0x3cf6fece	0.030150797
22	0x3db0c983	0.08632185
23	0x3d6da89e	0.058022134
24	0x3d945990	0.07243645
25	0x3d55e632	0.052221484
26	0x3c060110	0.008178964
27	0x3d05e669	0.03269044
28	0xbd8b6345	-0.068060435
29	0x3c8a770b	0.016902467
30	0x3d8d9eb4	0.06915036
31	0x3d465f38	0.04843065
32	0x3d9339fa	0.071887925
33	0x3b43d5c1	0.0029882046
34	0xbd936b22	-0.07198168
35	0x3d6d0e1f	0.057874795
36	0xbd5d3a7e	-0.05401086
37	0x3d9c2372	0.07623948
38	0xbd92c407	-0.071662955
39	0xbd1c5663	-0.038168322
40	0x3b6387e0	0.003471844
41	0xbc7c38a6	-0.015394365
42	0x3d64bf08	0.055846244
43	0x3cc72d75	0.024313668
44	0xbad0ca3e	-0.0015929413
45	0xbd8e83c8	-0.06958729
46	0x3dac42f9	0.084112115
47	0x3cdc74cc	0.026911162
48	0xb9b58b00	-0.00034626573
49	0x3d6b5bcc	0.05746059
50	0xbcbe295c	-0.023213081
51	0x3c646301	0.01393962
52	0x3d915f0d	0.070982076
53	0x3d8592c6	0.065221354
54	0x3cee5a25	0.029095719
55	0xbce2e020	-0.027694762
56	0xbdb30a64	-0.08742216
57	0x3ca82f56	0.020530384
58	0xbcde9c7a	-0.027174223
59	0xbbb5ff70	-0.005554132
60	0x3d357f3e	0.0443108
61	0x3da4d138	0.08047718
62	0x3ca6e960	0.020374954
63	0xbd8f2708	-0.069898665
64	0x3a6fc4b6	0.00091464387
65	0x3d9898a8	0.07450992
66	0x3d7dc79e	0.061957948
67	0xbc09a559	-0.008401238
68	0x3d9c9c41	0.076469906
69	0xbd492028	-0.049102932
70	0xbda4ce82	-0.08047201
71	0x3db5fd98	0.0888626
72	0x3db51039	0.08840985
73	0x3c33fb38	0.010985188
74	0xbc9c198b	-0.019055149
75	0xbd8abf93	-0.06774821
76	0x3d41af15	0.04728611
77	0x3d4e4e5b	0.050367694
78	0x3d0fdc70	0.035122335
79	0x3cd92f36	0.02651177
80	0x3d9fc1bf	0.07800626
81	0xbd9690ab	-0.07351812
82	0x3cae53a2	0.021280114
83	0x3c8d9004	0.017280586
84	0xbb01b55a	-0.0019791932
85	0xbd1c1a36	-0.038110934
86	0xbdb15337	-0.0865845
87	0xbcc1afd3	-0.02364341
88	0xbdba8c0b	-0.09108742
89	0xbd0ba73b	-0.03409503
90	0xbcac2dac	-0.021017872
91	0x3d23ea03	0.040018093
92	0x3d7292e6	0.059222125
93	0xbd6076ba	-0.054800726
94	0xbd4f80f4	-0.05066009
95	0x3c9a517f	0.018837688
96	0x3d955f8e	0.07293616
97	0xbdb04cc1	-0.0860839
98	0x3da1d604	0.07902148
99	0xbd4fe797	-0.05075797
100	0xbbd5c0e7	-0.00652324
101	0xbd519f8c	-0.051177546
102	0x3d6cba26	0.057794712
103	0x3db7e27e	0.08978747
104	0xbb85bf1c	-0.00408162
105	0xbda59c07	-0.080864005
106	0x3d8f1991	0.06987298
107	0xbdb7474b	-0.08949145
108	0x3c31a381	0.010842205
109	0x3d601f7d	0.05471753
110	0xbda83500	-0.08213234
111	0xbd868ffa	-0.0657043
112	0x3d692391	0.056918684
113	0x3d5309c4	0.051522985
114	0x3d8b5bad	0.06804595
115	0xbcebea7a	-0.02879833
116	0xbdafb56c	-0.08579525
117	0xbca245c0	-0.01980865
118	0xbd528c14	-0.05140312
119	0xbd427009	-0.047470126
120	0x3d49e6d4	0.0492924
121	0xbc2c6490	-0.010522023
122	0x3d9dcfe8	0.077056706
123	0xbd5a477b	-0.053290825
124	0x3db38b2c	0.08766779
125	0x3d4a491c	0.04938613
126	0xbbb292e9	-0.005449642
127	0x3ca3480f	0.019931821

value_stream.0.weight f4 [64, 128]
0	0x3d2e2bc2	0.0425222
1	0x3c056de8	0.0081438795
2	0x3d9504fd	0.07276342
3	0xbd1dfa5a	-0.038568832
4	0x3d69c1ea	0.057069696
5	0x3d5c238a	0.05374483
6	0xbd94b6f7	-0.0726146
7	0x3d9c7d05	0.07641033
8	0xbd9d34be	-0.076760754
9	0xbd828398	-0.06372756
10	0xbc8d91b8	-0.017281398
11	0x3db288b7	0.087174825
12	0xbd9b7d47	-0.07592254
13	0x3db19225	0.08670453
14	0xbd423828	-0.047416836
15	0x3d4bd676	0.049765073
16	0xbd470179	-0.04858539
17	0x3db24c53	0.08705964
18	0x3c066ef0	0.0082051605
19	0x3d9ded7d	0.07711313
20	0xbcfaf4e4	-0.030634351
21	0x3d8a6b53	0.06758752
22	0x3c89ef64	0.016837783
23	0x3d716212	0.058931418
24	0x3d883f49	0.06652696
25	0xbd3abc90	-0.045589983
26	0x3ceab0f0	0.028648823
27	0xbd5a00b0	-0.053223312
28	0x3d673412	0.056446142
29	0xbd1a9c5e	-0.03774678
30	0x3a83de00	0.0010060668
31	0x3cd68a34	0.026188947
32	0xbd78ed8e	-0.060773425
33	0xbd9de72f	-0.077101104
34	0xbcd8789e	-0.026424702
35	0x3d9821fb	0.07428356
36	0xbda7e9fb	-0.08198925
37	0xbd6850a7	-0.05671754
38	0x3db4c5d7	0.088267975
39	0xbd85cd87	-0.06533342
40	0x3d6357d6	0.05550369
41	0x3bfaf400	0.0076584816
42	0xbd1ff195	-0.03904875
43	0xbcb38efc	-0.021918766
44	0x3c800be0	0.015630662
45	0x3da38067	0.07983475
46	0x3d589d06	0.052884124
47	0xbbd6e4d0	-0.0065580383
48	0xbd16e52d	-0.036839653
49	0xbdb0cd52	-0.08632912
50	0x3bab2aa0	0.005223587
51	0x3d836bf3	0.06417074
52	0xbc544ab0	-0.01295726
53	0xbda68026	-0.08129911
54	0x3d166086	0.036713146
55	0xbd8bda5a	-0.06828757
56	0x3d44f63e	0.048086397
57	0x3d8a716d	0.067599155
58	0xbb711ca0	-0.0036790743
59	0xbd00937a	-0.031390645
60	0xbd3557fd	-0.044273365
61	0xbcd38d80	-0.025824308
62	0xbd42d846	-0.047569536
63	0x3d99ab25	0.07503346
64	0x3d8ce86b	0.06880268
65	0x3d98b41d	0.07456229
66	0xbd433635	-0.047659118
67	0xbd911e40	-0.07085848
68	0xbcb619e0	-0.022229135
69	0xbdb2feed	-0.087400295
70	0xbd2df5ce	-0.042470746
71	0x3bb8a6a0	0.0056350976
72	0xbd01c3be	-0.031680815
73	0x3d0c2cce	0.034222417
74	0x3d6ad0fe	0.057328217
75	0xbda4a54f	-0.080393426
76	0x3d7b968a	0.061422862
77	0xbd9ffb52	-0.078116074
78	0xbb4451c0	-0.0029955953
79	0x3d87477d	0.06605432
80	0xbcd3b218	-0.025841758
81	0xbd05cd56	-0.032666527
82	0x3d929493	0.071572445
83	0x3d73b9b2	0.059503265
84	0xbda812b6	-0.08206694
85	0x3d818745	0.06324629
86	0xbd89edb7	-0.06734794
87	0xbd9fa519	-0.07795162
88	0xbc2677e8	-0.010160424
89	0xbcb822ac	-0.02247747
90	0xbd9cb280	-0.07651234
91	0xbd8a7b3e	-0.06761788
92	0xbcdbda6e	-0.026837554
93	0x3d982d55	0.074305214
94	0xbd3fb6a5	-0.046805043
95	0xbd84eb1c	-0.06490156
96	0x3d99dded	0.07513032
97	0x3d8496f9	0.06474108
98	0xbd539ebb	-0.05166505
99	0xbcf3d6f8	-0.029765591
100	0x3c983770	0.018581122
101	0xbc81dffc	-0.015853874
102	0xbccc4638	-0.024935827
103	0x3c048178	0.008087508
104	0x3dab856d	0.08375058
105	0xbd891c04	-0.06694797
106	0xbd165912	-0.036706038
107	0x3d7b6bc2	0.061382063
108	0xbd819d72	-0.063288584
109	0x3c887018	0.016655013
110	0xbcdda432	-0.027055833
111	0xbcdcf0ec	-0.02697035
112	0x3da8a275	0.08234111
113	0xbd72070a	-0.059088744
114	0x3d96dd5f	0.07366442
115	0x3d945391	0.072425015
116	0x3ccd1f50	0.025039345
117	0x3c733928	0.01484517
118	0xbc275f48	-0.010215588
119	0xbcb86540	-0.022509217
120	0x3d1936fe	0.03740596
121	0x3c898250	0.01678577
122	0x3d9d3ef3	0.07678022
123	0x3c37b2a8	0.011212029
124	0xbd6699ce	-0.056299023
125	0x3c7ec8f0	0.015550837
126	0xbd1619bb	-0.036645632
127	0xbbc89c70	-0.0061221644
128	0xbd098147	-0.033570554
129	0x3d25e53c	0.040501818
130	0xbcd3aad9	-0.025838302
131	0xbd8b69bb	-0.06807276
132	0xbdaff56b	-0.08591732
133	0x3c0a2a00	0.008432865
134	0x3cb241d8	0.021759912
135	0xbd4911f3	-0.049089383
136	0xbd451e17	-0.0481244
137	0x3d9041c9	0.070437975
138	0xbdaf5177	-0.0856046
139	0xbd3a402d	-0.04547136
140	0x3d52e86a	0.05149118
141	0xbcc09f55	-0.023513475
142	0x3d637f3e	0.05554127
143	0xbac54c6a	-0.001505268
144	0x3da1176e	0.07865797
145	0xbd0bb0e9	-0.03410426
146	0x3da41c91	0.08013261
147	0x3d94c686	0.07264428
148	0x3d9e909e	0.07742427
149	0x3abae63d	0.001425929
150	0x3c7b7916	0.015348693
151	0xbd9ccfaf	-0.076568
152	0x3da3e2d2	0.08002247
153	0xbc686ed5	-0.014186581
154	0x3d5d31fa	0.05400274
155	0x3da71a6a	0.08159335
156	0x3dac6d95	0.084193386
157	0x3c9db2dc	0.019250326
158	0x3d841fda	0.06451388
159	0xbcd09498	-0.02546148
160	0xbc9166f4	-0.017749287
161	0xbd538931	-0.051644508
162	0x3d6db303	0.058032047
163	0xbd2ab7f4	-0.041679338
164	0x3db0777f	0.08616542
165	0xbcf4e06a	-0.029892165
166	0xbcd902eb	-0.02649065
167	0x3d782032	0.06057758
168	0x3dae8223	0.08520915
169	0x3d9f6226	0.07782392
170	0xbcab02e9	-0.020875411
171	0xbd23b97d	-0.039971817
172	0xbd7715a0	-0.060323358
173	0xbd8b98c0	-0.06816244
174	0x3d0e8a09	0.03479961
175	0x3c9016af	0.017588941
176	0x3d80b811	0.06285108
177	0x3d609116	0.054825865
178	0xbca73b29	-0.020413952
179	0x3d0603ef	0.032718595
180	0x3d128bda	0.035777904
181	0x3b52baea	0.0032154866
182	0xbdb38141	-0.087648876
183	0x3d8d1f04	0.068906814
184	0x3d8a028f	0.06738769
185	0x3b7f5749	0.0038961938
186	0x3cbe4f44	0.023231156
187	0xbdabbb0a	-0.08385284
188	0x3d2f515e	0.042802207
189	0xbcf56801	-0.02995682
190	0xbc7898a0	-0.015173107
191	0x3c8a6c1c	0.016897254
192	0xbd29adfc	-0.04142569
193	0x3b665522	0.0035145958
194	0xbd57e57f	-0.0527091
195	0x3d762306	0.060091995
196	0x3d2ff9db	0.04296289
197	0x3c1b1d68	0.00946746
198	0x3c6d7448	0.014493056
199	0xbbe05b8a	-0.00684685
200	0xbd0d707c	-0.0345311
201	0xbc83224b	-0.016007563
202	0x3d918bc5	0.07106737
203	0xbd87bd7c	-0.06627938
204	0xbbe3abab	-0.0069479547
205	0x3c9a2d97	0.018820567
206	0x3d1b5966	0.037927054
207	0xbda35a86	-0.0797625
208	0x3d81b99d	0.06334231
209	0xbd1db6c0	-0.038504362
210	0xbd4b0648	-0.049566537
211	0xbd7b1654	-0.06130059
212	0xbcb735ad	-0.022364462
213	0xbd902353	-0.070379876
214	0xbd85a176	-0.06524937
215	0xbd52cdad	-0.05146568
216	0xbd882f11	-0.06649602
217	0x3d4837fe	0.048881523
218	0x3d83ef92	0.06442179
219	0x3d54d019	0.05195627
220	0x3d82b666	0.06382446
221	0x3d5c6e17	0.053815927
222	0x3d8be0b1	0.06829966
223	0xbd83380e	-0.06407176
224	0x3cc1bf71	0.023650857
225	0x3d839eaf	0.06426751
226	0x3ca8fac8	0.020627394
227	0x3d5de20b	0.05417065
228	0x3d8226ba	0.06355043
229	0xbdade7d4	-0.08491483
230	0xbd6643ba	-0.056216933
231	0xbcae701e	-0.021293696
232	0x3d8895ab	0.06669172
233	0x3da4cddb	0.08047076
234	0xbd866781	-0.065627106
235	0xbd7e8081	-0.06213427
236	0xbbb92b37	-0.0056509036
237	0x3d7ff572	0.062489934
238	0xbb84916b	-0.0040456555
239	0xbd85a63a	-0.06525846
240	0x3d698ca0	0.057018876
241	0x3c859bbd	0.016309613
242	0xbd5445a3	-0.051824223
243	0x3d214bf2	0.039379068
244	0xbd39a33c	-0.045321688
245	0x3c1882f0	0.009308562
246	0xbd22e84e	-0.039772324
247	0xbcca4af3	-0.024693942
248	0x3cabb330	0.020959467
249	0xbc06ee38	-0.008235507
250	0x3d1b406f	0.037903246
251	0xbb914545	-0.0044333064
252	0x3d009e63	0.03140105
253	0xbc89b5c0	-0.016810298
254	0xbd121854	-0.035667732
255	0x3920317a	0.0001527722

value_stream.0.bias f4 [64]
0	0xbdaaac45	-0.08333639
1	0xbcbacd00	-0.02280283
2	0xbd7b0421	-0.061283235
3	0xbca1485c	-0.019687824
4	0x3da9a76b	0.082838856
5	0x3d264fc4	0.040603414
6	0x3d9a2409	0.075264044
7	0xbdb261c3	-0.08710053
8	0xbd97c171	-0.07409943
9	0x3d57f017	0.052719202
10	0xbcdbc8d6	-0.026829164
11	0x3da26e05	0.07931141
12	0xbd5e2b06	-0.05424025
13	0xbdad0832	-0.08448829
14	0xbd9f40dc	-0.07776043
15	0xbac3568f	-0.0014903116
16	0xbd4daf3c	-0.050215945
17	0x3cc620d2	0.024185572
18	0x3d52d7bf	0.051475283
19	0x3d9e25d0	0.07722056
20	0xbd604e08	-0.054761916
21	0xbd6ef6a8	-0.0583407
22	0xbd30f42d	-0.043201614
23	0xbd7fd4fb	-0.062458973
24	0x3d53b055	0.051681835
25	0xbda20a0e	-0.07912074
26	0x3d1023cc	0.03519039
27	0xbd15619e	-0.036470048
28	0xbd046a90	-0.03232819
29	0xbd3996d3	-0.045309853
30	0x3c8126a2	0.015765492
31	0xbbf62f5e	-0.007512971
32	0x3d8be32f	0.06830441
33	0x3d85dcb9	0.0653624
34	0x3d4ab2ad	0.049486805
35	0x3c2c8abe	0.010531126
36	0xbd04c8e5	-0.03241815
37	0x3b6019c0	0.0034195036
38	0x3ade7d80	0.0016974658
39	0x3d02a798	0.03189811
40	0xbcef7b8c	-0.029233716
41	0x3da748f8	0.081682146
42	0xbdaa8d24	-0.08327702
43	0xbd8044b2	-0.062631026
44	0xbba5ecb2	-0.0050636167
45	0xbc98af75	-0.018638352
46	0xbd3bc924	-0.04584612
47	0xbd8d2396	-0.06891553
48	0x3d3dbfe4	0.04632558
49	0x3d942337	0.07233279
50	0xbd6db841	-0.058037046
51	0x3d3adbcc	0.04561977
52	0x3c67c2df	0.014145582
53	0x3d469207	0.048479106
54	0x3d189f9c	0.03726159
55	0xbd4822ce	-0.048861317
56	0x3d8467b5	0.06465093
57	0xbcc86f38	-0.024467096
58	0xbd8d9a8f	-0.06914245
59	0xbd400b29	-0.046885643
60	0x3dad3c5c	0.08458778
61	0x3db08012	0.086181775
62	0x3d171c11	0.036892
63	0x3daf7efe	0.08569144

value_stream.2.weight f4 [1, 64]
0	0x3da99f3c	0.08282325
1	0x3cc1c70b	0.023654481
2	0x3d63d528	0.055623204
3	0x3be57c40	0.007003337
4	0xbd234432	-0.039859958
5	0xbd193bb4	-0.037410453
6	0xbe02ac7a	-0.12761107
7	0x3da1ecdc	0.079065055
8	0xbd0be144	-0.034150377
9	0xbd9ea8e0	-0.07747054
10	0xbdc2673e	-0.09492348
11	0x3da5d06a	0.080963925
12	0x3df3c185	0.11902145
13	0x3d0ac580	0.033879757
14	0xbd9e413c	-0.07727286
15	0x3dc31718	0.09525889
16	0x3d980d1e	0.07424377
17	0x3de737ca	0.11289938
18	0x3df11c67	0.117729954
19	0x3dc9f5ba	0.09861322
20	0x3cfc9af0	0.030835599
21	0xbd81402e	-0.063110694
22	0x3dd8d280	0.10587025
23	0x3dd68c10	0.104759336
24	0xbc9aea7c	-0.018910639
25	0xbdc1be20	-0.094600916
26	0x3d0cdd57	0.034390774
27	0xbd984a1a	-0.07436009
28	0xbd60192c	-0.054711506
29	0x3d7215d0	0.059102833
30	0x3c5f046e	0.013611896
31	0xbd1258d7	-0.035729256
32	0xbd2ac941	-0.041695837
33	0xbdf4110a	-0.119173124
34	0x3da11a5e	0.07866357
35	0xbc2a1f6d	-0.010383469
36	0x3daa3d6e	0.08312498
37	0x3d9d8224	0.07690838
38	0xbd5169f0	-0.05112642
39	0xbd74343e	-0.059620135
40	0xbdcaae62	-0.09896542
41	0x3d6d1a98	0.05788669
42	0xbd5e50ec	-0.054276392
43	0x3dc99144	0.0984216
44	0xbdd732fb	-0.10507771
45	0x3d90c371	0.070685275
46	0x3df995fa	0.12186809
47	0x3dadecdc	0.08492443
48	0x3ddb1a5f	0.10698389
49	0x3d5aa951	0.05338413
50	0xbd91466f	-0.07093512
51	0x3d823346	0.06357436
52	0xbc23ebd4	-0.010004956
53	0xbdb54f25	-0.08852986
54	0xbd998b6e	-0.07497297
55	0xbd1f1e44	-0.038847223
56	0xbcf2dae9	-0.0296454
57	0xbd9ec62e	-0.077526435
58	0x3d9f1394	0.07767406
59	0xbbf78c12	-0.0075545395
60	0xbbffaf58	-0.007802885
61	0xbd11ae5c	-0.035566673
62	0xbdd1b95e	-0.10240434
63	0xbd1d0fc6	-0.03834512

advantage_stream.0.weight f4 [64, 128]
0	0xbc0e2d70	-0.008677825
1	0xbda6fd3f	-0.081537716
2	0x3ca6d085	0.020363102
3	0x3d4a9b61	0.049464587
4	0x3d93321c	0.07187292
5	0xbc722f62	-0.014781805
6	0x3d50a7fa	0.050941445
7	0x3c6f00a0	0.014587551
8	0xbda35fb4	-0.07977238
9	0x3ce3bdeb	0.02780052
10	0x3da37cb7	0.07982772
11	0x3cba9664	0.02277679
12	0xbdb50c29	-0.0884021
13	0xbb711a26	-0.0036789267
14	0x3db3581d	0.08757041
15	0xbd2f6d76	-0.042829
16	0xbca9ea67	-0.020741655
17	0xbd508458	-0.050907463
18	0xbd913603	-0.0709038
19	0xbdb5e47b	-0.0888147
20	0xbcfa9bfe	-0.030591961
21	0x3d8b0b6b	0.06789287
22	0xba9cdfeb	-0.0011968588
23	0xbd6ca639	-0.05777571
24	0x3cfb5cd6	0.030683916
25	0x3d895f5e	0.06707643
26	0xbc5fb4a8	-0.013653912
27	0xbd9a0fd6	-0.07522552
28	0x3da81c8f	0.08208572
29	0x3d442247	0.047884252
30	0x3c1b5648	0.00948102
31	0x3d995bbf	0.07488202
32	0x3cab1ed3	0.020888722
33	0xbbbf9f0c	-0.0058478173
34	0xbd8e6ebf	-0.06954717
35	0xbd4e33da	-0.05034242
36	0xbd767d34	-0.060177997
37	0xbd1cbd1e	-0.038266294
38	0xbda192fb	-0.078893624
39	0x3d9010cf	0.07034456
40	0xbd0a8aeb	-0.03382389
41	0xbcc1d6fd	-0.023662085
42	0x3d965fd8	0.073424995
43	0xbc6fce06	-0.014636522
44	0x3c0cf5b4	0.008603502
45	0xbd50dfc7	-0.05099466
46	0x3d851df1	0.064998515
47	0x3c85a043	0.01631177
48	0x3d4ccb06	0.049998306
49	0xbcf835f0	-0.030299157
50	0xbcfe6fab	-0.031059107
51	0x3cee7b1c	0.029111437
52	0xbd9043af	-0.070441596
53	0xbd62bdca	-0.05535678
54	0x3ce3d23e	0.027810212
55	0xbd755fa5	-0.059905667
56	0xbcb3c6dc	-0.02194541
57	0xbd03b7fa	-0.032157876
58	0xbccf4e50	-0.025305897
59	0x3d6473a9	0.055774365
60	0xbd9cabff	-0.07649993
61	0x3dadde8b	0.08489712
62	0x3d01373e	0.031546824
63	0x3d490b4b	0.049083035
64	0xbbada7cb	-0.0052995435
65	0x3d3916cb	0.045187753
66	0x3ce175f5	0.027522067
67	0x3d38567d	0.045004357
68	0x3c23530a	0.0099685285
69	0x3d86a2d7	0.06574028
70	0xbd4414ba	-0.04787133
71	0x3d80fab0	0.06297815
72	0xbd824566	-0.06360893
73	0x3c3f7e93	0.0116878925
74	0x3c1b6e36	0.009486726
75	0xbd5354a4	-0.05159439
76	0x3d87d9a3	0.06633308
77	0x3d9b4685	0.0758181
78	0xbd44c389	-0.04803804
79	0x3da3f7fc	0.08006284
80	0xbc8ff993	-0.017575061
81	0x3da2f369	0.07956583
82	0xbd435dde	-0.04769694
83	0x3baa2da0	0.005193427
84	0x3d922b28	0.07137138
85	0xbd0e39bc	-0.03472303
86	0x3d6f7e36	0.058469974
87	0xbd9619c6	-0.07329135
88	0x3d28272b	0.04105298
89	0xbd523303	-0.05131818
90	0xbd8cdec1	-0.068784244
91	0xbc8a295f	-0.01686543
92	0x3d4e6cb4	0.050396636
93	0xbcdcc08d	-0.026947284
94	0x3ce9ed1c	0.028555445
95	0x3d94c988	0.072650015
96	0x3b9624a3	0.004582004
97	0xbda8acb9	-0.08236069
98	0x3ca75c14	0.020429648
99	0x3d3c71b7	0.046006884
100	0xbb47b23a	-0.0030471222
101	0x3d142c72	0.0361752
102	0xbc692106	-0.014229065
103	0xbc911bfc	-0.01771354
104	0x3c83a25b	0.016068628
105	0x3d1675ed	0.036733557
106	0xbcde92ff	-0.027169703
107	0x3caa4db2	0.020789001
108	0xbc838a4f	-0.016057162
109	0x3d83f392	0.06442942
110	0x3c8a453f	0.016878722
111	0x3d80a051	0.06280578
112	0x3d1f54fa	0.0388994
113	0xbd571c37	-0.052517142
114	0x3c91b6e6	0.017787408
115	0xbbec42d0	-0.007210113
116	0x3d783fd2	0.06060774
117	0x3db02a75	0.08601848
118	0xbd9aca77	-0.07558148
119	0x3c800ef7	0.015632136
120	0xbd185e8a	-0.037199534
121	0xbd95afdc	-0.07308933
122	0xbd8d35e8	-0.068950474
123	0xbd2d9ecb	-0.042387765
124	0x3d125851	0.035728756
125	0x3cffbe18	0.031218573
126	0x3b0eeb5a	0.002180776
127	0x3d835c05	0.06414036
128	0x3d24d5a2	0.0402428
129	0xbc84aaa2	-0.016194645
130	0x3cabead1	0.020985993
131	0x3c143479	0.009045714
132	0x3cc0fbe0	0.023557603
133	0xbce06eb8	-0.027396545
134	0xbd321bab	-0.043483417
135	0x3c39c648	0.011338778
136	0x3da558ba	0.08073564
137	0x3d437339	0.047717307
138	0x3d7066c0	0.05869174
139	0x3c2871a8	0.010281004
140	0xbd4c7cba	-0.049923636
141	0xbcfa5e7e	-0.030562636
142	0xbd3b0499	-0.04565868
143	0x3d15139b	0.03639565
144	0x3da6d584	0.081461936
145	0x3c2f3216	0.010693094
146	0x3d8c136d	0.06839643
147	0xbd878be6	-0.066184804
148	0x3ccdcd74	0.025122382
149	0xbd4b9bb3	-0.049709033
150	0xbcade614	-0.021227874
151	0xbd7ec5ba	-0.062200285
152	0x3db0151b	0.085977755
153	0xbda4ce83	-0.080472015
154	0x3d3d0402	0.0461464
155	0xbce61b93	-0.02808932
156	0xbcf2c846	-0.029636513
157	0xbd63f631	-0.05565471
158	0x3d72b538	0.059254855
159	0xbcfb2898	-0.030659005
160	0x3d64b607	0.055837657
161	0xbd6d69a7	-0.057962086
162	0x3d1eafd1	0.03874189
163	0xbc582664	-0.013192747
164	0xbb4d7900	-0.003135264
165	0xbb736eae	-0.0037144828
166	0x3c729f40	0.014808476
167	0xbd245121	-0.040116433
168	0xbd47f493	-0.04881723
169	0x3db0380b	0.08604439
170	0xbc9da2d9	-0.01924269
171	0xbcc69631	-0.024241539
172	0xbcafd4b8	-0.021463737
173	0xbcaf33b8	-0.021386966
174	0xbc9e8542	-0.019350652
175	0xbd81ce1b	-0.063381396
176	0xbcfabcb4	-0.030607559
177	0xbd703ee2	-0.05865372
178	0x3b5252d4	0.0032092826
179	0x3be2ec70	0.006925158
180	0x3cf8b790	0.030360967
181	0x3c0fb203	0.008770469
182	0xbda9e570	-0.08295715
183	0x3ce76753	0.028247511
184	0x3d63650a	0.05551628
185	0xbd5fbc5a	-0.054622985
186	0xbd88481e	-0.0665438
187	0x3da67bcd	0.08129082
188	0x3d1572fe	0.03648662
189	0x3d433976	0.04766222
190	0x3db2a9c5	0.08723787
191	0x3c84d1ce	0.016213324
192	0x3d403761	0.046927813
193	0x3d1d59ad	0.0384156
194	0xbcb11d98	-0.021620557
195	0x3c8bdb70	0.01707241
196	0x3bcf2665	0.0063217157
197	0x3d7dd5b6	0.06197139
198	0xbd770b52	-0.06031353
199	0x3d67437b	0.05646084
200	0xbd9b2752	-0.07575859
201	0xbd0c1f2c	-0.034209415
202	0xbda4171a	-0.08012219
203	0x3d89044b	0.06690272
204	0xbd288dbc	-0.041150793
205	0x3d8ee0ef	0.069764964
206	0x3d06e9ea	0.03293792
207	0x3d984b8d	0.07436285
208	0x3d3e1356	0.04640516
209	0x3cea2c0c	0.028585456
210	0x3d3d7379	0.0462527
211	0x3da6f211	0.08151639
212	0x3d014c2d	0.031566788
213	0xbd5cd187	-0.05391076
214	0xbc9b5d64	-0.01896543
215	0x3d8fa93b	0.070147
216	0xbd82cb62	-0.063864484
217	0xbc93da58	-0.01804845
218	0xbd50e11b	-0.050995927
219	0x3d1b6df7	0.037946668
220	0x3ce6eda7	0.028189493
221	0x3d315258	0.04329142
222	0xbc9136dc	-0.017726354
223	0xbd8e6814	-0.06953445
224	0xbbe007f3	-0.006836885
225	0xbd8f5f44	-0.07000592
226	0x3d7b84aa	0.061405815
227	0x3d9b32a6	0.0757802
228	0x3db94af7	0.090475015
229	0x3d23f2a2	0.040026315
230	0x3babc476	0.005241926
231	0x3d2e7650	0.0425933
232	0x3d2b9edf	0.04189956
233	0xbd88cc5b	-0.06679603
234	0xbcb4a95a	-0.02205341
235	0xbc535132	-0.012897776
236	0x3da2bc9d	0.079461314
237	0x3ce1da99	0.027570056
238	0xbccc935a	-0.024972606
239	0x3d3b845e	0.045780532
240	0xbccd3ec2	-0.02505434
241	0xbdaf8019	-0.085693546
242	0xbd3eb10a	-0.046555556
243	0x3d6541c2	0.055970915
244	0xbc0da2f9	-0.008644813
245	0xbd0cfc1c	-0.034420118
246	0x3d7ce813	0.06174476
247	0x3bae22ef	0.005314223
248	0xbc58d889	-0.01323522
249	0xbc1ce59e	-0.009576229
250	0xbd025886	-0.031822704
251	0xbd97ab0a	-0.0740567
252	0xbda220f1	-0.07916439
253	0x3d9d5864	0.07682875
254	0x3bde2f59	0.0067805466
255	0x3bda94e2	0.0066705802

advantage_stream.0.bias f4 [64]
0	0xbc3d48cc	-0.011553001
1	0x3d5f5871	0.054527704
2	0xbd106325	-0.0352508
3	0x3d221582	0.039571293
4	0xbd0d135e	-0.034442298
5	0x3d642e4d	0.05570822
6	0xbb3c515b	-0.0028735015
7	0x3cfc02e7	0.030763103
8	0x3d805a24	0.06267193
9	0x3db3eb52	0.08785118
10	0xbcbb3bd8	-0.022855684
11	0x3d4d38b0	0.05010289
12	0x3ca70458	0.020387813
13	0xbd231f4e	-0.039824776
14	0xbdb42eb6	-0.08797972
15	0x3dad86e2	0.084729925
16	0xbc436769	-0.01192651
17	0x3cf46331	0.029832454
18	0x3d529de5	0.05142011
19	0xbd0314b3	-0.032002162
20	0xbd574bc8	-0.052562505
21	0x3d6c299c	0.05765687
22	0xbd9eb27b	-0.07748886
23	0xbcdfdd7f	-0.027327297
24	0xbda9a31f	-0.08283066
25	0x3da9f789	0.08299167
26	0xbd1d3539	-0.038380835
27	0xbd8eaac6	-0.06966166
28	0x3da523d1	0.08063472
29	0x3d44f9e6	0.048089884
30	0x3d9794d9	0.07401437
31	0xbc81b45c	-0.015833072
32	0xbdb31a22	-0.08745219
33	0x3db4f447	0.08835655
34	0xbcf2af3c	-0.029624574
35	0x3b4b102a	0.0030984976
36	0xbc0f3d28	-0.008742608
37	0x3d5ccbb2	0.053905196
38	0xbd512ada	-0.051066257
39	0x3d41ec5a	0.047344543
40	0x3d9c832d	0.07642207
41	0xbd74e846	-0.059791826
42	0xbce62af2	-0.02809665
43	0xbb9d6a70	-0.004803948
44	0xbd0a7ef3	-0.033812474
45	0x3da58237	0.08081477
46	0xbd3f0082	-0.046631344
47	0xbb129f25	-0.002237269
48	0xbc0c4b50	-0.008562878
49	0x3d0522b6	0.032503806
50	0x3c4a7438	0.01235681
51	0xbd6f2e98	-0.058394045
52	0xbd13cb43	-0.036082517
53	0xbd4b10b0	-0.04957646
54	0xbd70ca76	-0.05878683
55	0xbd78709c	-0.060654268
56	0xbbbb2950	-0.005711712
57	0xbdb23089	-0.087006636
58	0x3d256995	0.040383894
59	0x3c5f68bf	0.013635813
60	0x3d590a1b	0.052988153
61	0x3d1a8040	0.037719965
62	0x3d8dc537	0.06922381
63	0x3c982bdb	0.0185756

advantage_stream.2.weight f4 [2, 64]
0	0x3df479ac	0.119372696
1	0xbdd6badd	-0.1048486
2	0xbd8d8a35	-0.069111265
3	0x3de6be05	0.11266712
4	0x3d9a49c0	0.07533598
5	0xbdff28a7	-0.12458926
6	0x3d2fc070	0.042908132
7	0xbce48970	-0.027897567
8	0x3d515a28	0.05111137
9	0xbc8c2f84	-0.017112501
10	0x3db62d0e	0.08895312
11	0x3dda6d1e	0.10665344
12	0xbd030ca8	-0.03199449
13	0x3d35a3b0	0.044345558
14	0xbd9a70be	-0.07541035
15	0xbddf9834	-0.10917702
16	0x3d81d7ea	0.063400105
17	0xbdcd2bf4	-0.10018149
18	0xbddc3b4d	-0.10753498
19	0x3dd64789	0.10462863
20	0x3d442a20	0.047891736
21	0x3d370e12	0.044691153
22	0x3df4e9ef	0.11958682
23	0x3dad3d8a	0.08459003
24	0x3dd47bfc	0.10375211
25	0x3c963f08	0.018340603
26	0xbdf8a1ff	-0.12140273
27	0x3deaef50	0.114714265
28	0xbdc2cfec	-0.09512314
29	0xbceeb7ac	-0.029140316
30	0xbdcdbe4d	-0.100460626
31	0x3d22bdf4	0.039731935
32	0x3d7e71a0	0.06212008
33	0x3d52dea1	0.051481847
34	0xbdda456d	-0.10657773
35	0xbd7ac180	-0.061219692
36	0xbd758e40	-0.059950113
37	0xbd2b8961	-0.04187906
38	0xbd4b1144	-0.049577013
39	0x3d27ece3	0.040997397
40	0xbcceed12	-0.025259528
41	0xbd869150	-0.06570685
42	0x3cac4a60	0.021031559
43	0xbdb139f2	-0.0865363
44	0xb9b76cc2	-0.0003498551
45	0x3cacc2e2	0.021089021
46	0x3d8947e7	0.067031674
47	0xbd4688f1	-0.04847044
48	0x3d6afc18	0.05736932
49	0xbd15a9ac	-0.036538765
50	0xbd9f2576	-0.07770817
51	0x3cceed88	0.025259748
52	0x3d006470	0.031345785
53	0x3b50ae40	0.0031842142
54	0x3d92d03e	0.07168625
55	0xbdb8b090	-0.090180516
56	0xbc36b6a0	-0.01115194
57	0x3d785d04	0.06063558
58	0x3db3f90a	0.08787735
59	0x3d8e0f18	0.06936473
60	0x3d35dfd8	0.044402927
61	0xba10c06f	-0.0005521839
62	0xbcc36373	-0.023851132
63	0xbbf8b3ca	-0.007589792
64	0xbd17d1af	-0.037065204
65	0xbdc606d3	-0.0966927
66	0xbc2824b6	-0.010262659
67	0xbd3a2b6a	-0.04545156
68	0x3b0f5400	0.0021870136
69	0x3d76cfd6	0.0602568
70	0x3c2f79ca	0.010710189
71	0xbdedf6e0	-0.11619353
72	0xbd206380	-0.03915739
73	0x3d5ecee5	0.05439653
74	0xbba7aac0	-0.0051167905
75	0xbde33acc	-0.11095199
76	0xbd7ad108	-0.061234504
77	0x3d9d9404	0.07694247
78	0xbdb09a90	-0.086232305
79	0x3d5fb179	0.05461261
80	0xbccb10c1	-0.024788262
81	0xbc93a1b0	-0.018021435
82	0xbd1580c2	-0.036499746
83	0xbd5e9e71	-0.05435032
84	0x3da0803c	0.07836959
85	0xbd685c02	-0.05672837
86	0xbd38f5da	-0.045156337
87	0x3d10cc65	0.035351176
88	0x3dc76050	0.09735167
89	0xbbc5c1a0	-0.006035045
90	0x3cca9703	0.024730211
91	0x3d2c8448	0.04211834
92	0xbd30cf8d	-0.043166686
93	0x3cc99954	0.024609245
94	0x3dbdfa9b	0.09276315
95	0x3ad65900	0.0016353428
96	0x3d5069a0	0.05088198
97	0x3d8e5004	0.069488555
98	0x3d67e9bd	0.056619395
99	0x3da8a575	0.082346834
100	0xbc3a3c20	-0.011366874
101	0x3d9a2663	0.07526853
102	0x3da30828	0.0796054
103	0xbd986508	-0.07441145
104	0x3d422035	0.047393996
105	0x3c967b60	0.018369377
106	0xbd51a2fc	-0.051180825
107	0x3d9ec34a	0.07752092
108	0xbde78443	-0.11304524
109	0xbda8a297	-0.082341366
110	0xbd2f41c8	-0.042787343
111	0xbc6d56c4	-0.014486019
112	0xbd831fa1	-0.06402517
113	0xbcdb0529	-0.026735859
114	0xbdcdfeae	-0.10058342
115	0xbd343e9c	-0.04400502
116	0x3dd01c1e	0.10161613
117	0xbc6f89c0	-0.0146202445
118	0x3c5cac20	0.013468772
119	0xbd6e123c	-0.05812286
120	0xbd9c8c86	-0.0764399
121	0xbdbf199a	-0.09331055
122	0x3d3697e7	0.04457846
123	0x3e009798	0.12557828
124	0xbd331a00	-0.043725967
125	0x3d9e46fa	0.077283815
126	0xbd5bbee2	-0.053648837
127	0xbd6d9d33	-0.058011245

advantage_stream.2.bias f4 [2]
0	0x3d003ac2	0.031306036
1	0x3d68cee2	0.056837924
