models/d3qn_agent.pth (torch, 159394 bytes, 11 tensors)

fc1.weight f4 [128, 42]
0.06436613 -0.01904502 0.035351075 0.3313626 0.111567974 0.0031534268 -0.13626121 0.07948549
-0.84110963 -1.0854537 -0.8657576 -1.0473537 0.82956356 0.87660426 -0.09491694 0.3191236
0.06347639 0.40474287 0.72861975 0.8980978 0.092214815 -0.09714359 -0.042287342 0.036774326
0.92906314 1.0125475 0.051767755 -0.122419454 -0.03517109 0.2960159 0.023522263 0.08215181
0.23580492 0.07810597 0.03444248 0.35266885 -0.113499016 0.05314159 0.096025884 -0.0076318304
-0.020853918 0.08151265 0.0987572 0.1971534 0.10925433 0.079146974 -0.031932913 0.09979049
-0.09002862 -0.054325595 -1.1143079 -1.1344094 -1.1486831 -0.96616435 0.94868493 0.73612106
-0.020029215 0.28161785 0.08578604 0.46510565 0.6900308 0.7515105 -0.06749425 -0.11731556
0.16379441 0.25380567 0.71737665 0.7513547 0.09251486 0.057515655 0.17869176 0.19711941
-0.011006288 -0.0052701933 0.049216118 0.19540697 0.1888017 0.28830713 -0.012239271 0.07535514
0.14082251 0.035644628 0.18367189 0.10666477 -0.07667796 0.16883312 0.0027388658 0.097621545
-0.088498466 -0.005439893 -0.038967084 -0.038042735 -0.9871926 -1.0803531 -1.0785674 -1.0917293
0.7928782 0.93312526 0.07018212 0.23537816 0.09580604 0.48250794 0.7905297 0.8824456
0.059112675 0.08078606 0.0013731648 0.2798521 0.79308736 0.84757876 0.12679702 -0.07018523
0.13127421 0.24785326 -0.16093649 0.014127853 0.26225516 0.020093884 0.14948621 0.25037196
0.042007286 -0.07655716 0.16125275 0.0885668 -0.056373388 -0.010839013 0.08568611 0.14819445
-0.0447716 0.082472675 -0.032299973 -0.09371038 -0.069411054 -0.06782117 -1.0951592 -1.1719509
-1.0645982 -1.0564336 0.8946181 0.8773414 0.041530196 0.3513385 0.15229861 0.43981704
0.9115686 0.95318437 -0.049471177 0.18097998 0.10629942 0.16689563 0.90749824 0.92335063
0.24289909 0.109478235 0.21529305 0.3646954 0.05240733 -0.123113886 0.07447459 0.22055161
0.16717353 0.28929815 0.00055447244 -0.19207175 0.029086996 0.11996632 0.1288116 0.045093313
-0.0044738636 -0.06592789 0.06126965 0.18528992 0.1574745 -0.15151097 0.022009598 -0.12482988
-1.1247264 -1.1545573 -0.9448838 -1.0874897 0.93847454 1.0232999 -0.09154137 0.077414855
0.28467762 0.4751178 0.92515737 0.79557043 -0.066965565 0.089428306 0.13987307 0.2563442
0.95607674 1.0399688 0.10638178 -0.1195593 -0.008255983 0.37712467 -0.024894176 0.076687895
0.29062554 0.18694408 0.11338981 0.3103494 -0.1800062 -0.16951273 -0.03817462 -0.09196681
0.0013414229 -0.09623949 0.15968424 0.18619162 -0.06770551 0.13767284 0.08410728 0.029997662
-0.012737564 0.13370173 -1.1168482 -1.1042986 -1.0301409 -1.0262158 0.7240818 0.8151601
0.06982459 0.14897345 0.13488148 0.16572766 0.7509351 0.7392158 0.14576055 -0.048357654
0.072060585 0.27694348 0.66618574 1.016993 0.0603815 -0.03578798 -0.008181608 0.07896076
0.010022531 -0.046076205 0.2093842 0.033474885 0.19161728 0.36435628 -0.012833734 -0.12920663
-0.003900475 0.12579109 -0.08133635 0.08053827 0.009678044 0.07348608 -0.11900434 0.046304803
00000000: 64d2 833d 4d04 9cbc 4acc 103d 5ca8 a93e
00000010: c07d e43d b9a9 4e3b 0f88 0bbe 4ac9 a23d
00000020: f652 57bf 26f0 8abf 4aa2 5dbf b00f 86bf
00000030: 475e 543f 2369 603f d063 c2bd 2b64 a33e
00000040: e9ff 813d 753a cf3e d386 3a3f bde9 653f
00000050: 1fdb bc3d 38f3 c6bd 7e35 2dbd ada0 163d
00000060: 15d7 6d3f 289b 813f 6d0a 543d 0db7 fabd
00000070: 900f 10bd 658f 973e c3b1 c03c 353f a83d
00000080: d876 713e 06f6 9f3d 8f13 0d3d 0391 b43e
00000090: 2c72 e8bd ffaa 593d 38a9 c43d 6f14 fabb
000000a0: d6d5 aabc 1bf0 a63d 3741 ca3d 95e2 493e
000000b0: bcc0 df3d cf17 a23d 16cc 02bd f55e cc3d
000000c0: ed60 b8bd 8484 5ebd a4a1 8ebf 5434 91bf
000000d0: 0c08 93bf 8c56 77bf 04dd 723f 6e72 3c3f
000000e0: 4f14 a4bc 3730 903e 97b0 af3d 5422 ee3e
000000f0: dca5 303f fe62 403f 6d3a 8abd 2443 f0bd
00000100: b9b9 273e d1f2 813e ffa5 373f c858 403f
00000110: 6e78 bd3d 8995 6b3d f9fa 363e acd9 493e
00000120: b853 34bc 96b1 acbb d796 493d c418 483e
00000130: 3c55 413e fe9c 933e 3987 48bc cc53 9a3d
00000140: c733 103e 1a00 123d 7c14 3c3e 0f73 da3d
00000150: 5609 9dbd 97e2 2c3e 8b7e 333b ceed c73d
00000160: af3e b5bd 2141 b2bb f39b 1fbd b3d2 1bbd
00000170: a7b8 7cbf 0349 8abf 7f0e 8abf c9bd 8bbf
00000180: 11fa 4a3f 4ce1 6e3f a5bb 8f3d f906 713e
00000190: f535 c43d 480b f73e 2860 4a3f f4e7 613f
000001a0: 2220 723d 2973 a53d c4fb b33a c648 8f3e
000001b0: c607 4b3f ecfa 583f 14d7 013e 46bd 8fbd
000001c0: bf6c 063e 3fcd 7d3e 89cc 24be 8378 673c
000001d0: 4f46 863e ee9b a43c ea12 193e c130 803e
000001e0: d50f 2c3d 00ca 9cbd 711f 253e 8362 b53d
000001f0: c8e7 66bd 1e96 31bc 337c af3d 49c0 173e
00000200: 6d62 37bd 6fe7 a83d fa4c 04bd 3aeb bfbd
00000210: 6227 8ebd d3e5 8abd 2d2e 8cbf 7d02 96bf
00000220: c144 88bf 3739 87bf b105 653f 7299 603f
00000230: 911b 2a3d a4e2 b33e 2bf4 1b3e b32f e13e
00000240: 8f5c 693f e403 743f 4aa2 4abd d152 393e
00000250: 83b3 d93d b0e6 2a3e ce51 683f b560 6c3f
00000260: 8aba 783e 2036 e03d c875 5c3e 5bb9 ba3e
00000270: 12a9 563d 2223 fcbd 2286 983d 48d8 613e
00000280: 8a2f 2b3e e31e 943e 045a 113a 75ae 44be
00000290: da47 ee3c e7b0 f53d 30e7 033e c4b3 383d
000002a0: 7d99 92bb 3405 87bd e2f5 7a3d a4bc 3d3e
000002b0: ff40 213e b125 1bbe 794d b43c cfa6 ffbd
000002c0: 09f7 8fbf 89c8 93bf e8e3 71bf dd32 8bbf
000002d0: de3f 703f 7efb 823f 0b7a bbbd ae8b 9e3d
000002e0: 44c1 913e a442 f33e 1dd7 6c3f 81aa 4b3f
000002f0: 3e25 89bd 3026 b73d e33a 0f3e 8c3f 833e
00000300: 72c1 743f b31d 853f b1de d93d 82db f4bd
00000310: 1a44 07bc 7c16 c13e dfee cbbc 8b0e 9d3d
00000320: dfcc 943e 456e 3f3e eb38 e83d 1ee6 9e3e
00000330: 8c53 38be bf94 2dbe fe5c 1cbd 1859 bcbd
00000340: afd2 af3a 3619 c5bd 4484 233e 04a9 3e3e
00000350: 30a9 8abd 1cfa 0c3e 7040 ac3d a8bd f53c
00000360: 37b1 50bc 1be9 083e e2f4 8ebf a859 8dbf
00000370: a8db 83bf 0a5b 83bf 6d5d 393f 55ae 503f
00000380: 3200 8f3d 7f8c 183e 5f1e 0a3e 83b4 293e
00000390: 483d 403f 3f3d 3d3f 4142 153e ad12 46bd
000003a0: 8094 933d 89cb 8d3e 268b 2a3f d42c 823f
000003b0: 9752 773d 6b96 12bd 270c 06bc 2eb6 a13d
000003c0: 8b35 243c 67ba 3cbd d068 563e f61c 093d
000003d0: 5237 443e e88c ba3e 9544 52bc be4e 04be
000003e0: 1d9f 7fbb 61cf 003e ac93 a6bd 40f1 a43d
000003f0: a990 1e3c df7f 963d 8cb8 f3bd 1baa 3d3d

fc1.bias f4 [128]
1.0618353 1.1392307 0.9011802 1.0484127 1.106334 1.1075257 0.9931752 0.95370436
1.0801295 0.7017045 1.1135325 0.87703234 1.0232958 0.9382987 0.9443543 0.92323446
0.955353 1.2188141 1.0128008 1.0185676 0.9494402 1.1075468 1.1173162 1.0828675
1.0133054 1.1112591 1.2777861 1.1991719 0.8851916 0.8645334 0.9267606 -0.102334596
0.95514154 -0.1011583 0.91324025 0.9456161 0.02157782 0.9745971 0.11444014 0.9364762
0.8661975 1.0192841 1.1621745 0.9785457 1.1160939 0.89111954 0.9907964 0.96416974
0.91716605 0.8665963 1.1355307 1.0963315 0.9469017 1.0222617 1.0789614 0.8776647
0.8368467 0.97222567 1.0739247 0.92114383 1.1332418 0.8817951 1.1091889 1.0718206
1.1028047 1.0473875 1.1138928 0.90994537 1.0018537 1.0123702 0.9192464 1.07575
1.0511196 0.9115377 0.88206804 1.0205727 0.9187904 1.0253606 1.0073888 1.0232433
0.75402576 1.0376453 0.8148827 0.83231455 1.0660808 1.0333161 0.9008122 1.0769049
0.831852 1.0599122 0.84340775 1.0818877 0.8575984 1.0504193 0.8143884 1.0861235
0.892529 0.9938113 1.094775 1.1275436 1.0225779 0.98907894 1.0542996 1.1442302
0.87636137 1.0774509 0.92704713 1.2527748 1.0017842 0.9761661 1.036025 1.2232485
0.89559454 1.0498021 1.0364112 0.9583174 1.0093821 0.98533255 1.061302 1.113925
1.0943093 0.96025926 0.9839754 1.1019181 1.1241242 1.0263733 1.0868375 1.0542054
00000000: 38ea 873f 50d2 913f bfb3 663f 6332 863f
00000010: 5a9c 8d3f 67c3 8d3f bb40 7e3f f825 743f
00000020: af41 8a3f e8a2 333f 3c88 8e3f 3185 603f
00000030: 5bfb 823f 5834 703f 34c1 713f 1859 6c3f
00000040: 0492 743f 1a02 9c3f 75a3 813f 6c60 823f
00000050: 830e 733f 18c4 8d3f 3804 8f3f 679b 8a3f
00000060: feb3 813f bd3d 8e3f 7f8e a33f 777e 993f
00000070: eb9b 623f 1052 5d3f 2f40 6d3f cd94 d1bd
00000080: 2884 743f 152c cfbd 1dca 693f e613 723f
00000090: f8c3 b03c 327f 793f 985f ea3d e7bc 6f3f
000000a0: 1fbf 5d3f e777 823f 22c2 943f f981 7a3f
000000b0: 2adc 8e3f 6920 643f d5a4 7d3f d4d3 763f
000000c0: 65cb 6a3f 41d9 5d3f 1259 913f 9754 8c3f
000000d0: 2668 723f 79d9 823f 681b 8a3f a2ae 603f
000000e0: 963b 563f c8e3 783f 5d76 893f 15d0 6b3f
000000f0: 110e 913f 53bd 613f e7f9 8d3f 6b31 893f
00000100: b428 8d3f cb10 863f 0a94 8e3f 2ef2 683f
00000110: be3c 803f 5995 813f bb53 6b3f 2db2 893f
00000120: 168b 863f 895a 693f 36cf 613f 20a2 823f
00000130: d935 6b3f 043f 833f 1ef2 803f a3f9 823f
00000140: d507 413f 90d1 843f 279c 503f 9112 553f
00000150: 5675 883f b443 843f a19b 663f 05d8 893f
00000160: 41f4 543f 34ab 873f 92e9 573f 4c7b 8a3f
00000170: 928b 5b3f 2474 863f c27b 503f 1806 8b3f
00000180: c87c 643f 6b6a 7e3f 9621 8c3f 5953 903f
00000190: d5e3 823f 4734 7d3f 4af3 863f 2376 923f
000001a0: 3859 603f e9e9 893f f652 6d3f ed5a a03f
000001b0: 773a 803f 06e6 793f 789c 843f 6893 9c3f
000001c0: af45 653f ea5f 863f 1fa9 843f 4a54 753f
000001d0: 6f33 813f c13e 7c3f bed8 873f 1895 8e3f
000001e0: 5412 8c3f 8dd3 753f d0e5 7b3f a70b 8d3f
000001f0: 4de3 8f3f 3360 833f 7e1d 8b3f 34f0 863f

fc2.weight f4 [128, 128]
0.59676343 0.658242 0.7459647 0.9091347 0.7298725 0.45138738 0.51603377 0.62796634
0.59169936 -3.0390098 0.37431264 0.62054646 0.7079382 0.3732962 0.85213417 0.41517487
0.41580322 0.9907268 0.8952297 0.6415068 0.7551871 0.5419579 0.5870006 0.67030805
0.57523066 0.5219112 1.0521641 0.88756657 0.43204674 0.65167344 0.5627517 -0.012807585
0.66647786 -0.059736654 0.4549865 0.5201101 0.0027500317 0.6438432 -0.040732946 0.6664724
0.5226551 0.8519091 1.0199635 0.80526716 0.4164895 0.7761314 0.73735785 0.97651434
0.6235954 0.4393881 0.62789214 0.5977984 0.7284665 0.8816644 0.55432755 0.6383329
0.49057433 0.9134494 0.80687255 0.585259 1.0937787 0.43126976 0.6120797 0.40138382
0.46879113 0.48421466 1.0381901 0.8291823 0.87831354 0.64828306 0.65060127 0.51751417
0.56332415 0.60213375 0.62488115 0.5122854 0.57552344 0.7505479 0.5446354 0.41763693
-2.524352 0.66788363 0.4083858 0.5533329 0.53343314 0.5113793 0.6065681 0.7285049
0.56637317 0.5162359 0.47488886 0.47329754 0.4380332 0.9294995 0.4725669 0.4866996
0.66273195 0.5670037 0.7118964 0.662003 1.0140905 0.6568232 1.0246539 0.587274
0.6241952 0.63406 0.6503377 0.9955044 0.60578626 0.5656105 0.6780957 1.0927026
0.28903928 0.49841493 0.5805095 0.629571 0.5878009 0.79809934 0.89826494 0.8580438
0.58622897 0.4259846 0.5164351 0.65258545 0.47640228 0.6182719 0.38934514 0.63796556
0.56042904 0.6717943 0.68436015 1.0095644 0.7924532 0.4252981 0.4457784 0.57967997
0.6433306 -2.9899526 0.43568298 0.56380606 0.61496127 0.42069864 0.8978997 0.44808525
0.47971275 0.94347423 0.95856357 0.7002997 0.74937046 0.3958618 0.61932796 0.5968181
0.48162135 0.44220203 1.1483642 1.0283747 0.550727 0.63020813 0.50032264 0.009998128
0.6482144 0.08343524 0.51283556 0.5482403 0.05667033 0.6095248 -0.08185112 0.64773935
0.6096911 0.8789339 1.1767541 0.9274712 0.58118707 0.8071704 0.7063054 0.8417478
0.6021204 0.3581066 0.5709818 0.6054642 0.7366175 0.90330946 0.4517958 0.54567486
0.46971676 0.7986325 0.75089073 0.4296522 1.1437424 0.46592918 0.56945 0.3921886
0.46709344 0.52233124 0.9194666 0.75379294 0.71883106 0.6848607 0.708931 0.474021
0.5678442 0.7110735 0.5476787 0.38027063 0.6056094 0.7571326 0.48497832 0.40121472
-2.52434 0.6604501 0.44221237 0.42366922 0.65631354 0.6409934 0.63024265 0.758202
0.41862714 0.479577 0.43990192 0.5206786 0.47076586 0.9388542 0.4151438 0.53967255
0.5677506 0.46192056 0.7512301 0.6550573 1.0072263 0.6211792 1.0455155 0.5236165
0.6751262 0.5663847 0.5945095 0.96572447 0.48687503 0.519605 0.7483441 1.0962673
0.35280034 0.5314472 0.6003478 0.5194853 0.5767181 0.7613789 0.7675049 1.0006528
0.56581247 0.3679447 0.6648921 0.60727966 0.56046236 0.46091777 0.34734076 0.64705896
00000000: 7dc5 183f 8c82 283f 8bf7 3e3f 0dbd 683f
00000010: edd8 3a3f 3f1c e73e ca1a 043f 67c2 203f
00000020: 9c79 173f 237f 42c0 e8a5 bf3e 22dc 1e3f
00000030: 703b 353f ae20 bf3e 7725 5a3f cd91 d43e
00000040: 29e4 d43e 46a0 7d3f c62d 653f ca39 243f
00000050: f153 413f c1bd 0a3f ac45 163f 4f99 2b3f
00000060: 5142 133f f99b 053f 50ad 863f 9037 633f
00000070: 3b35 dd3e 12d4 263f 7f10 103f e8d6 51bc
00000080: 4b9e 2a3f 6cae 74bd fef3 e83e ef25 053f
00000090: e039 343b e8d2 243f 97d7 26bd ef9d 2a3f
000000a0: bacc 053f b716 5a3f 2a8e 823f fd25 4e3f
000000b0: 1d3e d53e 8cb0 463f 7cc3 3c3f d8fc 793f
000000c0: f3a3 1f3f 7af7 e03e 8abd 203f 5109 193f
000000d0: c87c 3a3f c2b4 613f 69e8 0d3f c969 233f
000000e0: 8f2c fb3e d2d7 693f 338f 4e3f 89d3 153f
000000f0: f100 8c3f 64cf dc3e 41b1 1c3f 2e82 cd3e
00000100: 6405 f03e fcea f73e 6ae3 843f 4b45 543f
00000110: 28d9 603f e1f5 253f ce8d 263f cf7b 043f
00000120: 0336 103f 7025 1a3f 36f8 1f3f 2325 033f
00000130: 8155 133f e823 403f 3a6d 0b3f 82d4 d53e
00000140: fc8e 21c0 6cfa 2a3f f217 d13e 3aa7 0d3f
00000150: 138f 083f c1e9 023f 0c48 1b3f 4c7f 3a3f
00000160: d5fd 103f 0928 043f a224 f33e 0e54 f23e
00000170: e345 e03e aef3 6d3f 4af4 f13e b130 f93e
00000180: cda8 293f 2827 113f d83e 363f 0779 293f
00000190: b8cd 813f 9125 283f dc27 833f 9757 163f
000001a0: 42cb 1f3f c251 223f 887c 263f 60d9 7e3f
000001b0: cf14 1b3f dacb 103f ae97 2d3f aedd 8b3f
000001c0: f5fc 933e 3e30 ff3e 459c 143f 912b 213f
000001d0: 1f7a 163f 3d50 4c3f b1f4 653f c2a8 5b3f
000001e0: 1a13 163f a71a da3e 1735 043f d70f 273f
000001f0: 00eb f33e 1147 1e3f 3f58 c73e b651 233f
00000200: 4778 0f3f b6fa 2b3f 3a32 2f3f 6839 813f
00000210: 37de 4a3f acc0 d93e 113d e43e e865 143f
00000220: 50b1 243f 625b 3fc0 d711 df3e 9855 103f
00000230: 1a6e 1d3f d065 d73e c1dc 653f 6e6b e53e
00000240: e99c f53e 8787 713f 6c64 753f d746 333f
00000250: bed6 3f3f 66ae ca3e 478c 1e3f 12c9 183f
00000260: 1397 f63e 4e68 e23e 99fd 923f c8a1 833f
00000270: 72fc 0c3f 5255 213f 2515 003f 30cf 233c
00000280: 61f1 253f 18e0 aa3d 3149 033f 7a59 0c3f
00000290: 261f 683d d109 1c3f 8fa1 a7bd 3fd2 253f
000002a0: b714 1c3f d001 613f e19f 963f c16e 6d3f
000002b0: adc8 143f b8a2 4e3f 6ed0 343f c97c 573f
000002c0: 9024 1a3f c059 b73e dd2b 123f b4ff 1a3f
000002d0: f792 3c3f 4a3f 673f c751 e73e 59b1 0b3f
000002e0: b77e f03e 2e73 4c3f 603a 403f 60fb db3e
000002f0: 2766 923f 458e ee3e 7ac7 113f f2cc c83e
00000300: df26 ef3e 80b7 053f 2a62 6b3f 93f8 403f
00000310: 5005 383f 0853 2f3f 817c 353f e1b2 f23e
00000320: 3d5e 113f ea08 363f ac34 0c3f d5b2 c23e
00000330: 3809 1b3f 71d3 413f 144f f83e 046c cd3e
00000340: c98e 21c0 4213 293f a969 e23e 2ceb d83e
00000350: 2a04 283f 2518 243f 9557 213f 8719 423f
00000360: 4c56 d63e 1e8b f53e d33a e13e 314b 053f
00000370: 3908 f13e c058 703f ba8d d43e fb27 0a3f
00000380: 1a58 113f da80 ec3e 9e50 403f d6b1 273f
00000390: cbec 803f 9a05 1f3f 74d3 853f bb0b 063f
000003a0: 12d5 2c3f 96fe 103f c631 183f b839 773f
000003b0: af47 f93e d504 053f 7b93 3f3f 7d52 8c3f
000003c0: 3fa2 b43e ec0c 083f 65b0 193f fdfc 043f
000003d0: cca3 133f bae9 423f 337b 443f 6415 803f
000003e0: 16d9 103f 3f63 bc3e 5e36 2a3f ae76 1b3f
000003f0: 767a 0f3f 6afd eb3e a6d6 b13e a8a5 253f

fc2.bias f4 [128]
0.9705671 0.9535287 0.81754094 -0.07460685 0.95226854 -0.08927011 0.07120238 0.054269068
0.9820714 0.8320172 0.973547 0.8611337 0.9146753 0.006617531 0.9255968 -0.07004306
0.8457543 0.86917955 -0.052221283 0.8890487 0.95334744 0.8527065 0.96986467 0.80584943
0.9729055 0.014933391 -0.022731982 0.8476664 0.027810592 -0.07221422 0.037883654 0.04320202
0.97777957 0.86473995 0.85620713 0.9893812 0.92668486 0.92287225 0.8410568 0.90615577
-0.073354095 0.9101975 0.87886286 0.9016998 0.9320084 0.0465413 0.055600338 0.859037
0.9595656 0.8634169 -0.0006608516 0.030114114 0.9184661 0.9208335 -0.050375454 -0.039621085
0.85963225 1.0273229 -0.04838633 0.8240233 0.91338485 0.05978628 0.83552295 0.9322706
0.87265503 0.053877324 0.95173293 0.9544805 0.008199789 0.95619273 0.9195191 0.855379
0.9281821 0.92161113 0.82017916 0.950954 0.9210878 0.86656207 0.9239004 0.9441289
0.018909488 0.9541205 0.0715969 -0.079901144 0.0090393135 0.0322438 0.9327322 0.94150066
0.8615525 0.9742753 0.086841665 0.07562674 -0.08525977 0.96635264 0.044680383 0.073859654
0.82841665 -0.07205394 0.98716205 0.97124255 0.9061853 0.06932721 0.9504314 0.017877229
0.86143506 -0.08657346 -0.01571424 -0.019766577 0.9942014 -0.095770404 0.07492117 0.970987
-0.08213743 0.90681 0.052759655 0.8513148 0.89395505 0.9450226 -0.08165547 0.96018827
-0.042815458 -0.06793833 0.8536579 0.9128495 0.087683015 0.83159685 0.91403157 0.849599
00000000: 1677 783f 751a 743f 5d4a 513f 7acb 98bd
00000010: dfc7 733f 3fd3 b6bd 8ed2 913d 3e49 5e3d
00000020: 0869 7b3f 14ff 543f 603a 793f 4273 5c3f
00000030: 2928 6a3f e0d7 d83b e9f3 6c3f bc72 8fbd
00000040: 5b83 583f 8d82 5e3f fce5 55bd b298 633f
00000050: 940e 743f f94a 5a3f 0d49 783f 264c 4e3f
00000060: 5610 793f 2eab 743c 6c38 babc aa00 593f
00000070: 0ad3 e33c 0de5 93bd e42b 1b3d 9af4 303d
00000080: c34f 7a3f 995f 5d3f 6430 5b3f 1648 7d3f
00000090: 383b 6d3f 5b41 6c3f 804f 573f d3f9 673f
000000a0: ac3a 96bd b402 693f 28fd 603f ccd5 663f
000000b0: 1a98 6e3f 17a2 3e3d 2ebd 633d d9e9 5b3f
000000c0: 17a6 753f e408 5d3f 003d 2dba e0b1 f63c
000000d0: 9820 6b3f bfbb 6b3f 7e56 4ebd b849 22bd
000000e0: dc10 5c3f 517f 833f bf30 46bd 31f3 523f
000000f0: 97d3 693f 75e2 743d d5e4 553f 49a9 6e3f
00000100: 5266 5f3f 78ae 5c3d c5a4 733f d658 743f
00000110: 6858 063c 0cc9 743f 9b65 6b3f 1efa 5a3f
00000120: 589d 6d3f b5ee 6b3f 43f7 513f b971 733f
00000130: 69cc 6b3f 03d7 5d3f bd84 6c3f 6eb2 713f
00000140: 12e8 9a3c 3e41 743f 65a1 923d 36a3 a3bd
00000150: a119 143c 1312 043d 8ac7 6e3f 3006 713f
00000160: b48e 5c3f 1b6a 793f 0bda b13d 31e2 9a3d
00000170: ad9c aebd e362 773f c702 373d bb43 973d
00000180: 1d13 543f 0491 93bd a7b6 7c3f 5aa3 783f
00000190: c3fb 673f 6dfb 8d3d 794f 733f 4473 923c
000001a0: 0287 5c3f 6d4d b1bd 26bb 80bc 84ed a1bc
000001b0: fc83 7e3f 4623 c4bd 4570 993d 9b92 783f
000001c0: ab37 a8bd b324 683f 821a 583d c4ef 593f
000001d0: 3dda 643f 00ed 713f fc3a a7bd e6ce 753f
000001e0: 435f 2fbd 4023 8bbd 5389 5a3f 81b0 693f
000001f0: 2793 b33d 88e3 543f f9fd 693f 527f 593f

value_stream.0.weight f4 [64, 128]
-0.023447342 0.05139733 0.05116702 -0.017368756 0.050201483 -0.047889944 0.05678033 0.01627729
0.011826798 -0.08680549 0.004293047 -0.0012999699 0.060764633 -0.010970645 0.070904545 -0.036014754
0.05110445 0.087458216 -0.063115664 -0.004226677 0.016746871 -0.050342955 0.06561675 0.018610783
0.040655695 -0.048489727 0.035437867 -0.023382016 0.0434094 -0.084977634 -0.023650892 -0.08372567
-0.06204898 -0.072028205 -0.053630833 -0.035133865 -0.081636325 0.05934445 0.020691507 0.08339142
0.024716586 0.042104535 -0.05952529 -0.017928764 -0.052612532 0.03298404 0.027468689 -0.027932666
-0.0655056 0.07181252 -0.037570134 0.03965982 -0.04153295 0.018456958 -0.08522866 0.01034914
0.04926475 0.044653602 -0.021959856 -0.060846634 0.067172 -0.05467762 -0.025448613 -0.05571635
-0.07949612 -0.077339515 0.0073783845 0.0119390935 0.049924783 0.029449217 -0.030841652 -0.082243904
-0.042168353 -0.028019961 0.020629428 0.006654747 -0.047154833 -0.044131618 -0.06997408 0.019952886
-0.06964457 -0.018259563 -0.0052383915 0.054231875 -0.07976747 -0.07825199 -0.07966436 0.007972889
0.059564672 -0.043184873 -0.038170293 0.062156193 -0.023410603 -0.022308886 0.049068578 0.008704945
-0.0854404 0.032765307 -0.04932685 0.054257654 -0.06699833 -0.04354267 -0.030973993 0.055052035
0.03324517 0.012532562 0.04008182 -0.029548828 0.07404632 0.03294429 0.0068778917 -0.038276207
0.03492491 0.063055195 0.024796411 -0.03852692 -0.0068759546 -0.04470768 0.066915385 0.012078747
0.02405785 -0.04023984 0.084481455 0.04172329 -0.07447775 0.040665783 0.08061116 0.00492426
0.019180395 0.004668951 0.074579515 -0.039900295 -0.04938556 0.027090989 -0.08312739 0.07880152
-0.041475564 -0.05876928 0.0034093857 -0.08459457 0.008674957 -0.088197656 -0.049137987 -0.078915104
-0.08229671 0.014451005 0.08682083 0.03578817 0.010891244 -0.08058683 -0.07978507 0.015826963
0.010917775 -0.0102710575 -0.08197383 -0.0066612884 -0.033831663 0.086066805 0.032558717 0.08217364
0.0447694 -0.041351423 -0.026678324 0.037786894 -0.016369432 0.053282015 -0.035401087 0.050849713
0.03339486 -0.009781398 0.004054822 0.039655544 -0.06426346 0.03893792 0.048443563 0.079849474
0.07813542 -0.014404304 0.029489689 0.032568626 -0.030218594 0.0075418204 0.0020701066 -0.021008424
-0.039736006 0.0036297068 -0.055026125 -0.08639056 0.05135628 0.058450244 -0.06440956 -0.025981035
-0.05663507 0.08239568 -0.058150746 0.07906333 -0.06513838 -0.06119304 -0.076471575 -0.07860922
0.051001705 -0.011830494 -0.0728874 0.03916075 0.0064292178 -0.028481584 0.040731795 -0.008552134
0.0803942 0.060424007 0.0037183613 0.08451346 -0.06550596 0.015787765 -0.07511446 0.06347992
0.07957294 0.0552961 0.006141737 0.0510874 -0.050096724 -0.04532119 0.000984624 0.07548978
-0.013869524 -0.032013386 -0.0023945495 -0.031612128 -0.014082119 0.035733417 -0.029229186 -0.006670274
0.068812184 -0.040905643 -0.0042162985 0.010771193 0.065832295 0.031335257 -0.06780458 -0.027755026
0.035628676 0.008482471 -0.015395999 -0.021094695 -0.08207897 -0.069661945 -0.059682675 0.03601931
0.06591115 -0.054743793 -0.048976533 -0.0880641 0.021609634 -0.05901288 -0.06055125 0.007756181
00000000: a414 c0bc 0286 523d 8294 513d ec48 8ebc
00000010: 12a0 4d3d 3f28 44bd 7e92 683d f457 853c
00000020: 30c5 413c 14c7 b1bd b0ac 8c3b c063 aaba
00000030: 56e4 783d 38be 33bc 6736 913d 3584 13bd
00000040: e652 513d 4b1d b33d c942 81bd f07f 8abb
00000050: bc30 893c 6a34 4ebd 1362 863d a475 983c
00000060: 9686 263d 2a9d 46bd 4c27 113d a48b bfbc
00000070: 0ece 313d c108 aebd 84bf c1bc 5d78 abbd
00000080: 1227 7ebd 8683 93bd 01ac 5bbd 87e8 0fbd
00000090: f230 a7bd 2a13 733d 3c81 a93c 1fc9 aa3d
000000a0: 707a ca3c ce75 2c3d cad0 73bd 58df 92bc
000000b0: 3d80 57bd 461a 073d 0406 e13c 0cd3 e4bc
000000c0: cd27 86bd 7112 933d 24e3 19bd 5672 223d
000000d0: 741e 2abd 0c33 973c 5d8c aebd 708f 293c
000000e0: d6c9 493d b2e6 363d 28e5 b3bc 523a 79bd
000000f0: 7991 893d a4f5 5fbd 9c79 d0bc d436 64bd
00000100: ddce a2bd 2e64 9ebd 60c6 f13b 309c 433c
00000110: ee7d 4c3d 7c3f f13c a2a7 fcbc 7e6f a8bd
00000120: b9b8 2cbd 1e8a e5bc 0cff a83c 1010 da3b
00000130: 6d25 41bd 5bc3 34bd 924e 8fbd 3c74 a33c
00000140: d0a1 8ebd 1495 95bc d0a6 abbb 3e22 5e3d
00000150: 215d a3bd 9442 a0bd 1127 a3bd b8a0 023c
00000160: 16fa 733d 9fe2 30bd 7458 1cbd 7e97 7e3d
00000170: 98c7 bfbc 20c1 b6bc 22fc 483d 309f 0e3c
00000180: 60fb aebd ea34 063d f30a 4abd 463d 5e3d
00000190: 6c36 89bd cc59 32bd 2cbd fdbc 3e7e 613d
000001a0: 162c 083d 6055 4d3c d62c 243d 6210 f2bc
000001b0: 99a5 973d 98f0 063d f05f e13b 83c7 1cbd
000001c0: 6c0d 0f3d 1523 813d d821 cb3c 67ce 1dbd
000001d0: b04f e1bb 661f 37bd ef0a 893d f0e5 453c
000001e0: f814 c53c 88d2 24bd 9d04 ad3d 0ae6 2a3d
000001f0: ca87 98bd 2a91 263d 7717 a53d b05b a13b
00000200: 3420 9d3c 00fe 983b 25bd 983d 7e6e 23bd
00000210: 8348 4abd eced dd3c b13e aabd b162 a13d
00000220: 48e2 29bd 0eb8 70bd 0070 5f3b eb3f adbd
00000230: 6821 0e3c f9a0 b4bd ea44 49bd 3e9e a1bd
00000240: 2d8b a8bd e8c3 6c3c 1fcf b13d 9e96 123d
00000250: 3071 323c b50a a5bd 5b66 a3bd 8ca7 813c
00000260: 78e0 323c f047 28bc e5e1 a7bd f046 dabb
00000270: 1293 0abd cb43 b03d 4a5c 053d a74a a83d
00000280: 1e60 373d 1c60 29bd 808c dabc 6ec6 1a3d
00000290: 3019 86bc 3e3e 5a3d bb00 11bd ca47 503d
000002a0: 0cc9 083d 2842 20bc 50de 843b da6d 223d
000002b0: 909c 83bd 5e7d 1f3d c26c 463d 1f88 a33d
000002c0: 7705 a03d 0800 6cbc 5c94 f13c ae66 053d
000002d0: fc8c f7bc 6021 f73b a0aa 073b dc19 acbc
000002e0: 39c2 22bd 60e0 6d3b 1363 61bd 89ed b0bd
000002f0: f65a 523d 8669 6f3d 29e9 83bd 2ed6 d4bc
00000300: 2dfa 67bd 11bf a83d 7a2f 6ebd f5eb a13d
00000310: 4567 85bd 8ea5 7abd 219d 9cbd dffd a0bd
00000320: 2ae7 503d b0d4 41bc fd45 95bd 0667 203d
00000330: 30ac d23b 3652 e9bc 62d6 263d 401e 0cbc
00000340: b7a5 a43d 2a7f 773d c0af 733b 6515 ad3d
00000350: fd27 86bd 5855 813c 9cd5 99bd c301 823d
00000360: 23f7 a23d 2a7e 623d a040 c93b 0641 513d
00000370: 3932 4dbd b6a2 39bd 800e 813a 639a 9a3d
00000380: 003d 63bc 7820 03bd e0ed 1cbb b87b 01bd
00000390: b0b8 66bc 345d 123d 0c72 efbc 5092 dabb
000003a0: 67ed 8c3d ad8c 27bd e028 8abb a879 303c
000003b0: 15d3 863d 6659 003d 21dd 8abd 825e e3bc
000003c0: 60ef 113d 10fa 0a3c 803f 7cbc c8ce acbc
000003d0: 0519 a8bd ecaa 8ebd d275 74bd fc88 133d
000003e0: 6dfc 863d 073b 60bd 9e9b 48bd f35a b4bd
000003f0: b006 b13c 7db7 71bd 9604 78bd 9027 fe3b

value_stream.0.bias f4 [64]
-0.06554915 -0.06176967 0.07803043 -0.0007443452 -0.068183094 -0.06499831 -0.06733006 0.067344405
0.7359467 0.7343547 -0.05874868 0.820491 -0.05186645 -0.05529736 -0.068781756 -0.050476637
-0.07607883 0.009848652 -0.07309937 0.69309056 0.048985146 0.83538395 0.006217748 0.76199824
0.73357135 0.0011318482 0.038251016 0.00376353 0.7520412 0.8816716 -0.06512378 0.76564664
0.020715723 0.07457974 0.80608344 0.83167607 0.7129419 0.73596764 -0.027426286 0.78566617
-0.061074447 0.8088549 0.8765999 0.047854386 0.86975276 0.69699854 0.0680052 0.70971584
0.6774841 -0.03650644 -0.042984005 0.039421592 0.06904983 -0.06344914 -0.052565705 -0.040517654
-0.005396217 0.73369014 0.06780185 0.8117679 0.043242894 -0.091055445 0.7256485 0.82019174
00000000: a23e 86bd 3202 7dbd 6bce 9f3d 2920 43ba
00000010: 94a3 8bbd d51d 85bd 58e4 89bd ddeb 893d
00000020: 0167 3c3f abfe 3b3f 75a2 70bd b30b 523f
00000030: ea71 54bd 7c7f 62bd 73dd 8cbd 97c0 4ebd
00000040: 38cf 9bbd 3e5c 213c 1fb5 95bd 626e 313f
00000050: a6a4 483d b9db 553f 40be cb3b 5112 433f
00000060: 55cb 3b3f 865a 943a 19ad 1c3d 8ea5 763b
00000070: c685 403f 3bb5 613f 9e5f 85bd 6b01 443f
00000080: 05b4 a93c 43bd 983d 7c5b 4e3f b9e8 543f
00000090: 5c83 363f 6068 3c3f 17ad e0bc 6b21 493f
000000a0: 3329 7abd 1d11 4f3f da68 603f f602 443d
000000b0: 1ea8 5e3f 7f6e 323f 4f46 8b3d f0af 353f
000000c0: 996f 2d3f c787 15bd ff0f 30bd 8978 213d
000000d0: ff69 8d3d 9ff1 81bd 234f 57bd d7f5 25bd
000000e0: c0d2 b0bb 1ed3 3b3f b2db 8a3d 05d0 4f3f
000000f0: 761f 313d 477b babd 1ac4 393f 16f8 513f

value_stream.2.weight f4 [1, 64]
0.036123723 0.08378211 0.07773526 0.06455805 0.076796606 0.09302778 0.04705828 0.053086568
-0.77090627 -0.7586981 -0.06725228 -0.7467626 0.02780279 0.023745835 0.10949165 0.043936223
-0.029676527 0.066746615 -0.10535392 -0.7679336 -0.040754125 -0.79612863 -0.009042591 -0.7690449
-0.6988022 0.048896622 0.028554808 0.057846148 -0.6994548 -0.736712 0.03518082 -0.7488301
0.11699024 0.0520295 -0.8093622 -0.8109729 -0.75188637 -0.81495166 0.048955258 -0.7425437
0.08834807 -0.734413 -0.73397744 -0.009396344 -0.75131875 -0.7957074 0.023505306 -0.75408536
-0.8071473 -0.10735759 0.036161408 0.0734327 0.028445933 0.006651572 -0.038848266 0.034595132
0.035392642 -0.76413184 0.0380526 -0.7132291 0.10568246 0.019654164 -0.74418217 -0.7607327
00000000: 78f6 133d f495 ab3d aa33 9f3d 0337 843d
00000010: 8a47 9d3d 5985 be3d 2fc0 403d 4d71 593d
00000020: 1d5a 45bf 0a3a 42bf 90bb 89bd d52b 3fbf
00000030: adc2 e33c a086 c23c 283d e03d 78f6 333d
00000040: 301c f3bc 73b2 883d ccc3 d7bd 4c97 44bf
00000050: cced 26bd 16cf 4bbf 6027 14bc 20e0 44bf
00000060: b3e4 32bf d347 483d c6eb e93c 15f0 6c3d
00000070: 780f 33bf 2899 3cbf c319 103d 54b3 3fbf
00000080: 9498 ef3d e31c 553d 5c32 4fbf ec9b 4fbf
00000090: a07b 40bf aca0 50bf 4f85 483d 5817 3ebf
000000a0: d5ef b43d 7e02 3cbf f2e5 3bbf 20f3 19bc
000000b0: 6d56 40bf 7bb3 4bbf 338e c03c bd0b 41bf
000000c0: 35a1 4ebf 4cde dbbd fc1d 143d e263 963d
000000d0: 7207 e93c 6ef5 d93b 5c1f 1fbd a0b3 0d3d
000000e0: e0f7 103d 259e 43bf 0bdd 1b3d 2f96 36bf
000000f0: 0c70 d83d c501 a13c b982 3ebf 61bf 42bf

advantage_stream.0.weight f4 [64, 128]
-0.040617518 0.042700283 -0.052918855 0.06839507 0.036221042 0.020311452 0.07023477 -0.0333545
-0.027576357 -0.011216305 -0.019757599 -0.044206627 0.055117197 0.07333966 0.06877758 0.024341509
-0.020001799 0.023161255 -0.020245187 0.05154196 -0.053958006 -0.06946669 -0.030177955 0.070900865
-0.080637425 -0.018981926 0.038841538 0.03868153 0.00638327 0.014559217 -0.04095133 0.032499157
-0.084284015 -0.05862069 0.0025603771 0.048537545 0.036759757 0.027382143 0.068647854 -0.012506582
0.08669988 0.0119658485 0.059462465 -0.04296227 -0.0072171763 0.024566673 -0.024408475 -0.045935977
-0.073352344 0.04399117 -0.007207237 -0.018356405 -0.05523297 -0.08596837 0.015472926 0.040959112
-0.03314901 -0.068155766 0.033265308 -0.08101234 -0.0448973 -0.023514852 -0.071266785 -0.044661675
0.07377923 0.083986096 -0.08698885 -0.029089268 0.04493598 0.016104393 -0.0864262 -0.043304894
-0.010956265 -0.07996531 0.06635765 0.021764137 0.076315336 0.044547223 -0.05516628 -0.029712189
0.07468017 0.01853498 0.07317946 -0.06534634 -0.010185532 0.054878302 -0.0015962347 0.079948716
0.084238194 0.027608775 0.064258404 0.02945777 -0.038117144 0.01631634 0.08561904 0.0348823
-0.0821245 -0.07740177 0.072966106 0.047825508 0.0018978417 -0.05461668 0.05549688 0.00018052757
0.039398827 0.0029007792 -0.06900546 -0.056054633 -0.04261476 -0.024320573 0.061625637 0.070082955
0.038035356 0.03404478 -0.0031611621 -0.03869771 0.0042689517 -0.03580306 0.059913374 0.0056739002
-0.031185392 -0.063690856 0.052369244 0.01546289 0.05039046 0.059592 -0.06737262 0.029106855
-0.029737258 -0.0917356 0.059826206 0.076715104 -0.054590747 -0.06358245 0.028128399 0.03402306
-0.04669703 -0.07503857 -0.073766045 0.042485833 -0.024395322 -0.0021217242 0.015061329 0.033210125
-0.012530826 -0.018620187 0.052519836 -0.01758619 0.028017497 -0.007705925 0.070534706 -0.05464103
0.07908559 -0.08052585 0.056297388 -0.10004359 -0.0042630807 0.07015152 0.08183872 -0.006255828
0.024419533 -0.022803344 0.023562167 0.0620192 0.06934355 -0.07097173 0.039854046 -0.017195622
0.039906137 -0.0118004065 -0.07763582 0.03736663 -0.05582 -0.014551535 -0.0062356144 -0.099593885
0.0027085487 -0.007126491 0.022940353 -0.083725475 0.058868695 0.07495725 -0.053093176 -0.01872594
0.074825756 -0.033736255 0.060995452 -0.06966562 0.018064303 -0.056140237 -0.0707467 0.023806427
0.04170467 0.058371305 -0.032719377 0.015099876 -0.010581411 0.07601638 -0.040401928 -0.058459274
-0.015642153 -0.00881378 0.071963586 -0.010849501 -0.025859838 -0.09096872 0.07185896 -0.09082491
0.062344234 -0.08298061 0.060181342 0.05693758 0.014144395 -0.043638825 0.05832071 -0.055598903
0.06404063 0.07218209 0.08023272 -0.080552585 -0.021239225 0.04983996 0.0130447745 -0.060103595
-0.04331942 -0.079395644 0.06422291 0.055467803 0.01636458 -0.040108133 -0.06633754 0.062309243
-0.053392958 -0.08778368 -0.0341225 -0.08479863 0.0074847704 -0.07381342 0.060932763 -0.053239092
-0.07397244 0.018592112 0.03708218 0.0712359 -0.031281363 0.016386753 -0.02742152 0.003603217
-0.060754623 -0.06447535 -0.028322428 0.056796692 -0.008833282 0.06934551 0.07056323 0.07653052
00000000: 8e5e 26bd 7ee6 2e3d 71c1 58bd b712 8c3d
00000010: 845c 143d 3464 a63c 3fd7 8f3d ba9e 08bd
00000020: d0e7 e1bc 98c4 37bc b0da a1bc 0212 35bd
00000030: 92c2 613d 1b33 963d 43db 8c3d d867 c73c
00000040: d0da a3bc acbc bd3c 3cd9 a5bc aa1d 533d
00000050: 1203 5dbd 8d44 8ebd c237 f7bc 7934 913d
00000060: 3c25 a5bd fc7f 9bbc 4e18 1f3d 8670 1e3d
00000070: c02a d13b c889 6e3c 95bc 27bd d61d 053d
00000080: 199d acbd 401c 70bd 00cc 273b 4ecf 463d
00000090: 6691 163d 8450 e03c 3f97 8c3d 68e8 4cbc
000000a0: b58f b13d 680c 443c ea8e 733d 35f9 2fbd
000000b0: 107e ecbb 0c40 c93c 48f4 c7bc 5d27 3cbd
000000c0: c139 96bd 1630 343d b02a ecbb 2c60 96bc
000000d0: f73b 62bd 2f10 b0bd 2882 7d3c bec4 273d
000000e0: 42c7 07bd 4095 8bbd 3441 083d cce9 a5bd
000000f0: 3be6 37bd 38a2 c0bc 52f4 91bd 29ef 36bd
00000100: 9119 973d e700 ac3d 3627 b2bd 9e4c eebc
00000110: ca0e 383d 5ced 833c 3800 b1bd 7960 31bd
00000120: e881 33bc dac4 a3bd 85e6 873d b44a b23c
00000130: 374b 9c3d 2677 363d 0af6 61bd fa66 f3bc
00000140: ebf1 983d acd6 973c 1ddf 953d 4dd4 85bd
00000150: 38e1 26bc 12c8 603d c038 d1ba 27bc a33d
00000160: 1385 ac3d cc2b e23c e999 833d 6c51 f13c
00000170: b920 1cbd d8a9 853c 0959 af3d bee0 0e3d
00000180: e430 a8bd d284 9ebd 416f 953d aee4 433d
00000190: 00c1 f83a bdb5 5fbd b250 633d 004c 3d39
000001a0: aa60 213d 001b 3e3b bc52 8dbd 8b99 65bd
000001b0: d18c 2ebd f03b c7bc 2a6b 7c3d a787 8f3d
000001c0: f6ca 1b3d 8a72 0b3d 802b 4fbb 7d81 1ebd
000001d0: 90e2 8b3b 3ba6 12bd ba67 753d 20ec b93b
000001e0: 8278 ffbc 5a70 82bd 2281 563d 1058 7d3c
000001f0: 3a66 4e3d be16 743d a8fa 89bd 8071 ee3c
00000200: 8d9b f3bc e0df bbbd 530c 753d cf1c 9d3d
00000210: 8c9a 5fbd 8437 82bd 876d e63c c45b 0b3d
00000220: 6345 3fbd d2ad 99bd a712 97bd a005 2e3d
00000230: b3d8 c7bc a00c 0bbb cbc3 763c 5707 083d
00000240: 184e 4dbc 5d89 98bc 0a1f 573d ea10 90bc
00000250: f384 e53c fc81 fcbb 8074 903d 46cf 5fbd
00000260: a0f7 a13d bdea a4bd 1798 663d a7e3 ccbd
00000270: 50b1 8bbb 9aab 8f3d 0f9b a73d b0fd ccbb
00000280: 790b c83c 14ce babc 7205 c13c d807 7e3d
00000290: fe03 8e3d a059 91bd ff3d 233d d5dd 8cbc
000002a0: 9e74 233d 7e56 41bc 87ff 9ebd c00d 193d
000002b0: 83a3 64bd 9069 6ebc 2054 ccbb e1f7 cbbd
000002c0: e881 313b 5785 e9bb 68ed bb3c 4378 abbd
000002d0: 4d20 713d 3083 993d 3b78 59bd 2467 99bc
000002e0: 3f3e 993d 072f 0abd 5ed6 793d d9ac 8ebd
000002f0: 97fb 933c 4ef3 65bd a5e3 90bd b205 c33c
00000300: 84d2 2a3d c016 6f3d c104 06bd 7865 773c
00000310: a85d 2dbc 7aae 9b3d 7e7c 25bd fe72 6fbd
00000320: f923 80bc ac67 10bc a561 933d 1bc2 31bc
00000330: 03d8 d3bc cf4d babd ca2a 933d 6902 babd
00000340: ab5c 7f3d bdf1 a9bd b680 763d 6137 693d
00000350: e4bd 673c a0be 32bd b2e1 6e3d adbb 63bd
00000360: bc27 833d 34d4 933d 0d51 a43d c1f8 a4bd
00000370: e2fd adbc fc24 4c3d c0b9 553c 302f 76bd
00000380: b46f 31bd 2f9a a2bd 4d87 833d 3532 633d
00000390: 030f 863c 6d48 24bd fadb 87bd fa37 7f3d
000003a0: 93b2 5abd eec7 b3bd 09c4 0bbd e7aa adbd
000003b0: ce42 f53b 7e2b 97bd a294 793d 3c11 5abd
000003c0: dd7e 97bd 7c4e 983c 7ce3 173d 21e4 913d
000003d0: e320 00bd 833d 863c 18a3 e0bc f323 6c3b
000003e0: d7d9 78bd a70b 84bd 7004 e8bc a6a3 683d
000003f0: 78b9 10bc 0505 8e3d 7483 903d 09bc 9c3d

advantage_stream.0.bias f4 [64]
-0.06897199 -0.07456545 0.030728612 0.13559744 0.014675133 0.11036571 -0.054988634 -0.02481766
0.12784074 -0.05418959 -0.050328974 0.0432281 0.008285953 -0.0080460515 0.13257267 0.1290927
-0.07654557 -0.032942533 -0.028929006 0.04177166 -0.046237245 0.010908037 0.032861948 -0.018892191
0.0846365 0.07848604 0.063707896 0.12772025 0.082530946 0.09956765 0.051237382 0.12086493
0.03779924 0.021612542 0.006330566 0.047363363 0.052081533 -0.011042792 -0.076604374 0.060924225
-0.032376733 -0.027892185 0.011283309 0.05041848 0.0856706 -0.06886972 0.07630409 -0.070173316
-0.03480925 0.02177317 0.13354886 -0.089248605 0.018199636 3.3487886e-05 0.03096813 -0.047266226
0.06236847 -0.008426303 0.022853246 0.13283835 0.08299573 0.057675637 0.006918711 -0.013379951
00000000: 3041 8dbd c5b5 98bd 92ba fb3c 0eda 0a3e
00000010: f86f 703c 6b07 e23d c33b 61bd 684e cbbc
00000020: afe8 023e e7f5 5dbd c125 4ebd f30f 313d
00000030: cec1 073c 96d3 03bc 21c1 073e e030 043e
00000040: ecc3 9cbd c0ee 06bd 86fc ecbc c318 2b3d
00000050: 4463 3dbd a0b7 323c 409a 063d ccc3 9abc
00000060: e755 ad3d 4abd a03d 4979 823d 19c9 023e
00000070: fc05 a93d 20ea cb3d 4ade 513d 0888 f73d
00000080: 60d3 1a3d c90c b13c a370 cf3b 1600 423d
00000090: 7253 553d d4ec 34bc c1e2 9cbd ae8b 793d
000000a0: 779d 04bd 277e e4bc a1dd 383c 9c83 4e3d
000000b0: 1174 af3d 910b 8dbd 5245 9c3d 07b7 8fbd
000000c0: 2594 0ebd a65d b23c 08c1 083e f9c7 b6bd
000000d0: 6717 953c 5875 0c38 e0b0 fd3c 3b9a 41bd
000000e0: 1576 7f3d 7a0e 0abc bb36 bb3c c706 083e
000000f0: aaf9 a93d 4a3d 6c3d 5bb6 e23b 9537 5bbc

advantage_stream.2.weight f4 [2, 64]
-0.036659673 0.10065705 -0.0058663962 -0.09536997 -0.07539101 0.02146297 0.081867084 0.019356756
-0.10691995 0.011489694 0.037690938 -0.012434939 0.03334231 0.10225155 -0.06779512 -0.077150606
0.100956544 -0.123147756 -0.0017090753 -0.009186606 -0.007028097 -0.0009024512 0.023372613 -0.070046216
0.10940975 0.056081478 -0.121286124 -0.146143 -0.13260242 0.09380666 -0.07493031 -0.12630053
-0.027450264 0.056336086 -0.086554386 -0.13909078 -0.09994796 -0.0034379628 0.01585494 0.12501113
-0.02719213 0.025958836 -0.1130773 -0.023186874 -0.05040444 0.11525008 0.06565367 0.023272341
-0.097982466 -0.14963885 0.00845261 0.011242031 -0.14399731 0.075579755 -0.0025214353 0.020507276
-0.101922505 -0.017631015 0.1163861 -0.009870244 -0.12314258 -0.1049289 0.06643238 0.024643665
-0.013375267 -0.00027438306 0.088496335 0.07116205 0.016159266 0.11339901 -0.121672556 -0.04940339
-0.017081859 -0.114345916 -0.044502497 -0.0044913334 -0.012113166 0.07460273 0.05178793 0.054525137
0.0959422 0.011822969 -0.03738263 -0.04027104 -0.00013897619 -0.107653625 0.09828348 -0.095141545
-0.07124746 -0.08462112 -0.06755321 -0.09090048 0.04485439 0.108890705 -0.037737645 -0.067743346
-0.028120711 0.04542778 0.04449199 0.09474089 0.049046252 0.10501867 0.031492516 -0.03993235
0.009138718 -0.120874025 0.019250477 -0.030353554 0.13456583 -0.12105736 0.065560915 0.0027455555
0.014935851 0.13315712 0.025350269 -0.08962594 0.08759388 -0.09217469 -0.044460572 0.094167516
0.040353585 0.04362089 -0.08280699 0.14648336 -0.09020224 0.11281951 -0.0060965847 0.016672036
00000000: 7428 16bd 4925 ce3d e63a c0bb 5551 c3bd
00000010: 9a66 9abd 1cd3 af3c eea9 a73d 0f92 9e3c
00000020: d9f8 dabd 453f 3c3c d061 1a3d eabb 4bbc
00000030: f291 083d 4369 d13d 2bd8 8abd 2301 9ebd
00000040: 4ec2 ce3d e434 fcbd 0d03 e0ba 6b83 16bc
00000050: f34b e6bb 7a92 6cba ec77 bf3c 6474 8fbd
00000060: 3812 e03d b1b5 653d dc64 f8bd 83a6 15be
00000070: eec8 07be b51d c03d 1075 99bd ed54 01be
00000080: 60df e0bc abc0 663d 6d43 b1bd d06d 0ebe
00000090: 84b1 ccbd 724f 61bb 38e2 813c eb02 003e
000000a0: 08c2 debc a0a7 d43c 1295 e7bd 66f2 bdbc
000000b0: e374 4ebd 3c08 ec3d 6e75 863d a3a5 be3c
000000c0: 08ab c8bd ed3a 19be d17c 0a3c 7f30 383c
000000d0: 0874 13be 8fc9 9a3d aa3e 25bb e0fe a73c
000000e0: bfbc d0bd eb6e 90bc d65b ee3d ceb6 21bc
000000f0: 2d32 fcbd f7e4 d6bd b30d 883d 83e1 c93c
00000100: f023 5bbc 12db 8fb9 913d b53d 69bd 913d
00000110: 7060 843c bd3d e83d 762f f9bd 365b 4abd
00000120: 41ef 8bbc 312e eabd 4048 36bd 092c 93bb
00000130: 4d76 46bc 51c9 983d 951f 543d c055 5f3d
00000140: 587d c43d 20b5 413c 871e 19bd 3ff3 24bd
00000150: 23ba 11b9 8179 dcbd d948 c93d 92d9 c2bd
00000160: 30ea 91bd d64d adbd 5659 8abd 082a babd
00000170: 3db9 373d 1702 df3d ca92 1abd 06bd 8abd
00000180: 685d e6bc 7b12 3a3d 3c3d 363d 8307 c23d
00000190: b9e4 483d 0714 d73d 4cfe 003d 1b90 23bd
000001a0: 90ba 153c cd8c f7bd 2db3 9d3c 04a8 f8bc
000001b0: a0cb 093e ecec f7bd cd44 863d c7ee 333b
000001c0: 80b5 743c 575a 083e 5eab cf3c ce8d b7bd
000001d0: 6c64 b33d 15c6 bcbd 4a1c 36bd e6da c03d
000001e0: cd49 253d d1ab 323d b696 a9bd bcff 153e
000001f0: f4bb b8bd ea0d e73d dcc5 c7bb cb93 883c

advantage_stream.2.bias f4 [2]
-2.5239835 2.3913312
00000000: f288 21c0 920b 1940
