models/d3qn_agent.pth (torch, 47541 bytes, 11 tensors)

fc1.weight f4 [64, 34]
00000000: 8bdd 6b3e de51 cc3e dd5f 7e3e f9e0 a03e
00000010: 2532 b93f 776e c33f 59dc e13e faa3 8b3e
00000020: 2ab2 b63e 5aaa ba3e 867e ba3f e3db bd3f
00000030: 200d 8d3e ac44 a93e 99a2 993e ec80 a53e
00000040: fe97 b33f da0e b13f 4ac2 4d3e 881f bc3e
00000050: 7978 cd3e b0df 973e 7c11 79bd 63f4 3a3e
00000060: 71bb 4a3e 7b1d 973e 4a5b 623e d5b8 2a3e
00000070: 0161 e6bb 41af e5bb ad02 6e3d c18c 283e
00000080: a862 183e 488d a0bc d970 543e 6fae bd3e
00000090: 4d6e 833e fdbe 993e 85d9 b43f 9a4d c33f
000000a0: df68 c33e 4baf 6f3e 60ff bf3e 4b7e 5e3e
000000b0: 475e c73f 30ca a83f 3006 d43e fe96 7c3e
000000c0: 3389 5f3e c606 953e 5f1b be3f 701d bf3f
000000d0: 195e 3b3d 3175 3d3e 0c27 583e fa5c c73d
000000e0: 3694 bd3d 5ee0 45bb bd0f b23e 6dc8 393e
000000f0: b21e 573e 4931 973e 5692 aebd 1d0b 95bd
00000100: 9917 743c 1476 69bd 2502 3ebe a3b2 07bd
00000110: 0291 803e 8712 d13e 73d6 f53e f8cf d93e
00000120: f530 a23f 29e3 c43f 05b2 c63e 0d3d 853e
00000130: 0a50 ea3e 17c1 cc3e 5bd7 c93f 21a3 b63f
00000140: 9c6d b03e 712e ac3e 99de a63e e7dd dd3e
00000150: bb84 a53f b133 a83f 4fad 3f3e deb7 233e
00000160: f10f ce3e 3452 8d3e b86a 1ebe 94c8 e5bd
00000170: e286 b53e b6b8 843e 0e55 523e 08c8 bb3e
00000180: 8d35 87bd eea4 7fbe 0a0d b43d f242 ef3d
00000190: 064d fbbd c8b7 353d dbfb 753e eb13 f73e
000001a0: 0688 553e fe2a a93e 4dc3 cb3f aa39 cd3f
000001b0: bd7b 6d3e b4d8 ec3e 483d a53e 9511 be3e
000001c0: 7cb9 bf3f f596 a83f d4c6 e63e 32e6 9b3e
000001d0: 0d9e ba3e f909 e23e 8798 c63f efde b73f
000001e0: 5054 443e 5fe8 2c3e 9b8f fb3e a515 663e
000001f0: a444 133e c38d 4b3e 385b 3e3e 2914 f93e
00000200: 8908 6d3e c33e 563e 0a9f 19bd 9125 8bbe
00000210: d6e0 d53d 258a 0a3d e96f 52bd eeb6 0e3e
00000220: a542 893e 332a a23e 082c 8b3e f6d9 963e
00000230: 31f7 cf3f de48 a43f 7f33 db3e bedb ed3e
00000240: 8092 853e 1d1d c83e 7f4c b03f 6d20 bc3f
00000250: 3268 023f b729 033f f994 e63e 6401 753e
00000260: 5ac4 aa3f 89b2 d23f 53e5 033e 4547 a43e
00000270: 8822 b23e 6a32 8a3e 5a7e 4dbd 06b7 c0bd
00000280: 31a9 413e 7604 e03e 852a 9f3d a5e6 d83e
00000290: fb78 80be 5797 95be 8175 2b3e 208d 88bd
000002a0: 6056 1abc bb7e 313e 7c6a cc3e 3bdb d83e
000002b0: 622c e73e df3d 8c3e 5b08 b13f 8daf b73f
000002c0: e734 6e3e 3dcc 893e 58f3 6b3e 9b06 363e
000002d0: 5bdc ac3f f744 b03f 7175 db3e 933b 963e
000002e0: c6cc c73e d5f4 933e ffb4 bb3f 66d8 c33f
000002f0: c241 bd3e 9834 943e 6b89 1b3e 230d c33e
00000300: cead 8e3d 94e9 1bbe fd0b 133e a884 be3e
00000310: a2d6 bf3d dcff bc3e 8d4b 82be 558e 5cbe
00000320: a56e f93d 9325 a53d 6701 82bd b59e 80bd
00000330: 1ef2 f93e 39cc ce3e 111b ae3e 2caa b73e
00000340: 0f2d cb3f c9d0 c23f 3d9e 883e f311 fb3e
00000350: 3c19 943e f24e ba3e 1e55 ca3f bdad d03f
00000360: aba4 943e e46b df3e fbf0 863e b88a 063f
00000370: 74db ae3f 2400 bd3f 93dc c03e 4d36 a23e
00000380: 47d5 433e d948 ca3e 9195 293e b967 043d
00000390: 87ff bb3e d24f c83e 5f82 103e a3a2 ed3e
000003a0: 366f 27be a0e3 22be a88a 253e 3fec e3bc
000003b0: 4cdd a43d 6f9a cc3d d966 7d3e be95 953e
000003c0: 9551 9a3e 5b24 913e a168 b73f 4aec b23f
000003d0: 2996 713e 7414 833e d88e 3a3e 961d 293e
000003e0: 815d b43f b33a a83f 3e8a b03e 5979 4f3e
000003f0: 26d4 d53e 5a25 e93e 3fcd b73f 81dd b43f
0.2303373 0.3990621 0.24841256 0.3142164 1.4468428 1.5268086 0.44113424 0.27273542
0.35682803 0.36458093 1.4569862 1.4832729 0.27549076 0.33060205 0.30006865 0.32324922
1.4030759 1.3832657 0.20093647 0.36742806 0.40130976 0.29662848 -0.06080769 0.18257289
0.19798066 0.2951468 0.22105137 0.1667207 -0.0070306067 -0.0070094173 0.05810802 0.16459943
0.14881384 -0.019598618 0.20746173 0.37047145 0.2567009 0.30028525 1.4128882 1.5258057
0.38165948 0.23406713 0.37499523 0.21727864 1.5575646 1.3186703 0.4141097 0.24666974
0.21829681 0.2910673 1.4852103 1.4930859 0.045744035 0.18501736 0.21108645 0.09734531
0.092567846 -0.0030193548 0.34777632 0.18142863 0.21007803 0.2952979 -0.08524005 -0.0727751
0.014898204 -0.056997374 -0.18555506 -0.033129346 0.25110632 0.40834448 0.48015174 0.4254148
1.267119 1.5381824 0.38807693 0.2602314 0.4576419 0.39991066 1.5768846 1.4268533
0.34458625 0.33629182 0.32591704 0.4333336 1.2931131 1.3140775 0.18718456 0.15988109
0.40246537 0.27601779 -0.15470397 -0.11219898 0.3545447 0.25922173 0.20540258 0.3667605
-0.06602011 -0.2496526 0.087915495 0.11682691 -0.122705504 0.04436472 0.24021856 0.48257384
0.2085267 0.33040613 1.5918976 1.6033223 0.23191734 0.4625908 0.32273316 0.3712279
1.497848 1.3171068 0.4507357 0.30449063 0.36448708 0.44148234 1.5515298 1.4364909
0.19172788 0.16885518 0.49133 0.22469194 0.14381653 0.19878297 0.18589485 0.48648193
0.23147787 0.20922379 -0.037505187 -0.27177098 0.10443275 0.03382315 -0.051376257 0.1393697
0.26808658 0.3167282 0.2718203 0.29463166 1.6247312 1.2834737 0.42812726 0.46456712
0.26088333 0.39084712 1.3773345 1.4697396 0.5094024 0.51235527 0.45035532 0.23926312
1.3341172 1.6460735 0.12880449 0.32085624 0.3479197 0.26991588 -0.050169326 -0.09409909
0.18912198 0.43753403 0.07771782 0.42363468 -0.250923 -0.29217026 0.16744043 -0.066675425
-0.0094200075 0.173335 0.3992499 0.4235476 0.4515105 0.27390954 1.3830675 1.4350449
0.23262368 0.26913634 0.23042047 0.17775957 1.3504747 1.3771046 0.42863038 0.29342327
0.39023417 0.2889773 1.4664611 1.5300415 0.36964232 0.28946376 0.1518914 0.3809596
0.06966744 -0.15225822 0.14360042 0.37210584 0.0936711 0.36913955 -0.25448266 -0.2153867
0.12179307 0.08063807 -0.06347924 -0.06280271 0.48817533 0.40390185 0.34005025 0.35872018
1.5873126 1.5219966 0.26683226 0.49037132 0.28925502 0.36388355 1.5807226 1.6303021
0.29031882 0.43637002 0.26355729 0.5255542 1.3660722 1.4765668 0.37668285 0.31682053
0.19124328 0.39508703 0.16560961 0.03232548 0.3671839 0.39123398 0.14112233 0.46413144
-0.16351017 -0.15907145 0.16166174 -0.027822612 0.080500215 0.09990393 0.24746265 0.29215807
0.30140367 0.2834805 1.4328805 1.397836 0.23592438 0.25601542 0.18218553 0.16515192
1.4091035 1.3142914 0.3448047 0.20261134 0.4176342 0.4553631 1.4359511 1.4130098

fc1.bias f4 [64]
00000000: 22d2 f13f 4884 ed3f 64ed d33f 9b4e e13f
00000010: a3b8 dd3f 883a ee3f 1d27 dc3f 5753 ec3f
00000020: e888 cb3f ca0d ec3f 9857 e93f a6d7 5cbf
00000030: a01a e23f 08ad e73f 94ed e53f 5f84 f13f
00000040: 90d8 dd3f eb6b ec3f dc5c db3f 758b ec3f
00000050: d4f4 eb3f 1d5b ee3f 238b df3f 24e3 e33f
00000060: 675d e83f 95ed ea3f 552a e33f 8064 df3f
00000070: 6d83 e63f 90dc e43f c0f4 d83f ee98 d53f
00000080: 4144 d53f c341 ca3f abdc e03f 9399 cf3f
00000090: 6201 ee3f 121a cc3f 4257 d33f 092d c93f
000000a0: 9bec e43f 0f53 e83f 1499 e13f 31b6 d43f
000000b0: 88b4 ef3f 18e3 cd3f c32f e03f ddfb 04be
000000c0: 1ece f13f 00dd df3f f0d9 cc3f 769f dd3f
000000d0: 3031 ca3f 6215 f33f 8a9d e33f 3ec8 ed3f
000000e0: f27c c93f 7731 df3f b360 c93f ed13 ef3f
000000f0: caec e43f e7e8 d23f 4aaa 3ebe 4d35 e23f
1.8892252 1.8555994 1.6556821 1.7602113 1.7321972 1.8611612 1.7199436 1.8462933
1.5901155 1.8441708 1.8229856 -0.86266553 1.7664375 1.809968 1.7963128 1.8868521
1.7331715 1.8470434 1.7137713 1.8480059 1.8434091 1.8621556 1.7464336 1.7803693
1.8153504 1.8353754 1.7747294 1.7452545 1.8008858 1.787981 1.6949692 1.6687295
1.6661454 1.5801319 1.7567343 1.6218742 1.8594172 1.5945456 1.6511004 1.5716869
1.7884706 1.8150347 1.7624841 1.66181 1.8726969 1.6084929 1.7514576 -0.12986703
1.8891027 1.7489319 1.6004009 1.7314289 1.5796261 1.89909 1.7782452 1.8576734
1.5741255 1.743697 1.5732635 1.8677956 1.7884762 1.6477326 -0.18619648 1.7672516

fc2.weight f4 [64, 64]
00000000: 5f3f 943f 57e9 a33f 132c ab3f 6db1 a33f
00000010: ce95 a03f 99d9 993f 4aa5 9e3f ce8b a63f
00000020: 8c37 973f ea79 a63f 43b0 b13f 291a 1ac0
00000030: 8c09 aa3f da8e a43f 7239 973f 63b5 b03f
00000040: 02af 983f d2e6 a23f 6cab a03f e331 933f
00000050: b0b4 8f3f 2655 9c3f 9719 a13f 9c81 8f3f
00000060: 4894 a43f 4b8d ad3f bf46 ac3f 80bf a53f
00000070: 8319 b33f 4de0 9d3f 1700 913f 566d ab3f
00000080: 4400 a63f 0be4 9e3f 3f82 b73f e85d 993f
00000090: 51dd a13f 5ba0 8e3f 9a7b 943f cc0d a43f
000000a0: b37c ae3f 1ec4 9f3f bf0c 8d3f 00d8 ae3f
000000b0: 81d5 a63f 0b7c 973f 0f4c ab3f 047a 05bd
000000c0: ab1a 973f 32e4 903f efce a43f ff33 a33f
000000d0: 00af ab3f c0e7 993f bda4 a93f 37b8 b13f
000000e0: 9d66 a83f f93e af3f 4353 973f abaf aa3f
000000f0: f008 9e3f 3189 963f f575 f03d d109 a63f
00000100: 994d ab3f 6b7d ad3f dc1a aa3f 1a47 983f
00000110: 56eb af3f 43c8 a73f cec8 a33f af53 ac3f
00000120: cc0c 9e3f 8fb4 a73f 631c a23f 6b52 1ac0
00000130: 2916 a43f ca4c aa3f a9c5 af3f 8fea a33f
00000140: 27f4 9d3f 4101 b23f 1b2a ab3f 0b30 9e3f
00000150: a8a7 a33f 77b2 a73f 34b1 973f 6875 aa3f
00000160: 98e0 ae3f 17f6 913f a4fa b53f d6a8 af3f
00000170: 49a7 ac3f 2786 aa3f b415 913f 2c72 a43f
00000180: f48b a33f c494 a83f 6f1a ad3f 6d95 ab3f
00000190: 1cb7 a13f 1181 993f b7fc 893f 86d8 9a3f
000001a0: 04bd a53f 2f2a 9c3f e504 8e3f 023c a93f
000001b0: 18b2 a23f e96c a53f a1db b03f 578f cf3d
000001c0: fb36 ac3f 9f4d 973f 1812 ab3f 1896 993f
000001d0: c190 af3f 747e 923f a9e7 973f ac70 b53f
000001e0: 2382 a43f 6e31 a03f fc04 9a3f 8479 953f
000001f0: ae62 9f3f 361b a33f b815 58bd 4648 a63f
00000200: f65b ba3d e029 5ebc 32a5 b53d 301d 083c
00000210: dc46 29bd 008a cfbc d0d3 d53d fe3f 963d
00000220: 204c efbb 2889 72bd f056 983d f060 3d3c
00000230: cacc ea3d b0ba 64bd 5883 b43d a871 8c3d
00000240: 0056 d1ba 000f cb3a b011 263c 0a47 f03d
00000250: f818 cd3d 70bd 3bbc 40d5 6dbd 34fb ecbd
00000260: 30e5 763d 046c 54bd 9461 96bd 2ec2 cbbd
00000270: 1c20 dc3d 6c2c bd3d 504a a6bd 3c6b 41bd
00000280: 5a88 c5bd e00f fc3c d082 24bc 70f2 413d
00000290: 30df eb3d c8d9 2fbd 8058 28bc 6eb4 d7bd
000002a0: 30b8 1c3c eab6 90bd d0de 36bd a84a bbbd
000002b0: 78df e83c 70ae 213c 2cb2 593d 0024 1b3a
000002c0: c0e6 9d3c 185b 82bd 6040 b1bc d274 d0bd
000002d0: c880 ecbd 04ed 783d 329e e6bd ac00 9ebd
000002e0: a89c c73c 8088 d63d f0ea e7bc 10ce 403c
000002f0: a8a6 be3c 3817 863c 4cd4 d93d 2414 b3bd
00000300: ae55 a43f b907 a43f cd54 943f c187 a23f
00000310: 5f26 ab3f dcc2 9f3f 03a3 913f 53aa a53f
00000320: 2edc 9b3f e13f 8c3f a220 af3f 3295 16c0
00000330: 8886 a63f e7b6 ad3f db1e ae3f a43e 953f
00000340: c0c7 953f 20e3 9b3f 6ccf a73f 0abe 923f
00000350: 93b8 9e3f 4739 a43f 51d2 9f3f b131 983f
00000360: 09fa a03f 460b 933f b166 a83f 4107 943f
00000370: a967 aa3f ba8a a73f 0c9c 9a3f 89e4 9e3f
00000380: bb0f a93f 2482 b03f 57e3 b53f 3675 ac3f
00000390: 4bbb 983f 16e0 933f 82ca 8c3f 1208 993f
000003a0: 5712 a43f b514 923f f237 993f e852 a63f
000003b0: 548d 933f 8fbe aa3f ddbe 933f 3539 c6bd
000003c0: daf3 a03f 2a86 9c3f fd44 b03f 97e9 b03f
000003d0: 295f ad3f c621 ab3f 9624 993f 2251 983f
000003e0: a132 ab3f da36 b13f 8a9e a73f e4ba 913f
000003f0: 2282 bb3f 234d a13f 0bf8 0d3d 81b4 913f
1.1581839 1.2805585 1.3372825 1.2788521 1.2545717 1.201953 1.2394192 1.3011415
1.1813827 1.3005955 1.3881916 -2.4078467 1.3284163 1.2856095 1.1814406 1.3805355
1.1928408 1.2726691 1.2552314 1.1499599 1.1227016 1.2213485 1.2585934 1.1211429
1.2857752 1.3558744 1.345909 1.2949066 1.399216 1.2334076 1.1328152 1.3392742
1.2968831 1.2413343 1.4336623 1.1981783 1.2645665 1.1142687 1.160022 1.281671
1.3631805 1.2481725 1.1019515 1.3659668 1.3033906 1.183473 1.3382586 -0.032587066
1.1805013 1.131964 1.2875651 1.2750243 1.3412781 1.202385 1.3253399 1.3884343
1.3156315 1.3691093 1.1822284 1.333486 1.2346478 1.1760617 0.117412485 1.2971746
1.3383056 1.35539 1.3289447 1.1896698 1.3743694 1.310799 1.2795656 1.3463038
1.2347655 1.3101977 1.2664913 -2.4112804 1.2819263 1.3304684 1.3732196 1.2805957
1.2340134 1.3906633 1.3372225 1.2358412 1.278554 1.3101338 1.1850953 1.331708
1.366229 1.1403226 1.4217114 1.37234 1.3488551 1.332219 1.1334748 1.2847342
1.2777085 1.31704 1.3523692 1.3404976 1.2634006 1.1992513 1.0780247 1.2097328
1.2948308 1.2200373 1.1095244 1.3221438 1.27106 1.2923862 1.3817025 0.10134762
1.3454279 1.1820563 1.3364897 1.199893 1.371605 1.144484 1.1867572 1.417501
1.2852215 1.2515085 1.2032771 1.1677709 1.245199 1.2742679 -0.052755088 1.2990806
0.090995714 -0.013559788 0.08869399 0.00830774 -0.041327342 -0.025334358 0.10440791 0.07336424
-0.007302776 -0.059212834 0.07438457 0.011558756 0.11464842 -0.0558421 0.08814114 0.06857616
-0.0015971065 0.0015492141 0.010136053 0.117322996 0.10014528 -0.01145874 -0.0580647 -0.11571351
0.060277164 -0.051860824 -0.0734283 -0.09949146 0.10748312 0.092369884 -0.08119643 -0.047221407
-0.096451476 0.030769289 -0.010040954 0.047350347 0.11517179 -0.0429323 -0.010275006 -0.10532461
0.009565398 -0.07066138 -0.044646084 -0.09145099 0.02842687 0.009868249 0.053148434 0.0005918145
0.01927507 -0.06365031 -0.021637142 -0.10178532 -0.115480006 0.06077291 -0.11260642 -0.07714972
0.024366692 0.10475254 -0.02831027 0.011767879 0.023272827 0.016368493 0.106361955 -0.08744076
1.2838647 1.2814857 1.1588379 1.2697679 1.3371085 1.2481341 1.1377872 1.2942604
1.2176569 1.0956994 1.3681834 -2.3528562 1.3009806 1.3571442 1.3603166 1.1659741
1.1701584 1.2178688 1.3110175 1.1464245 1.2400078 1.282998 1.2486058 1.1890165
1.2576305 1.1487815 1.3156339 1.1564714 1.3312885 1.3089211 1.2078872 1.2413493
1.3207926 1.3789716 1.4210004 1.347327 1.1932157 1.1552761 1.09993 1.1955588
1.2818097 1.1412569 1.1970198 1.2994051 1.1527505 1.3339404 1.1542622 -0.0967888
1.2574418 1.2228444 1.3771054 1.3821286 1.3544666 1.3369682 1.196429 1.189976
1.3374826 1.3844864 1.3095257 1.138516 1.4649088 1.2601665 0.03466038 1.138321

fc2.bias f4 [64]
00000000: 6b84 ca3f 69fe cb3f 8efe fdbd 2bc9 cc3f
00000010: 8608 8bbd ef23 a13d 0214 fcbd 5a68 cd3f
00000020: 1597 bf3f b17c d23f a3ec d03f 80ab ca3f
00000030: dfc6 b63f 76ba cf3f 904f ca3f d75c bc3f
00000040: 2350 cd3f ce1f d03f 4275 babd 3897 73bd
00000050: f08b c23f ea9a ba3f e6cf bdbd b9ac a93d
00000060: ca6b ce3f 32f6 af3d 4126 d33f f7d2 8bbc
00000070: 567c cd3f 37ff c43f 5f25 b83f b733 ca3f
00000080: 2b7b be3f e31b cf3f 94e2 ca3f 30da c8bd
00000090: f614 d13f 7d66 01be 0b60 c73f f61e bb3f
000000a0: b5a1 ba3f 64a6 d23f 7214 9fbd 1b3b bc3f
000000b0: 27a5 bf3f 2422 c33f d0e8 c93f 88eb b43f
000000c0: dc07 ce3f e162 cf3f e035 78bc ce71 b5bd
000000d0: d85b c33f 2735 cf3f 5002 cf3f e7a4 a33d
000000e0: a716 bd3c 03f6 b93f 4615 d33f 7f56 c13f
000000f0: 90eb 04bd 7283 cd3f e189 d23f 089b ebbd
1.5821661 1.5937015 -0.12402068 1.5998892 -0.06788735 0.07868182 -0.12308504 1.604747
1.4967982 1.6444303 1.6322216 1.5833588 1.4279441 1.6228778 1.580553 1.4715832
1.6040081 1.6259706 -0.091043964 -0.059470385 1.5198956 1.4578526 -0.09268169 0.08284897
1.6126645 0.0859188 1.6496049 -0.01706837 1.6053569 1.5390385 1.4386405 1.5797032
1.4881338 1.6180385 1.5850396 -0.09807241 1.6334522 -0.12636752 1.5576185 1.4618824
1.4580599 1.6457028 -0.077675715 1.4705538 1.4972275 1.5244794 1.5774174 1.4134378
1.6096148 1.620205 -0.015149564 -0.08859597 1.5262403 1.6188096 1.6172581 0.07990437
0.02308209 1.4528202 1.6490867 1.5104522 -0.032451212 1.6055739 1.6448327 -0.11504179

value_stream.0.weight f4 [32, 64]
00000000: 98db ec3d aa15 4abc a074 82bd 8af2 d8bd
00000010: 0ddc 58ba 137b efbd 6894 96bc 1405 a2bc
00000020: 62f0 953c 9e5d b2bc 83a0 d9bd 0bda dcbd
00000030: f236 00be 0cc5 8cbd 5492 b83c 5396 e1bd
00000040: 28ef ae3c 96ae 8abc e0ea f1bd c45a 2f3d
00000050: ada6 533d f28f c43d 4810 233d b886 273d
00000060: 865d 18bd a6aa b0bd 0b4a 993d 0802 343d
00000070: 3aa3 2abd 2ad1 f33c df06 8dbd 309e 4fbc
00000080: 232b 96bd deb6 813c 5865 7dbd 9893 843d
00000090: 1557 963d 7c3e 06bd 97cb 913d 6e1b babd
000000a0: cc92 87bd 0f16 a7bd fcd8 24bd a247 03bc
000000b0: c06d 8a3d 37df dbbd 0ce7 d03d 14b2 f6bc
000000c0: 77a8 0a39 ba32 91bd 60a0 8bbc ce29 babd
000000d0: df72 3abd 1ca2 d7bd 0972 78bc be5c f0bd
000000e0: cfb2 38bb 172f 41bd c345 ac3c c6fd 353d
000000f0: 6e68 cebd 12f1 963d 0b74 c13d 8958 14bb
00000100: cda8 60bd d5f1 23bd 485d b2bc 93da 9cbd
00000110: 3ecf 833d c033 d33d 8c2a b13d efb8 903c
00000120: 153e cf38 db7b cebd 9d1f 59bd f6ce 4fbd
00000130: 006a 07bb ae60 50bd 7197 eabd 28a9 e7bd
00000140: 9629 09be 6d88 403d 2a10 a53d 003f 41ba
00000150: f444 b2bc 9b00 8c3c 03cb db3c e713 bb3d
00000160: e19a 4c3d ec57 e23c 966a d9bd 9a63 a43d
00000170: 6729 af3d b7ed e73d ff44 9f3d 7a63 db3c
00000180: d86f bcbd 7a19 05be 4726 de3d 2a01 b63d
00000190: 31c7 e7bd 507a 793d 922d 103d b45e 8cbc
000001a0: 25ac d43d 9d48 9cbd f449 6a3d 154a 91bd
000001b0: 10ae 28bd f889 e33c 2d63 283d 9ac4 ac3c
000001c0: eaa1 d13d 0ff8 d43d b64a 933d 6013 b73b
000001d0: a33c a33d 3a7b 923d 5913 83bd 68fc 9dbd
000001e0: 328e 903d 2ced 83bd b167 dfbd 9858 9ebd
000001f0: b24e 8f3d 9abd eb3c bf8e 7c3d b2c1 e13d
00000200: 4c2e c2bd 909d ffbc 10bd 00bc 90d3 1bbc
00000210: a05c 71bc 18f7 ee3c 9c24 66bd 2afe 9fbd
00000220: a4e0 9bbd 20c7 4bbd 0090 38ba a46e 8f3d
00000230: 1ee8 d2bd 3048 d2bc ee8d ccbd 2078 2ebc
00000240: 0428 38bd 345e e8bd f461 00bd b46b 583d
00000250: 9efa ad3d a08b f9bb 604a f13d 288c c53c
00000260: 507a 003d 262f 8e3d 3e3c 803d c42b a73d
00000270: f871 213d a04e cabd 3cd4 023d 6cb8 063d
00000280: 5ad1 c53d 1c23 643d 0099 073a 00a9 c43b
00000290: 9872 b8bc b2f1 d73d 6c74 843d 7072 4bbd
000002a0: 04da 89bd 1812 8cbd 78dd c9bc 0052 afb9
000002b0: f4f2 373d 0e42 a1bd 3442 bdbd bc5f 753d
000002c0: 5834 843c e069 9c3d 5430 8cbd 7418 bbbd
000002d0: 90f8 47bd 8022 97bd 00e9 86bd 280c 71bd
000002e0: 705b 89bc dc4a e2bd b651 edbd e88d 74bd
000002f0: c428 a6bd 00b7 b13d 642d 073d 20ce edbb
00000300: c4b8 a33f e7a6 ac3f e8cc 953d b3df ae3f
00000310: 90e3 dfbc a872 513d 6c40 fabd 448a 983f
00000320: 7622 9f3f 7d16 a93f 0355 a33f 35e1 a93f
00000330: 2b41 a73f 9bab a33f 9b54 ae3f 4180 a03f
00000340: 1871 a23f 2f82 9c3f 5082 423d 2c61 6abd
00000350: 7d58 ad3f 9d42 993f f649 f8bd 2a2c b1bd
00000360: 02dc 963f f877 71bd 206f ab3f 8421 2bbd
00000370: 9c39 af3f 4c3a a83f 83c6 9f3f 49be b03f
00000380: eaee 963f 9872 a13f 3481 a43f a04f aabc
00000390: 2d8d 933f 8cbc 3f3d 7c97 983f 05c5 b33f
000003a0: e214 b33f 4774 b13f f874 e9bd 077a 973f
000003b0: 87fa a73f e567 af3f 569f 9c3f d2ec 953f
000003c0: c6cc b33f e80b ab3f 88b4 9d3d f0c8 083d
000003d0: 5bf0 9b3f 2dc8 b03f 1902 953f 948b f2bd
000003e0: 781b 33bd abf1 a03f 298b 983f c024 b23f
000003f0: 7047 023c f842 a23f 867b 963f b6a1 88bd
0.11565322 -0.012334267 -0.06369901 -0.10593136 -0.0008272536 -0.116933964 -0.018381312 -0.019777812
0.0183031 -0.021773156 -0.10626318 -0.10783776 -0.1252096 -0.06873521 0.022530712 -0.11015
0.021354273 -0.016928952 -0.11812377 0.04281117 0.051672626 0.09597768 0.03981045 0.040899962
-0.037198566 -0.086262986 0.07484826 0.04394725 -0.04165957 0.029762823 -0.06886076 -0.012671992
-0.073324464 0.015834268 -0.061864227 0.06473464 0.07340828 -0.032774433 0.0711891 -0.09087263
-0.06619796 -0.08158504 -0.040245995 -0.008012684 0.067592144 -0.10735934 0.10200319 -0.030114211
0.00013223464 -0.070897534 -0.017044246 -0.09090005 -0.045519706 -0.10528967 -0.015163907 -0.11736439
-0.002818275 -0.04716405 0.021029359 0.04443147 -0.10078512 0.07370199 0.094459616 -0.002263578
-0.05484848 -0.04002555 -0.021772996 -0.07658877 0.06436013 0.10312605 0.08650693 0.017666308
9.882093e-05 -0.10082217 -0.053008664 -0.050734483 -0.0020662546 -0.05087345 -0.114546664 -0.11311561
-0.1339477 0.047005106 0.08059724 -0.00073717535 -0.021761395 0.017090132 0.026830202 0.091346554
0.04995239 0.027629815 -0.10616033 0.0802681 0.08552819 0.113246374 0.07776832 0.026780833
-0.0920102 -0.12998 0.108471446 0.08886941 -0.113172896 0.060907662 0.03519971 -0.017135002
0.103843965 -0.076310374 0.057199433 -0.07094208 -0.041181624 0.02777575 0.041110206 0.02108984
0.10235961 0.10398876 0.07191984 0.0055870265 0.0797055 0.0715241 -0.06400175 -0.07714158
0.070583716 -0.06441721 -0.109084494 -0.07731742 0.06997432 0.028776933 0.06165957 0.110232726
-0.09481487 -0.031203061 -0.007857576 -0.00951089 -0.014731556 0.029170558 -0.056187257 -0.0781215
-0.07611206 -0.049750447 -0.00070405006 0.07003525 -0.10298179 -0.025669187 -0.099880084 -0.010648757
-0.044960037 -0.11346093 -0.031343415 0.05283709 0.08495067 -0.0076155216 0.11781764 0.024114683
0.031366646 0.069425866 0.0626149 0.081626445 0.03941533 -0.09878278 0.031940684 0.032890722
0.09659071 0.055697545 0.000517264 0.0060015917 -0.02251558 0.105441466 0.06467518 -0.049669683
-0.06731036 -0.068393886 -0.024641737 -0.00033439696 0.044909433 -0.07873927 -0.09241143 0.059905753
0.01613824 0.076373816 -0.06845155 -0.091355234 -0.048821032 -0.07379627 -0.0658741 -0.058849484
-0.016767234 -0.110494345 -0.11587851 -0.059705645 -0.08113244 0.086774826 0.033002272 -0.007257238
1.2790761 1.3488435 0.073144734 1.3662018 -0.02733019 0.051134735 -0.12219319 1.1917195
1.2432392 1.3209988 1.2760319 1.3271853 1.3066763 1.2786745 1.361957 1.253914
1.2690763 1.2227229 0.047487557 -0.057221577 1.354263 1.1973454 -0.12123482 -0.08651002
1.1785891 -0.0589523 1.3393288 -0.04178001 1.3689456 1.3142791 1.2482456 1.380807
1.1791661 1.2613096 1.285193 -0.020789921 1.1527458 0.04681067 1.1921229 1.40445
1.3990748 1.386361 -0.11399263 1.1834115 1.312333 1.3703581 1.2236125 1.1712897
1.4046867 1.3363008 0.07700449 0.033394754 1.2182726 1.3811089 1.1641265 -0.11843029
-0.043727368 1.2573751 1.1917468 1.3917465 0.007951602 1.2676687 1.1756446 -0.06671469

value_stream.0.bias f4 [32]
00000000: c4d4 6cbc 3a42 843d dc26 79bd 80a0 a33f
00000010: 13cc ac3f f6f3 ebbd e20d 363c c868 673c
00000020: 124e b13f 1587 9f3f 4b14 00be a8b0 12bd
00000030: 8ce9 29bd 5c9e b73f 3391 a33f 0a86 55bd
00000040: 7f17 dc3d 30a4 6d3c bdfa 88bd 80f4 ecbd
00000050: 995d dfbb f35a af3f baa4 d63d bb63 dcbd
00000060: 1039 ac3f 31f9 6e3d 0164 9a3f 614a b23f
00000070: ed7c 3ebd 170f 9c3f 36ce a23f bbe0 9f3f
-0.014455024 0.06457944 -0.060828075 1.2783356 1.3499779 -0.11521141 0.011111708 0.014124103
1.385195 1.2463099 -0.12507741 -0.035813004 -0.041482493 1.4345202 1.2778686 -0.052129783
0.10746669 0.014504477 -0.066884495 -0.11570072 -0.0068165776 1.369963 0.10480638 -0.107612096
1.3454914 0.058343116 1.2061769 1.3928949 -0.046505857 1.2192105 1.271918 1.2490457

value_stream.2.weight f4 [1, 32]
00000000: 9497 0f3c 4753 6f3d 832f bdbd 0c2f a7bf
00000010: af37 b6bf d60c 33be f5d4 ab3d 1f0c 753d
00000020: 99b3 bbbf 63f7 aabf 4d09 e33d d9bf 183e
00000030: 284b 45bd 0d49 a9bf 6cd7 bcbf 5e55 433d
00000040: daa6 da3d 803f 7e3d 7a74 813a 1891 ea3c
00000050: bf8b d83d cae0 bdbf 5766 6b3d d48f 983d
00000060: dc8c bdbf bb38 033e 73ee afbf bab3 bcbf
00000070: cd62 ee3d 0884 abbf 90eb b8bf aff4 b5bf
0.008764166 0.05842903 -0.09237578 -1.3061233 -1.4235743 -0.17485365 0.08390228 0.059826013
-1.4664184 -1.3356746 0.11085758 0.14916934 -0.048167378 -1.3225418 -1.4753242 0.047688834
0.10676356 0.062072277 0.0009876632 0.02863364 0.105735295 -1.4834225 0.057470646 0.07449308
-1.4808612 0.1281461 -1.3744644 -1.4742348 0.116399385 -1.3399668 -1.4446888 -1.4215297

advantage_stream.0.weight f4 [32, 64]
00000000: 4e2b 793e c1ba 8b3e f023 8a3d 7387 083e
00000010: 15b7 a6bd 9d74 2ebb 7edf f13d 3540 ae3e
00000020: 2a84 8f3e 1a20 a13e 75da 9d3e 7851 8e3e
00000030: fb12 aa3e 8c47 783e 5a2d 753e a402 253e
00000040: be31 a43e ea3a a13e 700b 56bd 1409 79bd
00000050: 2365 903e 595c a43e f732 293c 7917 d23d
00000060: de3b 883e d3d9 ec3c 006d a63e 7f13 8fbd
00000070: dd5a 553e 3a62 663e d7ab 093e 6347 593e
00000080: 0337 1d3e b388 a43e 1b9f 9c3e 6cf2 cf3d
00000090: 1230 a93e 5fc0 f63d f731 be3e b06c 8e3e
000000a0: 44a8 ab3e 03dd 8b3e 9a62 be3d dbdb 653e
000000b0: 341f 863e 9c1c 383e 9385 f43d f3cd 8f3e
000000c0: b08c 923e b09c 4b3e 8c43 88bd 827b d8bd
000000d0: d8ef 703e c45f 583e f19e 8a3e 0109 75bc
000000e0: 065d 2a3d 4a63 b03e 96c2 163e 99c9 fa3d
000000f0: a696 e0bd 6ee6 a33e 5cbd af3e d3c7 d43d
00000100: 0263 ea3c 0e10 3e3d 8e37 a03d 8e21 94bd
00000110: 702a 373c bce1 71bd d093 9abc a252 563d
00000120: fadb ad3d 2a23 e1bd dd6b ec3d 6376 b03d
00000130: 6d40 f53c cd26 4a3d 8b46 ba3c af37 debd
00000140: 7b28 d33d 9a24 d9bd 8a61 fb3d 984c b13c
00000150: ca38 b43d 0dd4 5ebc 364c cfbd d53d c33d
00000160: 4c70 cebd e401 d13c 9c4f eebc 2727 bd3b
00000170: 0d24 cdbc 7a01 8b3d b2b7 63bd 6752 d8bd
00000180: f3ba 2fbd 5da6 ee3d 5873 963d b432 3abd
00000190: 6fde d9bd 09f1 be3d 9ace 06be b129 b63c
000001a0: 24da ebbc c9ba e53d 60fb 073c f4e9 393d
000001b0: 014e 02be 4f73 77bb b45c 6abd 1e8b 8bbd
000001c0: 6033 473c 6d89 76bd 780c 95bd 78c9 ecbc
000001d0: 1450 19bd 6d00 383d 4fb7 933c dbab afbd
000001e0: 79cc 80bd f7ea c53d bfb7 f5bd fc77 85bc
000001f0: aca7 7bbd 9bf7 303d b354 65bd 998d 2cbd
00000200: b658 1ebc c1eb 31bc 6228 d33d f330 e43d
00000210: 1fdd 1ebd 7672 70bd 5cb8 0ebd ac97 9fbc
00000220: fea4 673b 0f19 f9bd a1b6 babc 4157 c3bd
00000230: c367 6abd d7aa a0bd 6655 b6bd aae7 9bbd
00000240: 8992 f2bd 2114 08be 10f2 953d c2ff c1bd
00000250: fcab cabd 118c d73c 8090 693c d6c5 e3bd
00000260: 805f ddbd 7031 79bc bda3 49bd eed0 fc3d
00000270: 30f4 b63c b5ba eb3d f4ce ab3b 19c7 8abd
00000280: d102 ae3d d419 e43d d27a f9bd c8bb c63c
00000290: eb01 1f3d ac31 6e3d 71a3 463d 6287 fdbd
000002a0: 5fd9 f4bd 515e 8c3d 287b f7bc b8f3 cf3d
000002b0: 1225 b2bd e858 653d 1b3f 7ebd d20a 1fbd
000002c0: f3ad 59bc beeb c13d d86a d53c 00ca 8dbd
000002d0: 4f14 a2bd 5ae7 a33d 24cb d03d cd9b 993d
000002e0: 488e 7c3d 21c6 9d3d 939f 0a3c dc26 7f3b
000002f0: 687b 17bd e423 a8bc 6491 61bd 64bb 3bbc
00000300: 4354 5f3d c7dd eabd c0c7 0e3b eb25 00be
00000310: 47f5 ac3d 9c19 ffbc 6cfa e93d 5a50 82bc
00000320: cf8d bb3d a2d5 f7bd 66f6 b53d d4fc 1b3d
00000330: dd54 a93d 81b6 0ebe 0849 dbbd 04eb 253d
00000340: a0cb a0bd f1f2 bcbd 8080 8e3b e0aa dfbc
00000350: d990 9fbd 7f3b 05be 1eed 803d ec1d 6bbc
00000360: 117f 08be 2dbc 39bc da12 723d 7531 71bd
00000370: 5bd2 803d 5159 a93d 4d41 8d3d 501d 903d
00000380: 370b 9f3d 9925 d5bd 94dd 06be 4053 673c
00000390: c5e6 113d 7bb4 c8bd 5e64 0c3d 606f 003d
000003a0: 38ca ebbc e1e0 17be 70aa 123d bc8d 0dbe
000003b0: 7efd a2bb c640 c03d cda4 073d 37f8 653d
000003c0: 42ba d23d 279c 4d3d 2086 3abc 946a 933d
000003d0: e704 e63c e95d 2a3d 7429 bd3d 9f48 e23d
000003e0: 4390 e8bd d011 d8bd f599 283c ecea 6e3d
000003f0: 3857 a4bc e267 793d 93cd 143d 60a8 bebd
0.24332926 0.2729092 0.06745136 0.1333292 -0.08140389 -0.00266198 0.11810206 0.3403336
0.2803052 0.31469804 0.30830732 0.2779653 0.33217606 0.24246043 0.23943081 0.16114289
0.320692 0.3149026 -0.052257 -0.060799673 0.2820216 0.32101706 0.010327092 0.10258383
0.26608175 0.02891246 0.32505035 -0.069861405 0.20835443 0.22498408 0.13444458 0.21218638
0.15353017 0.32135543 0.30590138 0.1015366 0.33044487 0.120484106 0.37147495 0.27817297
0.33526814 0.27317056 0.092961505 0.2244715 0.2619568 0.17979664 0.1193954 0.28086814
0.2862296 0.1988399 -0.066535085 -0.10570432 0.23528993 0.21130282 0.27074388 -0.01495576
0.04159262 0.34450752 0.14722666 0.12245483 -0.10966234 0.3201174 0.34324157 0.10389676
0.028611664 0.04640203 0.07823096 -0.072329625 0.0111795515 -0.059053168 -0.01886931 0.0523249
0.08489223 -0.10993035 0.11544011 0.086163305 0.029937947 0.04935341 0.022738716 -0.108504646
0.103104554 -0.10602684 0.122744635 0.021642968 0.08799894 -0.0136003615 -0.10121958 0.09533278
-0.10080013 0.025513597 -0.029090695 0.0057724896 -0.025041604 0.06787391 -0.055595107 -0.10562592
-0.042902898 0.11652825 0.07346219 -0.04545851 -0.10638129 0.093233176 -0.1316475 0.022236677
-0.028790541 0.11217267 0.008299679 0.04538913 -0.12725069 -0.0037757938 -0.057217315 -0.06813644
0.012158245 -0.060189653 -0.07277769 -0.028904662 -0.037429884 0.04492228 0.018031744 -0.08577701
-0.06289 0.096639566 -0.119979374 -0.016292565 -0.0614392 0.043204885 -0.05598898 -0.042127226
-0.009664705 -0.010859431 0.10310437 0.11142149 -0.038785096 -0.05870291 -0.034843788 -0.019481502
0.0035346146 -0.12162983 -0.022792162 -0.09538127 -0.05722786 -0.07845085 -0.08903007 -0.07612546
-0.118443556 -0.13288929 0.073215604 -0.0947261 -0.09896085 0.026311906 0.014255643 -0.111217186
-0.10809231 -0.015209541 -0.04922842 0.12344538 0.022333235 0.11510221 0.0052431766 -0.06776256
0.08496631 0.11137739 -0.12181629 0.024259463 0.03882019 0.05815284 0.048495714 -0.12379338
-0.11955523 0.06853927 -0.030210093 0.101539075 -0.08698477 0.05599299 -0.0620719 -0.03882868
-0.013286102 0.094687924 0.026051924 -0.06923294 -0.0791403 0.08003111 0.10194996 0.0750042
0.061659127 0.07703806 0.008460897 0.0038933074 -0.036982924 -0.020524926 -0.055070296 -0.011458252
0.054523718 -0.11468082 0.002178654 -0.12514465 0.084452204 -0.031140141 0.11424717 -0.015907455
0.09157907 -0.12101294 0.088848874 0.038082913 0.082681395 -0.13936807 -0.10707289 0.04050733
-0.078513384 -0.09226025 0.0043488145 -0.02730316 -0.077912994 -0.13010977 0.062952265 -0.014350396
-0.13329722 -0.0113363685 0.05910001 -0.058885057 0.06290122 0.08268989 0.06897221 0.07036841
0.07765811 -0.10407562 -0.13170463 0.014118969 0.03562047 -0.09800049 0.034275405 0.031356215
-0.028782949 -0.14831878 0.035807073 -0.13823599 -0.0049740663 0.093873546 0.03311615 0.05614492
0.10289432 0.050197747 -0.011384517 0.071980625 0.02807851 0.041593466 0.09236422 0.110490076
-0.11355641 -0.105502725 0.0102906125 0.058329508 -0.02006112 0.060890086 0.036328863 -0.09309459

advantage_stream.0.bias f4 [32]
00000000: 1ea0 593e f227 c53c 1aeb 753c a698 f5bc
00000010: a46e b63b 6b37 543d b710 04bc 50e5 aa3d
00000020: 3233 3a3c 2a0e debd 06d1 8ebd 9112 eb3d
00000030: 10be 633d b5b0 bf3d 99cb 533d fa33 debd
00000040: 9c1c cebd ae8f a5bd d88c 913d 206f d13b
00000050: 5152 d23d 6352 bc3d 23fe f73d 94f4 44bd
00000060: 344f 4ebd 7bbf c3bd 641b d63d b62a 963d
00000070: 22b0 6dbd b214 91bc 1a0c ba3d 7bc8 d7bd
0.21252486 0.024066899 0.015009666 -0.029980015 0.0055673886 0.051810663 -0.008060626 0.08344519
0.011364745 -0.10842545 -0.06973462 0.11478151 0.05560118 0.09359876 0.051707838 -0.108497575
-0.100640506 -0.08084045 0.07106942 0.006391421 0.10269607 0.091954015 0.121090196 -0.04808481
-0.050368503 -0.095580064 0.10454443 0.07332365 -0.0580293 -0.017710064 0.090843394 -0.105362855

advantage_stream.2.weight f4 [2, 32]
00000000: 88e8 c0bd 9d71 873d c189 efbd 9f09 ddbc
00000010: 9bd0 243e dd1b 273e 6e76 f83d 1520 583c
00000020: b72e 303e 662f 1dbe 6c98 24be e77a 0c3d
00000030: 1182 a1bb dd3b 8e3d d367 3c3d 6be6 d0bd
00000040: daa7 b73d c8dc 81bd 43de 33be e3f2 14be
00000050: 708b fbbc 0503 71bd 0abd cc3c b170 2bbe
00000060: 5485 043d 9825 15be afc5 1dbd fb26 8c3d
00000070: 1c70 913d eafa 7cbe acdb 94bc a8bd 65bd
00000080: 5b5b c13e 91d0 0a3e 4e50 e13d c63a ad3d
00000090: e5cd c4bd da8a 09bd fb97 c93d 580d bbbd
000000a0: 4d8c 9fbd b2cc a4bd 8c8d 11bd a269 0cbe
000000b0: d2b0 0ebe 112c 1ebe a214 7f3d 6f21 f4bd
000000c0: 44d5 543d 8496 3bbd 7002 e5bc 00ba 47bc
000000d0: 5c72 f6bd d788 c53d 2434 053e 2e56 b13d
000000e0: 3802 063d b1db e33d e47e 773c 13c1 1d3e
000000f0: fd8f d7bd 4172 cbbc ff23 5a3c 2de6 14be
-0.09419352 0.06613467 -0.11696196 -0.026982127 0.16095202 0.16319223 0.12131964 0.013191243
0.1720532 -0.15350112 -0.1607377 0.034296896 -0.004928835 0.06945012 0.045997452 -0.10200199
0.08967562 -0.06340939 -0.17565255 -0.14545779 -0.030706137 -0.05884077 0.024992485 -0.16742207
0.032353714 -0.14565122 -0.038518604 0.068433724 0.07101461 -0.24705091 -0.018171154 -0.056089073
0.3776501 0.13556124 0.11001645 0.08458476 -0.09609584 -0.033579685 0.09843441 -0.091334045
-0.07790432 -0.08046855 -0.03553538 -0.1371217 -0.13934639 -0.15446497 0.062275536 -0.119204395
0.0519612 -0.04579784 -0.027955264 -0.012190342 -0.12033531 0.09645241 0.13008171 0.086590156
0.03271696 0.11125887 0.015105937 0.15405683 -0.105255105 -0.024834754 0.013314246 -0.1454093

advantage_stream.2.bias f4 [2]
00000000: 11ec 1bbe 6448 98bd
-0.15226771 -0.074356824
