models/d3qn_agent.pth (torch, 159394 bytes, 11 tensors)

fc1.weight f4 [128, 42]
0.09857336 -0.036432683 0.062383536 0.32365328 0.11272295 0.0011308648 -0.13199429 0.0780497
-0.85155994 -1.0959077 -0.8762079 -1.0578077 0.83803034 0.8843523 -0.046640668 0.22831334
0.1241185 0.28623503 0.73123974 0.90947115 0.22778526 0.04326747 -0.06778047 0.12984939
0.94711244 1.0069277 0.08136848 -0.025642866 -0.086226195 0.34452143 0.027398892 0.06821151
0.2428737 0.08321591 -0.07230184 0.36848316 -0.13622077 0.050140776 0.08716845 -0.02133782
-0.050251067 0.062965184 0.13290308 0.17972541 0.13627101 0.0714153 -0.030824939 0.09771998
-0.08583044 -0.055828247 -1.124711 -1.1448126 -1.1590862 -0.97656745 0.9571234 0.7438122
0.028168902 0.19075193 0.14636938 0.34655818 0.6926265 0.7628279 0.06800612 0.023047496
0.13828036 0.3468263 0.73539895 0.7456798 0.12203718 0.15423521 0.127604 0.24555004
-0.00715278 -0.019261044 0.056227334 0.20047037 0.082057625 0.30411467 -0.034965854 0.07233566
0.1319058 0.02189982 0.15423436 0.08806864 -0.04253549 0.15140262 0.02972804 0.08986336
-0.08744407 -0.0075637116 -0.034803413 -0.03958189 -0.9975433 -1.0907093 -1.0889236 -1.1020855
0.8012761 0.94078773 0.11834627 0.14448382 0.1563582 0.36394107 0.79309064 0.89371276
0.19458036 0.22112165 -0.024163604 0.3728373 0.8110763 0.84185797 0.15632054 0.026535075
0.08017488 0.29628626 -0.15711977 0.00011337251 0.2692676 0.0251501 0.04275077 0.2661705
0.019252632 -0.07958611 0.15229551 0.074788705 -0.08586151 -0.029481094 0.119807996 0.1307179
-0.017788952 0.074703544 -0.03129416 -0.095886104 -0.06530751 -0.06942564 -1.1054589 -1.1822506
-1.0748979 -1.0667332 0.90298325 0.8849494 0.08969448 0.26037756 0.21287794 0.32121438
0.9140933 0.9643965 0.08598857 0.3213226 0.08071452 0.25987822 0.9254563 0.9175758
0.27240443 0.2062062 0.16418289 0.4131755 0.05620109 -0.13718583 0.081467465 0.2256008
0.060377132 0.30508047 -0.022234336 -0.19512737 0.020080836 0.1061385 0.09923011 0.026388124
0.029640414 -0.08337724 0.08824653 0.17753978 0.15853617 -0.15362725 0.026172437 -0.1263743
-1.1350762 -1.1649071 -0.9552267 -1.0978395 0.94686687 1.0309615 -0.04338948 -0.013493443
0.34527096 0.35660285 0.92772144 0.8068319 0.06847833 0.22976348 0.11431779 0.3493159
0.97406185 1.034254 0.13588195 -0.022859437 -0.059338555 0.42558047 -0.021076618 0.06268131
0.29763263 0.19200489 0.0066663595 0.32613873 -0.20277724 -0.17255121 -0.04711593 -0.105734445
-0.028176395 -0.11487947 0.19394629 0.16887066 -0.040669568 0.12998255 0.08531327 0.028030517
-0.008381844 0.132362 -1.1273614 -1.1148118 -1.0406541 -1.036729 0.73257667 0.8229792
0.118145764 0.05823332 0.1955442 0.04728573 0.7535943 0.7506566 0.28135985 0.09209745
0.046593476 0.37001988 0.68426925 1.0114436 0.09002382 0.061009075 -0.05920766 0.12749025
0.01392923 -0.059952017 0.21648706 0.038623754 0.084902555 0.38017565 -0.035543874 -0.13215852
-0.012695028 0.11216156 -0.11068391 0.062059365 0.0439537 0.056200396 -0.091954574 0.038626585
00000000: d4e0 c93d 703a 15bd e185 7f3d e2b5 a53e
00000010: 4adb e63d 8739 943a 8329 07be 85d8 9f3d
00000020: d5ff 59bf b446 8cbf 294f 60bf 3e66 87bf
00000030: 2889 563f ea64 623f 490a 3fbd f9ca 693e
00000040: d731 fe3d 668d 923e 8732 3b3f 1ad3 683f
00000050: 8a40 693e 3b39 313d 7dd0 8abd 3df7 043e
00000060: f675 723f 02e3 803f 85a4 a63d fd10 d2bc
00000070: 5c97 b0bd 1d65 b03e a473 e03c 7ab2 8b3d
00000080: e2b3 783e 1a6d aa3d fd12 94bd d3a9 bc3e
00000090: 757d 0bbe 6a60 4d3d 5f85 b23d a7cc aebc
000000a0: 10d4 4dbd e4f3 803d bf17 083e f009 383e
000000b0: a18a 0b3e 2f42 923d 9584 fcbc 6a21 c83d
000000c0: dfc7 afbd 29ac 64bd 88f6 8fbf 3889 92bf
000000d0: f05c 94bf 5300 7abf 0a06 753f 7a6a 3e3f
000000e0: 78c2 e63c 7954 433e dbe1 153e 1370 b13e
000000f0: f84f 313f b048 433f cb46 8b3d 1ace bc3c
00000100: 5e99 0d3e 3793 b13e 1b43 3c3f dfe4 3e3f
00000110: a1ee f93d d6ef 1d3e 9faa 023e 7871 7b3e
00000120: de61 eabb 56c9 9dbc a24e 663d 1b48 4d3e
00000130: d40d a83d ebb4 9b3e 5b38 0fbd b824 943d
00000140: 5012 073e 4067 b33c 9def 1d3e 555d b43d
00000150: b239 2ebd 4a09 1b3e 3888 f33c 480a b83d
00000160: e015 b3bd 03d9 f7bb 068e 0ebd 9f20 22bd
00000170: ff5e 7fbf 5d9c 8bbf d961 8bbf 2311 8dbf
00000180: 6e20 4d3f 77d7 703f 875f f23d 91f3 133e
00000190: 5d1c 203e 7c56 ba3e fd07 4b3f 5cca 643f
000001a0: 1340 473e b76d 623e c0f2 c5bc 88e4 be3e
000001b0: b2a2 4f3f 0184 573f 7e12 203e 1660 d93c
000001c0: ba32 a43d d5b2 973e 01e4 20be 67c2 ed38
000001d0: 71dd 893e 9507 ce3c 6e1b 2f3d 8047 883e
000001e0: b2b7 9d3c 0bfe a2bd 5bf3 1b3e d22a 993d
000001f0: 29d8 afbd 5682 f1bc e55d f53d eada 053e
00000200: 23ba 91bc 2cfe 983d 4e2e 00bd ef5f c4bd
00000210: f2bf 85bd 082f 8ebd ad7f 8dbf fd53 97bf
00000220: 4196 89bf b78a 88bf e929 673f 0b8c 623f
00000230: bdb1 b73d 3550 853e adfc 593e 3676 a43e
00000240: 0502 6a3f b0e2 763f c61a b03d 6584 a43e
00000250: a74d a53d c20e 853e b4ea 6c3f 3fe6 6a3f
00000260: 9878 8b3e b827 533e 8f1f 283e bd8b d33e
00000270: 1d33 663d 717a 0cbe 6ad8 a63d e503 673e
00000280: 034e 773d 8233 9c3e c824 b6bc 78cf 47be
00000290: 9180 a43c 245f d93d 2839 cb3d e82b d83c
000002a0: 74d0 f23c b0c1 aabd 99ba b43d fdcc 353e
000002b0: 4e57 223e 7650 1dbe 9467 d63c 4468 01be
000002c0: 2d4a 91bf ad1b 95bf bd89 74bf 0186 8cbf
000002d0: de65 723f 8cf6 833f 2bb9 31bd 9a13 5dbc
000002e0: 5bc7 b03e a694 b63e 277f 6d3f 898c 4e3f
000002f0: 5e3e 8c3d 1e47 6b3e 721f ea3d 89d9 b23e
00000300: 1e5c 793f 6f62 843f a324 0b3e b743 bbbc
00000310: fc0c 73bd afe5 d93e dfa8 acbc 0f5f 803d
00000320: 4e63 983e ee9c 443e 7a71 da3b a8fb a63e
00000330: d6a4 4fbe 44b1 30be a2fc 40bd 4d8b d8bd
00000340: 2fd2 e6bc ed45 ebbd db99 463e 6eec 2c3e
00000350: 2295 26bd 251a 053e b9b8 ae3d 41a0 e53c
00000360: 0054 09bc e789 073e 614d 90bf 27b2 8ebf
00000370: 2734 85bf 89b3 84bf 258a 3b3f c4ae 523f
00000380: 68f6 f13d 1086 6e3d bd3c 483e aeae 413d
00000390: 8eeb 403f 082b 403f 660e 903e 969d bc3d
000003a0: cdd8 3e3d 3f73 bd3e 452c 2f3f fc76 813f
000003b0: 695e b83d a7e4 793d bb83 72bd ce8c 023e
000003c0: 6d37 643c 3f90 75bd c9ae 5d3e f133 1e3d
000003d0: 64e1 ad3d 62a6 c23e 7496 11bd 9054 07be
000003e0: cffe 4fbc f6b4 e53d 3fae e2bd f631 7e3d
000003f0: cc08 343d 6332 663d ae52 bcbd e936 1e3d

fc1.bias f4 [128]
1.0722893 1.1496339 0.91152847 1.0587125 1.1166837 1.1180389 1.0037426 0.96417665
1.0905842 0.69174075 1.1241101 0.8875256 1.0337224 0.9489273 0.9546673 0.9338802
0.9658961 1.2291113 1.0230954 1.0289888 0.95982105 1.1181006 1.1277851 1.0933003
1.0237918 1.1217555 1.288045 1.2094617 0.89573133 0.8749404 0.9372017 -0.102334596
0.9655367 -0.1011583 0.92374563 0.9560763 0.02157782 0.9850031 0.11444014 0.9468689
0.87668115 1.029617 1.1724309 0.98885703 1.1266158 0.9014343 1.0011667 0.97447634
0.9276191 0.87716854 1.1459849 1.1067737 0.9572751 1.032591 1.0895369 0.88811177
0.8474151 0.98254156 1.0842935 0.93166953 1.1434965 0.89229447 1.1196376 1.0823917
1.1133596 1.0579455 1.1241835 0.92027843 1.0121895 1.0228091 0.9296358 1.0862848
1.0616565 0.9219586 0.89253134 1.0311906 0.9292169 1.0357563 1.0178716 1.0337887
0.7440763 1.0480782 0.8254969 0.84284276 1.0765215 1.0437707 0.9112295 1.0872967
0.8423904 1.0703899 0.8539695 1.0923755 0.86814004 1.060714 0.8249509 1.0966846
0.9029426 1.0043234 1.1051166 1.1379248 1.0328642 0.99951744 1.0645561 1.154666
0.8867504 1.0878543 0.9374688 1.263043 1.0122706 0.9866153 1.0464027 1.233514
0.9062828 1.0603353 1.046858 0.96877515 1.0198898 0.9957008 1.0716369 1.1242309
1.1047935 0.970824 0.99442506 1.1123825 1.134616 1.0368637 1.0975465 1.0645999
00000000: c740 893f 3427 933f ee59 693f e483 873f
00000010: 7eef 8e3f e61b 8f3f a37a 803f 48d4 763f
00000020: 4398 8b3f ec15 313f d7e2 8f3f e134 633f
00000030: 0451 843f e6ec 723f 1465 743f c612 6f3f
00000040: f844 773f 8553 9d3f caf4 823f e8b5 833f
00000050: d5b6 753f ec1d 8f3f 435b 903f 44f1 8b3f
00000060: 9c0b 833f af95 8f3f a9de a43f a4cf 9a3f
00000070: a64e 653f 18fc 5f3f 73ec 6f3f cd94 d1bd
00000080: 6a2d 773f 152c cfbd 987a 6c3f 6bc1 743f
00000090: f8c3 b03c 2a29 7c3f 985f ea3d 0066 723f
000000a0: 2d6e 603f 7dca 833f 3712 963f bc25 7d3f
000000b0: f234 903f 66c4 663f 3b26 803f 4877 793f
000000c0: 7278 6d3f 1e8e 603f a2af 923f c3aa 8d3f
000000d0: fb0f 753f f12b 843f f275 8b3f 4b5b 633f
000000e0: 32f0 583f d887 7b3f 21ca 8a3f e581 6e3f
000000f0: 185e 923f 696d 643f 4950 8f3f d08b 8a3f
00000100: 9182 8e3f c26a 873f 3fe5 8f3f 5e97 6b3f
00000110: 6d8f 813f 69eb 823f 9dfc 6d3f 610b 8b3f
00000120: 5ce4 873f 7b05 6c3f ef7c 643f 0efe 833f
00000130: 29e1 6d3f aa93 843f 9e49 823f 3053 843f
00000140: c97b 3e3f 6d27 863f c453 533f 8bc4 573f
00000150: 75cb 893f 479a 853f 5646 693f 8a2c 8b3f
00000160: e6a6 573f 8902 893f bf9d 5a3f f6d2 8b3f
00000170: 6d3e 5e3f 7ac5 873f fb2f 533f 2960 8c3f
00000180: 3f27 673f ab8d 803f 7674 8d3f 85a7 913f
00000190: e534 843f 60e0 7f3f 6043 883f 18cc 933f
000001a0: 1302 633f cf3e 8b3f f5fd 6f3f 65ab a13f
000001b0: 1592 813f d292 7c3f 86f0 853f c9e3 9d3f
000001c0: 2602 683f 11b9 873f 71ff 853f a601 783f
000001d0: c08b 823f 3fe6 7e3f 662b 893f cce6 8f3f
000001e0: e069 8d3f ec87 783f a492 7e3f 8d62 8e3f
000001f0: 193b 913f f3b7 843f 677c 8c3f cf44 883f

fc2.weight f4 [128, 128]
0.60705143 0.66882974 0.759759 0.9238135 0.7439634 0.46106973 0.52520126 0.63798904
0.6023868 -3.0286658 0.38273498 0.6298963 0.7201489 0.38230646 0.86549884 0.4232215
0.42561296 1.0058854 0.91167426 0.6521304 0.76837784 0.55094343 0.5970205 0.6822953
0.5868906 0.53227705 1.0681988 0.90153944 0.44230136 0.6635543 0.57330185 -0.012807585
0.6787749 -0.059736654 0.46367654 0.53129894 0.0027500317 0.6560333 -0.040732946 0.679947
0.5336948 0.8670216 1.0334111 0.8194671 0.42665985 0.7918453 0.75061536 0.9895552
0.63398945 0.44845057 0.6373682 0.6090579 0.741288 0.8959977 0.5631695 0.65051544
0.5003647 0.9264308 0.8205636 0.59427863 1.1070117 0.44248265 0.6227144 0.41115272
0.47900143 0.4933159 1.052271 0.845113 0.89374465 0.6587 0.6639271 0.52639824
0.5730828 0.6128194 0.63624495 0.5211785 0.58813304 0.7634655 0.5555375 0.42692536
-2.5156007 0.679568 0.41727462 0.56350213 0.54410744 0.52309567 0.61699057 0.7401267
0.5765373 0.52660316 0.48419148 0.48459387 0.44859883 0.9450914 0.48178154 0.49587473
0.6740733 0.57644117 0.72662044 0.67670286 1.029493 0.66859066 1.038909 0.5991093
0.6360668 0.64687914 0.6621528 1.0102772 0.6160768 0.5762214 0.69099116 1.1054245
0.29697755 0.5083743 0.5930742 0.6420286 0.59897727 0.81125534 0.911333 0.87116045
0.59556854 0.43470955 0.52682704 0.66281205 0.48571032 0.6284629 0.39682627 0.6509597
0.57071686 0.68238205 0.6981537 1.0242518 0.8065443 0.43498176 0.4549462 0.589703
0.6540181 -2.979608 0.4441062 0.57315636 0.6271721 0.4297092 0.9112637 0.45613274
0.48952362 0.958635 0.9750085 0.71092343 0.76256055 0.40484673 0.62934834 0.6088059
0.49328426 0.4525686 1.1643989 1.0423585 0.5609835 0.6420893 0.510875 0.009998128
0.66051275 0.08343524 0.5215282 0.5594296 0.05667033 0.6217145 -0.08185112 0.66121423
0.6207319 0.8940469 1.1902021 0.9416717 0.5913595 0.822885 0.7195631 0.8547899
0.6125166 0.36717007 0.58046025 0.6167247 0.74943984 0.9176431 0.4606413 0.5578598
0.47950882 0.811616 0.7645818 0.43867046 1.1569779 0.47714198 0.58008516 0.40195826
0.47730497 0.53143054 0.9335521 0.7697262 0.7342638 0.6952775 0.722258 0.48290563
0.5776033 0.72176003 0.5590435 0.38916788 0.6182213 0.77005094 0.4958792 0.41050288
-2.5155885 0.6721354 0.45110306 0.43384296 0.66698754 0.65270925 0.6406657 0.76982546
0.42879733 0.48994598 0.44920507 0.53197676 0.48133287 0.9544461 0.4243593 0.54884756
0.57909226 0.47136027 0.7659546 0.66975886 1.0226299 0.6329465 1.0597717 0.5354506
0.68699867 0.5792049 0.6063254 0.98050255 0.4971653 0.530216 0.76124114 1.1089897
0.36073908 0.5414078 0.61291355 0.5319436 0.587896 0.7745364 0.78057426 1.0137671
0.5751532 0.37667006 0.6752856 0.6175068 0.56977266 0.47111133 0.35482368 0.6600534
00000000: b967 1b3f 6d38 2b3f 917f 423f 0b7f 6c3f
00000010: 6374 3e3f 5511 ec3e 9773 063f 4053 233f
00000020: 0536 1a3f a9d5 41c0 d7f5 c33e e240 213f
00000030: ae5b 383f acbd c33e 5591 5d3f 7db0 d83e
00000040: f1e9 d93e dac0 803f 7c63 693f 05f2 263f
00000050: 69b4 443f a10a 0d3f 56d6 183f e8aa 2e3f
00000060: 763e 163f 4f43 083f bdba 883f 4acb 663f
00000070: 5375 e23e b2de 293f e9c3 123f e8d6 51bc
00000080: 31c4 2d3f 6cae 74bd 0367 ed3e 3503 083f
00000090: e039 343b ccf1 273f 97d7 26bd 0211 2e3f
000000a0: 39a0 083f 21f5 5d3f d146 843f 99c8 513f
000000b0: 2973 da3e 60b6 4a3f 5428 403f 7d53 7d3f
000000c0: 224d 223f 509b e53e 902a 233f 38eb 1b3f
000000d0: 0dc5 3d3f 1b60 653f e02b 103f 2e88 263f
000000e0: e717 003f 922a 6d3f 7510 523f a522 183f
000000f0: 8fb2 8d3f 168d e23e 366a 1f3f 9c82 d23e
00000100: ad3f f53e e793 fc3e d1b0 863f 5359 583f
00000110: 73cc 643f 90a0 283f 20f7 293f 09c2 063f
00000120: 8eb5 123f bbe1 1c3f f3e0 223f f46b 053f
00000130: e38f 163f 7a72 433f b537 0e3f f695 da3e
00000140: 9aff 20c0 2bf8 2d3f 05a5 d53e ad41 103f
00000150: a04a 0b3f 99e9 053f 18f3 1d3f f278 3d3f
00000160: f397 133f 77cf 063f f2e7 f73e b01c f83e
00000170: bfae e53e 83f1 713f 12ac f63e 4be3 fd3e
00000180: 1190 2c3f a691 133f cc03 3a3f 663c 2d3f
00000190: 6dc6 833f c228 2b3f f8fa 843f 3a5f 193f
000001a0: 46d5 223f df99 253f d982 293f c350 813f
000001b0: 36b7 1d3f 3f83 133f cce4 303f 8d7e 8d3f
000001c0: 710d 983e d124 023f b6d3 173f fd5b 243f
000001d0: 9356 193f 6eae 4f3f 1f4d 693f 5f04 5f3f
000001e0: 2e77 183f 4092 de3e 23de 063f 0dae 293f
000001f0: 06af f83e f2e2 203f d02c cb3e 4ba5 263f
00000200: 801a 123f 97b0 2e3f 33ba 323f af1a 833f
00000210: b079 4e3f eeb5 de3e b5ee e83e c7f6 163f
00000220: bb6d 273f e6b1 3ec0 e361 e33e 60ba 123f
00000230: 5a8e 203f d802 dc3e 9448 693f 3b8a e93e
00000240: d7a2 fa3e 1a69 753f 289a 793f 14ff 353f
00000250: 2b37 433f 1248 cf3e f91c 213f b4da 1b3f
00000260: c18f fc3e 12b7 e73e 060b 953f 016c 853f
00000270: 9d9c 0f3f f75f 243f b4c8 023f 30cf 233c
00000280: 5d17 293f 18e0 aa3d df82 053f c736 0f3f
00000290: 261f 683d ae28 1f3f 8fa1 a7bd 5645 293f
000002a0: 49e8 1e3f 42e0 643f 8b58 983f 6611 713f
000002b0: 5663 173f 97a8 523f 4a35 383f 83d3 5a3f
000002c0: e3cd 1c3f b7fd bb3e 0b99 143f ace1 1d3f
000002d0: 4adb 3f3f a8ea 6a3f 2dd9 eb3e e6cf 0e3f
000002e0: 2e82 f53e 11c6 4f3f a2bb 433f 6a99 e03e
000002f0: da17 943f f44b f43e 7680 143f 79cd cd3e
00000300: 5161 f43e d50b 083f 45fd 6e3f c70c 453f
00000310: b6f8 3b3f b5fd 313f e6e5 383f 683f f73e
00000320: cfdd 133f 44c5 383f 7a1d 0f3f 0341 c73e
00000330: c043 1e3f 0f22 453f e1e3 fd3e 6f2d d23e
00000340: 67ff 20c0 1111 2c3f fbf6 e63e aa20 de3e
00000350: b2bf 2a3f f417 273f ab02 243f 4813 453f
00000360: 538b db3e 33da fa3e 35fe e53e a12f 083f
00000370: 4371 f63e 9456 743f 9f45 d93e 4681 0c3f
00000380: 643f 143f 2256 f13e 9a15 443f 5175 2b3f
00000390: 89e5 823f c808 223f 99a6 873f 4a13 093f
000003a0: 25df 2f3f c646 143f 2438 1b3f 3702 7b3f
000003b0: 738c fe3e 3cbc 073f b3e0 423f 60f3 8d3f
000003c0: cbb2 b83e b499 0a3f e7e7 1c3f 752d 083f
000003d0: 5a80 163f 0448 463f b7d3 473f 1fc3 813f
000003e0: 3d3d 133f e6da c03e 84df 2c3f ed14 1e3f
000003f0: 9fdc 113f 8135 f13e 73ab b53e 42f9 283f

fc2.bias f4 [128]
0.9806158 0.9635781 0.827582 -0.07460685 0.9623208 -0.08927011 0.07120238 0.054269068
0.9921173 0.84206396 0.98358995 0.87118447 0.92471963 0.006617531 0.9356398 -0.07004306
0.85580313 0.87922186 -0.052221283 0.89909303 0.96339357 0.86275375 0.9799155 0.8158977
0.98295146 0.014933391 -0.022731982 0.8577165 0.027810592 -0.07221422 0.037883654 0.04320202
0.98782575 0.8747895 0.86625135 0.9994299 0.936723 0.9329128 0.85110945 0.91620153
-0.073354095 0.9202449 0.88890636 0.91173863 0.9420541 0.0465413 0.055600338 0.86908543
0.9696032 0.8734586 -0.0006608516 0.030114114 0.92851377 0.93087184 -0.050375454 -0.039621085
0.8696704 1.0373641 -0.04838633 0.8340696 0.92343074 0.05978628 0.8455651 0.94232
0.8827073 0.053877324 0.96177983 0.9645182 0.008199789 0.96624243 0.929567 0.8654314
0.938228 0.9316584 0.8302191 0.96101046 0.9311293 0.87661284 0.9339468 0.954177
0.018909488 0.9641606 0.0715969 -0.079901144 0.0090393135 0.0322438 0.9427868 0.95153713
0.8715992 0.98432636 0.086841665 0.07562674 -0.08525977 0.9764015 0.044680383 0.073859654
0.83846354 -0.07205394 0.99720913 0.9812796 0.91623193 0.06932721 0.96048105 0.017877229
0.8714817 -0.08657346 -0.01571424 -0.019766577 1.0042479 -0.095770404 0.07492117 0.9810324
-0.08213743 0.91685593 0.052759655 0.86136496 0.9040054 0.95506907 -0.08165547 0.9702374
-0.042815458 -0.06793833 0.86370647 0.92289907 0.087683015 0.8416453 0.92407745 0.85964864
00000000: a309 7b3f 0ead 763f 6adc 533f 7acb 98bd
00000010: a85a 763f 3fd3 b6bd 8ed2 913d 3e49 5e3d
00000020: 66fb 7d3f 8191 573f 8dcc 7b3f f205 5f3f
00000030: 6dba 6c3f e0d7 d83b 1786 6f3f bc72 8fbd
00000040: ea15 5b3f af14 613f fce5 55bd f62a 663f
00000050: f6a0 763f 6edd 5c3f bedb 7a3f acde 503f
00000060: b5a2 7b3f 2eab 743c 6c38 babc 4f93 5b3f
00000070: 0ad3 e33c 0de5 93bd e42b 1b3d 9af4 303d
00000080: 26e2 7c3f 34f2 5f3f a6c2 5d3f a3da 7f3f
00000090: 14cd 6f3f 60d3 6e3f 4fe2 593f 2f8c 6a3f
000000a0: ac3a 96bd 2b95 6b3f 5e8f 633f b467 693f
000000b0: 752a 713f 17a2 3e3d 2ebd 633d 627c 5e3f
000000c0: ea37 783f fc9a 5f3f 003d 2dba e0b1 f63c
000000d0: 14b3 6d3f 9e4d 6e3f 7e56 4ebd b849 22bd
000000e0: b8a2 5e3f 59c8 843f bf30 46bd 9685 553f
000000f0: f565 6c3f 75e2 743d f476 583f e23b 713f
00000100: 1bf9 613f 78ae 5c3d 3437 763f aaea 763f
00000110: 6858 063c aa5b 773f 1af8 6d3f ea8c 5d3f
00000120: b62f 703f 2a81 6e3f 3d89 543f c804 763f
00000130: 7d5e 6e3f b369 603f 2317 6f3f f244 743f
00000140: 12e8 9a3c 3bd3 763f 65a1 923d 36a3 a3bd
00000150: a119 143c 1312 043d 7a5a 713f f097 733f
00000160: 2021 5f3f d0fc 7b3f 0bda b13d 31e2 9a3d
00000170: ad9c aebd 73f5 793f c702 373d bb43 973d
00000180: 8ca5 563f 0491 93bd 1949 7f3f 2435 7b3f
00000190: 2d8e 6a3f 6dfb 8d3d 16e2 753f 4473 923c
000001a0: 6d19 5f3f 6d4d b1bd 26bb 80bc 84ed a1bc
000001b0: 328b 803f 4623 c4bd 4570 993d f024 7b3f
000001c0: ab37 a8bd 12b7 6a3f 821a 583d 6a82 5c3f
000001d0: e66c 673f 687f 743f fc3a a7bd 7a61 783f
000001e0: 435f 2fbd 4023 8bbd de1b 5d3f 1d43 6c3f
000001f0: 2793 b33d 1176 573f 5790 6c3f ef11 5c3f

value_stream.0.weight f4 [64, 128]
-0.023447342 0.05139733 0.05116702 -0.017368756 0.050201483 -0.047889944 0.05678033 0.01627729
0.011826798 -0.08680549 0.004293047 -0.0012999699 0.060764633 -0.010970645 0.070904545 -0.036014754
0.05110445 0.087458216 -0.063115664 -0.004226677 0.016746871 -0.050342955 0.06561675 0.018610783
0.040655695 -0.048489727 0.035437867 -0.023382016 0.0434094 -0.084977634 -0.023650892 -0.08372567
-0.06204898 -0.072028205 -0.053630833 -0.035133865 -0.081636325 0.05934445 0.020691507 0.08339142
0.024716586 0.042104535 -0.05952529 -0.017928764 -0.052612532 0.03298404 0.027468689 -0.027932666
-0.0655056 0.07181252 -0.037570134 0.03965982 -0.04153295 0.018456958 -0.08522866 0.01034914
0.04926475 0.044653602 -0.021959856 -0.060846634 0.067172 -0.05467762 -0.025448613 -0.05571635
-0.07949612 -0.077339515 0.0073783845 0.0119390935 0.049924783 0.029449217 -0.030841652 -0.082243904
-0.042168353 -0.028019961 0.020629428 0.006654747 -0.047154833 -0.044131618 -0.06997408 0.019952886
-0.06964457 -0.018259563 -0.0052383915 0.054231875 -0.07976747 -0.07825199 -0.07966436 0.007972889
0.059564672 -0.043184873 -0.038170293 0.062156193 -0.023410603 -0.022308886 0.049068578 0.008704945
-0.0854404 0.032765307 -0.04932685 0.054257654 -0.06699833 -0.04354267 -0.030973993 0.055052035
0.03324517 0.012532562 0.04008182 -0.029548828 0.07404632 0.03294429 0.0068778917 -0.038276207
0.03492491 0.063055195 0.024796411 -0.03852692 -0.0068759546 -0.04470768 0.066915385 0.012078747
0.02405785 -0.04023984 0.084481455 0.04172329 -0.07447775 0.040665783 0.08061116 0.00492426
0.019180395 0.004668951 0.074579515 -0.039900295 -0.04938556 0.027090989 -0.08312739 0.07880152
-0.041475564 -0.05876928 0.0034093857 -0.08459457 0.008674957 -0.088197656 -0.049137987 -0.078915104
-0.08229671 0.014451005 0.08682083 0.03578817 0.010891244 -0.08058683 -0.07978507 0.015826963
0.010917775 -0.0102710575 -0.08197383 -0.0066612884 -0.033831663 0.086066805 0.032558717 0.08217364
0.0447694 -0.041351423 -0.026678324 0.037786894 -0.016369432 0.053282015 -0.035401087 0.050849713
0.03339486 -0.009781398 0.004054822 0.039655544 -0.06426346 0.03893792 0.048443563 0.079849474
0.07813542 -0.014404304 0.029489689 0.032568626 -0.030218594 0.0075418204 0.0020701066 -0.021008424
-0.039736006 0.0036297068 -0.055026125 -0.08639056 0.05135628 0.058450244 -0.06440956 -0.025981035
-0.05663507 0.08239568 -0.058150746 0.07906333 -0.06513838 -0.06119304 -0.076471575 -0.07860922
0.051001705 -0.011830494 -0.0728874 0.03916075 0.0064292178 -0.028481584 0.040731795 -0.008552134
0.0803942 0.060424007 0.0037183613 0.08451346 -0.06550596 0.015787765 -0.07511446 0.06347992
0.07957294 0.0552961 0.006141737 0.0510874 -0.050096724 -0.04532119 0.000984624 0.07548978
-0.013869524 -0.032013386 -0.0023945495 -0.031612128 -0.014082119 0.035733417 -0.029229186 -0.006670274
0.068812184 -0.040905643 -0.0042162985 0.010771193 0.065832295 0.031335257 -0.06780458 -0.027755026
0.035628676 0.008482471 -0.015395999 -0.021094695 -0.08207897 -0.069661945 -0.059682675 0.03601931
0.06591115 -0.054743793 -0.048976533 -0.0880641 0.021609634 -0.05901288 -0.06055125 0.007756181
00000000: a414 c0bc 0286 523d 8294 513d ec48 8ebc
00000010: 12a0 4d3d 3f28 44bd 7e92 683d f457 853c
00000020: 30c5 413c 14c7 b1bd b0ac 8c3b c063 aaba
00000030: 56e4 783d 38be 33bc 6736 913d 3584 13bd
00000040: e652 513d 4b1d b33d c942 81bd f07f 8abb
00000050: bc30 893c 6a34 4ebd 1362 863d a475 983c
00000060: 9686 263d 2a9d 46bd 4c27 113d a48b bfbc
00000070: 0ece 313d c108 aebd 84bf c1bc 5d78 abbd
00000080: 1227 7ebd 8683 93bd 01ac 5bbd 87e8 0fbd
00000090: f230 a7bd 2a13 733d 3c81 a93c 1fc9 aa3d
000000a0: 707a ca3c ce75 2c3d cad0 73bd 58df 92bc
000000b0: 3d80 57bd 461a 073d 0406 e13c 0cd3 e4bc
000000c0: cd27 86bd 7112 933d 24e3 19bd 5672 223d
000000d0: 741e 2abd 0c33 973c 5d8c aebd 708f 293c
000000e0: d6c9 493d b2e6 363d 28e5 b3bc 523a 79bd
000000f0: 7991 893d a4f5 5fbd 9c79 d0bc d436 64bd
00000100: ddce a2bd 2e64 9ebd 60c6 f13b 309c 433c
00000110: ee7d 4c3d 7c3f f13c a2a7 fcbc 7e6f a8bd
00000120: b9b8 2cbd 1e8a e5bc 0cff a83c 1010 da3b
00000130: 6d25 41bd 5bc3 34bd 924e 8fbd 3c74 a33c
00000140: d0a1 8ebd 1495 95bc d0a6 abbb 3e22 5e3d
00000150: 215d a3bd 9442 a0bd 1127 a3bd b8a0 023c
00000160: 16fa 733d 9fe2 30bd 7458 1cbd 7e97 7e3d
00000170: 98c7 bfbc 20c1 b6bc 22fc 483d 309f 0e3c
00000180: 60fb aebd ea34 063d f30a 4abd 463d 5e3d
00000190: 6c36 89bd cc59 32bd 2cbd fdbc 3e7e 613d
000001a0: 162c 083d 6055 4d3c d62c 243d 6210 f2bc
000001b0: 99a5 973d 98f0 063d f05f e13b 83c7 1cbd
000001c0: 6c0d 0f3d 1523 813d d821 cb3c 67ce 1dbd
000001d0: b04f e1bb 661f 37bd ef0a 893d f0e5 453c
000001e0: f814 c53c 88d2 24bd 9d04 ad3d 0ae6 2a3d
000001f0: ca87 98bd 2a91 263d 7717 a53d b05b a13b
00000200: 3420 9d3c 00fe 983b 25bd 983d 7e6e 23bd
00000210: 8348 4abd eced dd3c b13e aabd b162 a13d
00000220: 48e2 29bd 0eb8 70bd 0070 5f3b eb3f adbd
00000230: 6821 0e3c f9a0 b4bd ea44 49bd 3e9e a1bd
00000240: 2d8b a8bd e8c3 6c3c 1fcf b13d 9e96 123d
00000250: 3071 323c b50a a5bd 5b66 a3bd 8ca7 813c
00000260: 78e0 323c f047 28bc e5e1 a7bd f046 dabb
00000270: 1293 0abd cb43 b03d 4a5c 053d a74a a83d
00000280: 1e60 373d 1c60 29bd 808c dabc 6ec6 1a3d
00000290: 3019 86bc 3e3e 5a3d bb00 11bd ca47 503d
000002a0: 0cc9 083d 2842 20bc 50de 843b da6d 223d
000002b0: 909c 83bd 5e7d 1f3d c26c 463d 1f88 a33d
000002c0: 7705 a03d 0800 6cbc 5c94 f13c ae66 053d
000002d0: fc8c f7bc 6021 f73b a0aa 073b dc19 acbc
000002e0: 39c2 22bd 60e0 6d3b 1363 61bd 89ed b0bd
000002f0: f65a 523d 8669 6f3d 29e9 83bd 2ed6 d4bc
00000300: 2dfa 67bd 11bf a83d 7a2f 6ebd f5eb a13d
00000310: 4567 85bd 8ea5 7abd 219d 9cbd dffd a0bd
00000320: 2ae7 503d b0d4 41bc fd45 95bd 0667 203d
00000330: 30ac d23b 3652 e9bc 62d6 263d 401e 0cbc
00000340: b7a5 a43d 2a7f 773d c0af 733b 6515 ad3d
00000350: fd27 86bd 5855 813c 9cd5 99bd c301 823d
00000360: 23f7 a23d 2a7e 623d a040 c93b 0641 513d
00000370: 3932 4dbd b6a2 39bd 800e 813a 639a 9a3d
00000380: 003d 63bc 7820 03bd e0ed 1cbb b87b 01bd
00000390: b0b8 66bc 345d 123d 0c72 efbc 5092 dabb
000003a0: 67ed 8c3d ad8c 27bd e028 8abb a879 303c
000003b0: 15d3 863d 6659 003d 21dd 8abd 825e e3bc
000003c0: 60ef 113d 10fa 0a3c 803f 7cbc c8ce acbc
000003d0: 0519 a8bd ecaa 8ebd d275 74bd fc88 133d
000003e0: 6dfc 863d 073b 60bd 9e9b 48bd f35a b4bd
000003f0: b006 b13c 7db7 71bd 9604 78bd 9027 fe3b

value_stream.0.bias f4 [64]
-0.06554915 -0.06176967 0.07803043 -0.0007443452 -0.068183094 -0.06499831 -0.06733006 0.067344405
0.74564636 0.7440601 -0.05874868 0.8302004 -0.05186645 -0.05529736 -0.068781756 -0.050476637
-0.07607883 0.009848652 -0.07309937 0.7027925 0.048985146 0.8450707 0.006217748 0.7716991
0.7432974 0.0011318482 0.038251016 0.00376353 0.761767 0.8913829 -0.06512378 0.77535486
0.020715723 0.07457974 0.81576604 0.8413579 0.722649 0.7456476 -0.027426286 0.7953763
-0.061074447 0.8185671 0.88631254 0.047854386 0.8794603 0.7066846 0.0680052 0.71942204
0.6871674 -0.03650644 -0.042984005 0.039421592 0.06904983 -0.06344914 -0.052565705 -0.040517654
-0.005396217 0.7433943 0.06780185 0.82148826 0.043242894 -0.091055445 0.7353586 0.82989675
00000000: a23e 86bd 3202 7dbd 6bce 9f3d 2920 43ba
00000010: 94a3 8bbd d51d 85bd 58e4 89bd ddeb 893d
00000020: aee2 3e3f b97a 3e3f 75a2 70bd 0388 543f
00000030: ea71 54bd 7c7f 62bd 73dd 8cbd 97c0 4ebd
00000040: 38cf 9bbd 3e5c 213c 1fb5 95bd 36ea 333f
00000050: a6a4 483d 8e56 583f 40be cb3b 128e 453f
00000060: bd48 3e3f 865a 943a 19ad 1c3d 8ea5 763b
00000070: 2a03 433f ab31 643f 9e5f 85bd a87d 463f
00000080: 05b4 a93c 43bd 983d 0bd6 503f 3b63 573f
00000090: 86ff 383f c3e2 3e3f 17ad e0bc c89d 4b3f
000000a0: 3329 7abd 9d8d 513f 61e5 623f f602 443d
000000b0: 4f24 613f 48e9 343f 4f46 8b3d 0b2c 383f
000000c0: 34ea 2f3f c787 15bd ff0f 30bd 8978 213d
000000d0: ff69 8d3d 9ff1 81bd 234f 57bd d7f5 25bd
000000e0: c0d2 b0bb 174f 3e3f b2db 8a3d 0e4d 523f
000000f0: 761f 313d 477b babd 7640 3c3f 1d74 543f

value_stream.2.weight f4 [1, 64]
0.036123723 0.08378211 0.07773526 0.06455805 0.076796606 0.09302778 0.04705828 0.053086568
-0.78291637 -0.77070665 -0.06725228 -0.758771 0.02780279 0.023745835 0.10949165 0.043936223
-0.029676527 0.066746615 -0.10535392 -0.77994007 -0.040754125 -0.80813676 -0.009042591 -0.7810495
-0.71080315 0.048896622 0.028554808 0.057846148 -0.7114462 -0.7487173 0.03518082 -0.76083446
0.11699024 0.0520295 -0.8213718 -0.8229837 -0.76389295 -0.8269586 0.048955258 -0.7545436
0.08834807 -0.74641544 -0.7459815 -0.009396344 -0.76332223 -0.8077256 0.023505306 -0.76609105
-0.81915426 -0.10735759 0.036161408 0.0734327 0.028445933 0.006651572 -0.038848266 0.034595132
0.035392642 -0.7761444 0.0380526 -0.7252292 0.10568246 0.019654164 -0.756183 -0.772741
00000000: 78f6 133d f495 ab3d aa33 9f3d 0337 843d
00000010: 8a47 9d3d 5985 be3d 2fc0 403d 4d71 593d
00000020: 356d 48bf 084d 45bf 90bb 89bd d13e 42bf
00000030: adc2 e33c a086 c23c 283d e03d 78f6 333d
00000040: 301c f3bc 73b2 883d ccc3 d7bd 27aa 47bf
00000050: cced 26bd 0de2 4ebf 6027 14bc dcf2 47bf
00000060: 32f7 35bf d347 483d c6eb e93c 15f0 6c3d
00000070: 5721 36bf f0ab 3fbf c319 103d 0cc6 42bf
00000080: 9498 ef3d e31c 553d 6c45 52bf 0faf 52bf
00000090: 7d8e 43bf 8fb3 53bf 4f85 483d c529 41bf
000000a0: d5ef b43d 1515 3fbf a5f8 3ebf 20f3 19bc
000000b0: 1669 43bf 1bc7 4ebf 338e c03c 8b1e 44bf
000000c0: 18b4 51bf 4cde dbbd fc1d 143d e263 963d
000000d0: 7207 e93c 6ef5 d93b 5c1f 1fbd a0b3 0d3d
000000e0: e0f7 103d 66b1 46bf 0bdd 1b3d 9fa8 39bf
000000f0: 0c70 d83d c501 a13c 3695 41bf 5bd2 45bf

advantage_stream.0.weight f4 [64, 128]
-0.040617518 0.042700283 -0.052918855 0.06839507 0.036221042 0.020311452 0.07023477 -0.0333545
-0.027576357 -0.011216305 -0.019757599 -0.044206627 0.055117197 0.07333966 0.06877758 0.024341509
-0.020001799 0.023161255 -0.020245187 0.05154196 -0.053958006 -0.06946669 -0.030177955 0.070900865
-0.080637425 -0.018981926 0.038841538 0.03868153 0.00638327 0.014559217 -0.04095133 0.032499157
-0.084284015 -0.05862069 0.0025603771 0.048537545 0.036759757 0.027382143 0.068647854 -0.012506582
0.08669988 0.0119658485 0.059462465 -0.04296227 -0.0072171763 0.024566673 -0.024408475 -0.045935977
-0.073352344 0.04399117 -0.007207237 -0.018356405 -0.05523297 -0.08596837 0.015472926 0.040959112
-0.03314901 -0.068155766 0.033265308 -0.08101234 -0.0448973 -0.023514852 -0.071266785 -0.044661675
0.07377923 0.083986096 -0.08698885 -0.029089268 0.04493598 0.016104393 -0.0864262 -0.043304894
-0.010956265 -0.07996531 0.06635765 0.021764137 0.076315336 0.044547223 -0.05516628 -0.029712189
0.07468017 0.01853498 0.07317946 -0.06534634 -0.010185532 0.054878302 -0.0015962347 0.079948716
0.084238194 0.027608775 0.064258404 0.02945777 -0.038117144 0.01631634 0.08561904 0.0348823
-0.0821245 -0.07740177 0.072966106 0.047825508 0.0018978417 -0.05461668 0.05549688 0.00018052757
0.039398827 0.0029007792 -0.06900546 -0.056054633 -0.04261476 -0.024320573 0.061625637 0.070082955
0.038035356 0.03404478 -0.0031611621 -0.03869771 0.0042689517 -0.03580306 0.059913374 0.0056739002
-0.031185392 -0.063690856 0.052369244 0.01546289 0.05039046 0.059592 -0.06737262 0.029106855
-0.029737258 -0.0917356 0.059826206 0.076715104 -0.054590747 -0.06358245 0.028128399 0.03402306
-0.04669703 -0.07503857 -0.073766045 0.042485833 -0.024395322 -0.0021217242 0.015061329 0.033210125
-0.012530826 -0.018620187 0.052519836 -0.01758619 0.028017497 -0.007705925 0.070534706 -0.05464103
0.07908559 -0.08052585 0.056297388 -0.10004359 -0.0042630807 0.07015152 0.08183872 -0.006255828
0.024419533 -0.022803344 0.023562167 0.0620192 0.06934355 -0.07097173 0.039854046 -0.017195622
0.039906137 -0.0118004065 -0.07763582 0.03736663 -0.05582 -0.014551535 -0.0062356144 -0.099593885
0.0027085487 -0.007126491 0.022940353 -0.083725475 0.058868695 0.07495725 -0.053093176 -0.01872594
0.074825756 -0.033736255 0.060995452 -0.06966562 0.018064303 -0.056140237 -0.0707467 0.023806427
0.04170467 0.058371305 -0.032719377 0.015099876 -0.010581411 0.07601638 -0.040401928 -0.058459274
-0.015642153 -0.00881378 0.071963586 -0.010849501 -0.025859838 -0.09096872 0.07185896 -0.09082491
0.062344234 -0.08298061 0.060181342 0.05693758 0.014144395 -0.043638825 0.05832071 -0.055598903
0.06404063 0.07218209 0.08023272 -0.080552585 -0.021239225 0.04983996 0.0130447745 -0.060103595
-0.04331942 -0.079395644 0.06422291 0.055467803 0.01636458 -0.040108133 -0.06633754 0.062309243
-0.053392958 -0.08778368 -0.0341225 -0.08479863 0.0074847704 -0.07381342 0.060932763 -0.053239092
-0.07397244 0.018592112 0.03708218 0.0712359 -0.031281363 0.016386753 -0.02742152 0.003603217
-0.060754623 -0.06447535 -0.028322428 0.056796692 -0.008833282 0.06934551 0.07056323 0.07653052
00000000: 8e5e 26bd 7ee6 2e3d 71c1 58bd b712 8c3d
00000010: 845c 143d 3464 a63c 3fd7 8f3d ba9e 08bd
00000020: d0e7 e1bc 98c4 37bc b0da a1bc 0212 35bd
00000030: 92c2 613d 1b33 963d 43db 8c3d d867 c73c
00000040: d0da a3bc acbc bd3c 3cd9 a5bc aa1d 533d
00000050: 1203 5dbd 8d44 8ebd c237 f7bc 7934 913d
00000060: 3c25 a5bd fc7f 9bbc 4e18 1f3d 8670 1e3d
00000070: c02a d13b c889 6e3c 95bc 27bd d61d 053d
00000080: 199d acbd 401c 70bd 00cc 273b 4ecf 463d
00000090: 6691 163d 8450 e03c 3f97 8c3d 68e8 4cbc
000000a0: b58f b13d 680c 443c ea8e 733d 35f9 2fbd
000000b0: 107e ecbb 0c40 c93c 48f4 c7bc 5d27 3cbd
000000c0: c139 96bd 1630 343d b02a ecbb 2c60 96bc
000000d0: f73b 62bd 2f10 b0bd 2882 7d3c bec4 273d
000000e0: 42c7 07bd 4095 8bbd 3441 083d cce9 a5bd
000000f0: 3be6 37bd 38a2 c0bc 52f4 91bd 29ef 36bd
00000100: 9119 973d e700 ac3d 3627 b2bd 9e4c eebc
00000110: ca0e 383d 5ced 833c 3800 b1bd 7960 31bd
00000120: e881 33bc dac4 a3bd 85e6 873d b44a b23c
00000130: 374b 9c3d 2677 363d 0af6 61bd fa66 f3bc
00000140: ebf1 983d acd6 973c 1ddf 953d 4dd4 85bd
00000150: 38e1 26bc 12c8 603d c038 d1ba 27bc a33d
00000160: 1385 ac3d cc2b e23c e999 833d 6c51 f13c
00000170: b920 1cbd d8a9 853c 0959 af3d bee0 0e3d
00000180: e430 a8bd d284 9ebd 416f 953d aee4 433d
00000190: 00c1 f83a bdb5 5fbd b250 633d 004c 3d39
000001a0: aa60 213d 001b 3e3b bc52 8dbd 8b99 65bd
000001b0: d18c 2ebd f03b c7bc 2a6b 7c3d a787 8f3d
000001c0: f6ca 1b3d 8a72 0b3d 802b 4fbb 7d81 1ebd
000001d0: 90e2 8b3b 3ba6 12bd ba67 753d 20ec b93b
000001e0: 8278 ffbc 5a70 82bd 2281 563d 1058 7d3c
000001f0: 3a66 4e3d be16 743d a8fa 89bd 8071 ee3c
00000200: 8d9b f3bc e0df bbbd 530c 753d cf1c 9d3d
00000210: 8c9a 5fbd 8437 82bd 876d e63c c45b 0b3d
00000220: 6345 3fbd d2ad 99bd a712 97bd a005 2e3d
00000230: b3d8 c7bc a00c 0bbb cbc3 763c 5707 083d
00000240: 184e 4dbc 5d89 98bc 0a1f 573d ea10 90bc
00000250: f384 e53c fc81 fcbb 8074 903d 46cf 5fbd
00000260: a0f7 a13d bdea a4bd 1798 663d a7e3 ccbd
00000270: 50b1 8bbb 9aab 8f3d 0f9b a73d b0fd ccbb
00000280: 790b c83c 14ce babc 7205 c13c d807 7e3d
00000290: fe03 8e3d a059 91bd ff3d 233d d5dd 8cbc
000002a0: 9e74 233d 7e56 41bc 87ff 9ebd c00d 193d
000002b0: 83a3 64bd 9069 6ebc 2054 ccbb e1f7 cbbd
000002c0: e881 313b 5785 e9bb 68ed bb3c 4378 abbd
000002d0: 4d20 713d 3083 993d 3b78 59bd 2467 99bc
000002e0: 3f3e 993d 072f 0abd 5ed6 793d d9ac 8ebd
000002f0: 97fb 933c 4ef3 65bd a5e3 90bd b205 c33c
00000300: 84d2 2a3d c016 6f3d c104 06bd 7865 773c
00000310: a85d 2dbc 7aae 9b3d 7e7c 25bd fe72 6fbd
00000320: f923 80bc ac67 10bc a561 933d 1bc2 31bc
00000330: 03d8 d3bc cf4d babd ca2a 933d 6902 babd
00000340: ab5c 7f3d bdf1 a9bd b680 763d 6137 693d
00000350: e4bd 673c a0be 32bd b2e1 6e3d adbb 63bd
00000360: bc27 833d 34d4 933d 0d51 a43d c1f8 a4bd
00000370: e2fd adbc fc24 4c3d c0b9 553c 302f 76bd
00000380: b46f 31bd 2f9a a2bd 4d87 833d 3532 633d
00000390: 030f 863c 6d48 24bd fadb 87bd fa37 7f3d
000003a0: 93b2 5abd eec7 b3bd 09c4 0bbd e7aa adbd
000003b0: ce42 f53b 7e2b 97bd a294 793d 3c11 5abd
000003c0: dd7e 97bd 7c4e 983c 7ce3 173d 21e4 913d
000003d0: e320 00bd 833d 863c 18a3 e0bc f323 6c3b
000003e0: d7d9 78bd a70b 84bd 7004 e8bc a6a3 683d
000003f0: 78b9 10bc 0505 8e3d 7483 903d 09bc 9c3d

advantage_stream.0.bias f4 [64]
-0.06897199 -0.07456545 0.030728612 0.13559744 0.014675133 0.11036571 -0.054988634 -0.02481766
0.12784074 -0.05418959 -0.050328974 0.0432281 0.008285953 -0.0080460515 0.13257267 0.1290927
-0.07654557 -0.032942533 -0.028929006 0.04177166 -0.046237245 0.010908037 0.032861948 -0.018892191
0.0846365 0.07848604 0.063707896 0.12772025 0.082530946 0.09956765 0.051237382 0.12086493
0.03779924 0.021612542 0.006330566 0.047363363 0.052081533 -0.011042792 -0.076604374 0.060924225
-0.032376733 -0.027892185 0.011283309 0.05041848 0.0856706 -0.06886972 0.07630409 -0.070173316
-0.03480925 0.02177317 0.13354886 -0.089248605 0.018199636 3.3487886e-05 0.03096813 -0.047266226
0.06236847 -0.008426303 0.022853246 0.13283835 0.08299573 0.057675637 0.006918711 -0.013379951
00000000: 3041 8dbd c5b5 98bd 92ba fb3c 0eda 0a3e
00000010: f86f 703c 6b07 e23d c33b 61bd 684e cbbc
00000020: afe8 023e e7f5 5dbd c125 4ebd f30f 313d
00000030: cec1 073c 96d3 03bc 21c1 073e e030 043e
00000040: ecc3 9cbd c0ee 06bd 86fc ecbc c318 2b3d
00000050: 4463 3dbd a0b7 323c 409a 063d ccc3 9abc
00000060: e755 ad3d 4abd a03d 4979 823d 19c9 023e
00000070: fc05 a93d 20ea cb3d 4ade 513d 0888 f73d
00000080: 60d3 1a3d c90c b13c a370 cf3b 1600 423d
00000090: 7253 553d d4ec 34bc c1e2 9cbd ae8b 793d
000000a0: 779d 04bd 277e e4bc a1dd 383c 9c83 4e3d
000000b0: 1174 af3d 910b 8dbd 5245 9c3d 07b7 8fbd
000000c0: 2594 0ebd a65d b23c 08c1 083e f9c7 b6bd
000000d0: 6717 953c 5875 0c38 e0b0 fd3c 3b9a 41bd
000000e0: 1576 7f3d 7a0e 0abc bb36 bb3c c706 083e
000000f0: aaf9 a93d 4a3d 6c3d 5bb6 e23b 9537 5bbc

advantage_stream.2.weight f4 [2, 64]
-0.036659673 0.10065705 -0.0058663962 -0.09536997 -0.07539101 0.02146297 0.081867084 0.019356756
-0.10691995 0.011489694 0.037690938 -0.012434939 0.03334231 0.10225155 -0.06779512 -0.077150606
0.100956544 -0.123147756 -0.0017090753 -0.009186606 -0.007028097 -0.0009024512 0.023372613 -0.070046216
0.10940975 0.056081478 -0.121286124 -0.146143 -0.13260242 0.09380666 -0.07493031 -0.12630053
-0.027450264 0.056336086 -0.086554386 -0.13909078 -0.09994796 -0.0034379628 0.01585494 0.12501113
-0.02719213 0.025958836 -0.1130773 -0.023186874 -0.05040444 0.11525008 0.06565367 0.023272341
-0.097982466 -0.14963885 0.00845261 0.011242031 -0.14399731 0.075579755 -0.0025214353 0.020507276
-0.101922505 -0.017631015 0.1163861 -0.009870244 -0.12314258 -0.1049289 0.06643238 0.024643665
-0.013375267 -0.00027438306 0.088496335 0.07116205 0.016159266 0.11339901 -0.121672556 -0.04940339
-0.017081859 -0.114345916 -0.044502497 -0.0044913334 -0.012113166 0.07460273 0.05178793 0.054525137
0.0959422 0.011822969 -0.03738263 -0.04027104 -0.00013897619 -0.107653625 0.09828348 -0.095141545
-0.07124746 -0.08462112 -0.06755321 -0.09090048 0.04485439 0.108890705 -0.037737645 -0.067743346
-0.028120711 0.04542778 0.04449199 0.09474089 0.049046252 0.10501867 0.031492516 -0.03993235
0.009138718 -0.120874025 0.019250477 -0.030353554 0.13456583 -0.12105736 0.065560915 0.0027455555
0.014935851 0.13315712 0.025350269 -0.08962594 0.08759388 -0.09217469 -0.044460572 0.094167516
0.040353585 0.04362089 -0.08280699 0.14648336 -0.09020224 0.11281951 -0.0060965847 0.016672036
00000000: 7428 16bd 4925 ce3d e63a c0bb 5551 c3bd
00000010: 9a66 9abd 1cd3 af3c eea9 a73d 0f92 9e3c
00000020: d9f8 dabd 453f 3c3c d061 1a3d eabb 4bbc
00000030: f291 083d 4369 d13d 2bd8 8abd 2301 9ebd
00000040: 4ec2 ce3d e434 fcbd 0d03 e0ba 6b83 16bc
00000050: f34b e6bb 7a92 6cba ec77 bf3c 6474 8fbd
00000060: 3812 e03d b1b5 653d dc64 f8bd 83a6 15be
00000070: eec8 07be b51d c03d 1075 99bd ed54 01be
00000080: 60df e0bc abc0 663d 6d43 b1bd d06d 0ebe
00000090: 84b1 ccbd 724f 61bb 38e2 813c eb02 003e
000000a0: 08c2 debc a0a7 d43c 1295 e7bd 66f2 bdbc
000000b0: e374 4ebd 3c08 ec3d 6e75 863d a3a5 be3c
000000c0: 08ab c8bd ed3a 19be d17c 0a3c 7f30 383c
000000d0: 0874 13be 8fc9 9a3d aa3e 25bb e0fe a73c
000000e0: bfbc d0bd eb6e 90bc d65b ee3d ceb6 21bc
000000f0: 2d32 fcbd f7e4 d6bd b30d 883d 83e1 c93c
00000100: f023 5bbc 12db 8fb9 913d b53d 69bd 913d
00000110: 7060 843c bd3d e83d 762f f9bd 365b 4abd
00000120: 41ef 8bbc 312e eabd 4048 36bd 092c 93bb
00000130: 4d76 46bc 51c9 983d 951f 543d c055 5f3d
00000140: 587d c43d 20b5 413c 871e 19bd 3ff3 24bd
00000150: 23ba 11b9 8179 dcbd d948 c93d 92d9 c2bd
00000160: 30ea 91bd d64d adbd 5659 8abd 082a babd
00000170: 3db9 373d 1702 df3d ca92 1abd 06bd 8abd
00000180: 685d e6bc 7b12 3a3d 3c3d 363d 8307 c23d
00000190: b9e4 483d 0714 d73d 4cfe 003d 1b90 23bd
000001a0: 90ba 153c cd8c f7bd 2db3 9d3c 04a8 f8bc
000001b0: a0cb 093e ecec f7bd cd44 863d c7ee 333b
000001c0: 80b5 743c 575a 083e 5eab cf3c ce8d b7bd
000001d0: 6c64 b33d 15c6 bcbd 4a1c 36bd e6da c03d
000001e0: cd49 253d d1ab 323d b696 a9bd bcff 153e
000001f0: f4bb b8bd ea0d e73d dcc5 c7bb cb93 883c

advantage_stream.2.bias f4 [2]
-2.3332736 2.2006214
00000000: 5b54 15c0 fbd6 0c40
