models/d3qn_agent.pth (torch, 47138 bytes, 11 tensors)

fc1.weight f4 [64, 34]
00000000: c983 edbd 7e9a ab3d a1dc a13d b553 413e
00000010: 316e f73d 4b46 a6bd bda4 74bc b1b3 b93d
00000020: 8510 b7ba ae9f edbd e707 2e3e b46b 3f3e
00000030: 032d 123e c5fe 813b b78e 42bd 13d7 2e3d
00000040: ce6a a73d a599 213e 2c06 b93c f41d 1f3d
00000050: f40e 3e3e 7295 51bb 71f4 393c 77b5 3e3e
00000060: 74eb 32bd 1d0e 313c 9e2d c5bd 806b 253e
00000070: fa69 1c3e 05fa c53c ac0d 433d 8486 06be
00000080: 832f 0e3e 0682 f43d 05da 75bc f930 f2bd
00000090: 58bb 973d edcf 213e 3504 113e 3515 393e
000000a0: 6a73 d7bd 9c16 d33d 8a96 953d 423a f93c
000000b0: 5c4e 2b3b 692a 21bc e220 913d a647 3cbd
000000c0: b4ff 4c3d 1adb 623e d4ba 3d3e 0407 ddbd
000000d0: 1398 373e 101f 32bc 42b4 6ebd 6a71 aabd
000000e0: 6d2e debd 761d e1bc 2700 d4bd 75fb 13bd
000000f0: a5e7 433d a3e4 88bc 9b59 193e a6b4 58bd
00000100: a954 463e 9cf3 36be ba36 833d ed4d 30be
00000110: a1f8 013e 83b6 8a3d 181d b3bd cc30 0f3e
00000120: 082b 613d 3c96 e43d 5c21 89bd 64bf 423d
00000130: ff7d 313e 7e7d a33c 707a 353e 4893 86bc
00000140: e096 8b3c d721 863d 618d 673e 7b0e 353e
00000150: b495 f43c b38f 5d3e 6798 593d 6635 1abd
00000160: 86de 21bc 645f 4a3d 519e 9bbd 66a9 013e
00000170: cae1 3e3e 2ac4 cf3d 8627 b83d 33fd e73d
00000180: 88a8 36be 72a8 c23c 688b 1dbd 9480 013e
00000190: 0f55 383e f0f0 aa3d c382 3d3e 8f61 18be
000001a0: e32c 27be 6d56 09be efb5 0c3e 4810 63bd
000001b0: efa3 313e 7074 cf3d facd 12be 5183 71be
000001c0: ab32 243e 5bd9 27be 56ea 34bd a536 423d
000001d0: 4d3b 143a 578c 51be 02bc 88bd 66d8 e2bc
000001e0: 9a44 303e 4b25 b93d 413f 863c 6a24 1bbe
000001f0: c17c c6bd 3751 94bc 75a5 b1bd d04b 0d3d
00000200: 5147 433e 89e8 19bd 45b7 0e3e 9d43 2b3d
00000210: 3e95 43bd a631 d43d 08c5 043e b1b8 0f3e
00000220: 8811 643e 15cd 923e f367 b33e 56c8 5f3e
00000230: 8a4b 14be ed9c fdbd 7e56 693e 352c 493e
00000240: 5a99 423e b062 c73e aea1 c0bd 9bf0 8ebd
00000250: 289c 623e 386f 773e c0fd 533e c70f 663e
00000260: 67e2 6e3d 51b0 453d ed4e 823e 03f2 493e
00000270: 4c36 5e3e 863f dd3d d1a6 10bd cc6d 9bbd
00000280: fecf 943d e622 b43d f84e dd3d 550d 1ebd
00000290: 879a 0e3d 5329 043d be80 623d 017f a1ba
000002a0: e9a5 66bd f107 67bd 9db5 573d a2bd 603e
000002b0: eadf 8cbd 2dfb af3d 3d32 f43a f89b 363d
000002c0: 58b3 aebc 6966 f73c 525d 893d 6b36 be3d
000002d0: 0dd1 943c 6135 833d 69c9 43bd 9870 ac3d
000002e0: a4c3 493e d05e 893e cfdc f13b 1e9e 2a3e
000002f0: e0b3 d63d 4c0b f03d 1b56 993d 712e 3a3e
00000300: eb39 1b3d c296 473c 9a02 893b b06a cabd
00000310: bb43 9d3c b47b 873d 4677 153e 2be5 b93d
00000320: 2596 00be 3fcc 08be 370e 2d3e dd01 8e3d
00000330: 0a04 013e 9dcf 5b3e 00bb 86bd 14e7 833d
00000340: 5749 cf3d 4d51 f33c f5bf 86bd fc46 323e
00000350: aefb e7bd 7223 0ebe 7cf7 b63d cf9b 5c3e
00000360: 4d45 133e 89cc e6ba 9ae5 233e 32cd 1d3e
00000370: beeb b33d 228e 92bc f17e 0f3e bf03 c0bd
00000380: 4cf2 e03d b647 73bd c017 0f3e 350f e8bd
00000390: 6f7e 363a 5873 0dbc b4e1 2b3e 38a4 ccbd
000003a0: 4aa6 c93c b5bb 22bd ec96 03bd 7f41 293e
000003b0: 2949 473d 4071 943d 5bb4 243e 4145 1f3e
000003c0: 742e 6c3e 7d42 073e 8685 463e 67b4 633e
000003d0: 23ba 443e 13a3 61bd ee01 d13d d02a 203e
000003e0: b65a aebd 7cb3 813d 9048 2abd 1c0a 0abd
000003f0: 66a4 2f3d 67c1 863d a907 de3d 3652 a3bd
-0.11597402 0.083790764 0.0790341 0.18879588 0.12081564 -0.08118876 -0.014931855 0.090674765
-0.0013966715 -0.11602722 0.16995202 0.18693429 0.14274983 0.0039671385 -0.047499385 0.04268558
0.08174668 0.15781267 0.02258595 0.038846925 0.18560392 -0.0031979945 0.011349783 0.18623911
-0.043681577 0.0108065875 -0.096278414 0.16154289 0.15274802 0.02416707 0.04762046 -0.13137251
0.13885312 0.119388625 -0.015005593 -0.11825747 0.0740878 0.15801974 0.14161761 0.18074496
-0.1052006 0.10307047 0.07304104 0.030423287 0.0026139235 -0.0098367715 0.0708635 -0.045966767
0.050048545 0.22153893 0.185283 -0.10792354 0.17929105 -0.010871664 -0.058277376 -0.08322413
-0.10848699 -0.027479868 -0.103515916 -0.03612848 0.047828335 -0.016710585 0.14975588 -0.052906655
0.19368233 -0.17866367 0.06406923 -0.17217226 0.126925 0.067730926 -0.087457836 0.13983458
0.05497268 0.111614674 -0.06695816 0.047545806 0.1733322 0.0199573 0.17722487 -0.016427651
0.017039716 0.06549423 0.22612526 0.17681305 0.02985654 0.21636848 0.053123858 -0.03764858
-0.009879714 0.049407378 -0.07598556 0.12662277 0.18640819 0.10144837 0.089919135 0.11327591
-0.17837727 0.023761962 -0.038463026 0.12646705 0.18001197 0.083467364 0.18506913 -0.14880966
-0.16325717 -0.13411875 0.13741277 -0.05543545 0.17347692 0.101296306 -0.14336386 -0.2358525
0.16034953 -0.16391508 -0.044168793 0.047415394 0.00056545885 -0.20463692 -0.06676485 -0.027691077
0.1721367 0.09040316 0.016387584 -0.1515061 -0.09691764 -0.018105133 -0.086741365 0.03449613
0.19070174 -0.03757528 0.139371 0.041812528 -0.04774975 0.10361032 0.12965786 0.14035298
0.22272313 0.2867209 0.35040244 0.21853766 -0.14481941 -0.12383447 0.227869 0.1964577
0.19003811 0.3894248 -0.09405838 -0.069794856 0.22129881 0.2416352 0.20702267 0.22466956
0.058321383 0.04826385 0.2545084 0.19721226 0.217004 0.10803132 -0.03531534 -0.075893015
0.07266234 0.08795719 0.10806078 -0.038586933 0.034815338 0.032265972 0.05529856 -0.0012321175
-0.056310568 -0.056404058 0.052663434 0.21947339 -0.06878646 0.0859283 0.0018630695 0.044582337
-0.021325752 0.0302002 0.067072526 0.09287723 0.01816609 0.064066656 -0.0477995 0.08419913
0.19703537 0.2683015 0.0073810588 0.1666188 0.10483527 0.11720905 0.074871264 0.18181778
0.03789703 0.01218194 0.0041812183 -0.0988363 0.019197335 0.066153914 0.1459628 0.090769134
-0.12557276 -0.13359164 0.16899954 0.06933949 0.12599197 0.21465917 -0.06578636 0.06440559
0.1012141 0.029701853 -0.06579582 0.17409891 -0.11327301 -0.13880709 0.08933923 0.21543811
0.14381905 -0.0017608564 0.16005555 0.15410307 0.08785199 -0.01789004 0.14013268 -0.093757145
0.109837145 -0.05939456 0.13973904 -0.113310255 0.0006961589 -0.008633457 0.16785318 -0.0999226
0.024615426 -0.039729793 -0.032126352 0.16528891 0.048653755 0.07248163 0.16084425 0.15553762
0.23064595 0.13208957 0.19386873 0.22236787 0.1921163 -0.05508716 0.10205446 0.15641332
-0.085133955 0.06333062 -0.041573107 -0.033701047 0.042881392 0.06579857 0.10841305 -0.07974665

fc1.bias f4 [64]
00000000: 7eea 8c3d da17 163d 4232 213e 83ab c7bd
00000010: dde5 11bd 321a 893d a4f2 bb3d ea9a 7f3d
00000020: f8e0 633e c93d 84bd 8c15 af3c 5550 b23d
00000030: 95c9 663d eabd b0bc ebe9 933d d19a 2b3e
00000040: f2f5 3f3d ea69 dbbd cd02 513e edf1 513e
00000050: 7db9 1b3e f88f e0bd f0e4 663d ee34 5dbd
00000060: a959 75bd ffe5 6fbd bc2e 193e aca1 af3d
00000070: 2cd7 763d 7198 923c 59b8 7ebd 376b 51bd
00000080: bd10 a43c f1b5 183e 3075 2a3d 74ca 4fbc
00000090: 6b0f c7bd c2c0 b93d a0cf 35bd 97ff 9c3d
000000a0: f221 a73d 2f18 32be 784e 793d 7d89 8f3d
000000b0: f185 2e3e 6db6 aa3d 922c 76bc aa1c 1f3e
000000c0: 22fe b4bd 6242 15be 0fc1 4f3c db9d c43d
000000d0: 951d 3f3b b2e7 533d 079e 45bd 8052 6e3c
000000e0: 7392 553e b5d9 b33d dba2 be3d ad05 d5bd
000000f0: a4df 593e 8fd1 37be 1328 173e f475 063e
0.06880663 0.03664384 0.15741828 -0.0974951 -0.035619605 0.066944495 0.091771394 0.062403597
0.22253788 -0.06457097 0.021372579 0.08706728 0.056344587 -0.021574933 0.07222351 0.16758277
0.04686541 -0.10713561 0.20411225 0.20502444 0.15207477 -0.1096496 0.056370676 -0.054005556
-0.05989996 -0.05856895 0.14959234 0.08575758 0.060263798 0.017894955 -0.062187526 -0.05112764
0.020027513 0.14913155 0.041615665 -0.012682546 -0.097197376 0.09069969 -0.04438746 0.076659374
0.081607714 -0.17392038 0.06086585 0.07008646 0.17043282 0.08335576 -0.015025275 0.15538278
-0.088375345 -0.14576104 0.012680306 0.09600421 0.002916192 0.051734634 -0.04824641 0.014546037
0.20856647 0.08781759 0.09308406 -0.10401473 0.21276718 -0.17951034 0.14761381 0.13130933

fc2.weight f4 [64, 64]
00000000: ad84 ae3d eb97 c43b e885 a63d e881 8a3d
00000010: 427f b8be 4ac4 bd3c d58c 06bd 116a 033e
00000020: 3529 fc3d 9374 043e 9a3e 223d 9a92 6abd
00000030: ef33 603d fc75 683d a211 363e a781 c83d
00000040: d043 e0bc ed6e 37bd 3dc1 cf3c 6705 563c
00000050: 4a91 0c3d 07cd 6ebc 0bd4 36bd c7ab 0d3e
00000060: 7642 0d3d bb99 183e 108c cebb 1efd 2abc
00000070: e77f 2cbe 3c4a 833d fbfb a8bd 5e35 86bd
00000080: e6e2 1bbd add5 213d fa05 e4bd 2efc 853c
00000090: 0a79 44bc aff9 2ebc 1ed3 b53d 7d65 863d
000000a0: fd44 af3d a3a3 0f3e d701 1f3e 21a6 d93b
000000b0: d6b3 203d 6f66 be3d 4e88 903d d4db 1b3d
000000c0: 8c5f 0d3e fbb7 9d3d 45fa 1a3e 98b7 5fbd
000000d0: 8e07 473e 3165 713c 3266 d5bd bc2f 203e
000000e0: 7bb6 9cbd 6d83 f73d 0d35 043d 3359 283c
000000f0: a09b 823d 15b2 383b 919b a03d a354 fd3d
00000100: c8d8 cabd 7e05 a5bd 5e76 b0bd 2e46 e03d
00000110: 7c7e 2dbd c029 f9bb 12ee b63d be66 d23d
00000120: b64d c43d 9040 b13c 58d9 e7bc 82a2 96bd
00000130: e89b fe3c f6dd 94bd 88ff 54bd dcfd 38bd
00000140: 76ef ecbd 2e71 ad3d 4892 e83c b208 fc3d
00000150: c80c 0bbd a81b cbbd 94a0 893d 967e f93d
00000160: 5016 643c 1000 f0bc e8b1 32bd dacb d93d
00000170: 9280 ba3d 1cfd bbbd 1658 90bd 4a47 c93d
00000180: 3495 223d 5a2f cd3d f2fd 993d 10c3 c0bd
00000190: c8e8 e4bd a06d a8bd 6446 a83d f040 33bc
000001a0: fc10 513d 0821 d33d 7e63 e0bd 6094 d13d
000001b0: fa3f c93d 7499 fdbd 4242 d9bd b4e8 81bd
000001c0: 80f5 093d ccb0 7abd 7253 b93d e691 c8bd
000001d0: 3422 41bd ea2f e03d e0cc eebc 44fd 5cbd
000001e0: 404d 47bc 5074 ad3c 723c a2bd 70b4 833d
000001f0: e0a9 babc 8028 b4ba 6ad7 b03d 9cc9 f8bd
00000200: f719 103e 7fbc dd3c 5bc7 87bc f67c 9c3c
00000210: 6313 00be 29e6 9abd 4870 2e3d 2ca2 413d
00000220: 5595 a43c 45b4 9f3d fad7 fe3d 1632 8c3d
00000230: 1e1a dd3d 72f0 c43c c639 ef3c b624 c13d
00000240: 1416 fc3c 13a8 003e 0880 c6bd 3081 a33d
00000250: 42f9 56bd 529e 90be 768c c13c e5d0 3ebd
00000260: 5603 983d c7d9 67bd 711c 613d 8879 233c
00000270: f11b ac3c 1843 133e 7e0c db3c 0eea 0dbd
00000280: 2941 113e 3082 5a3d fa32 f3bc bda3 b53d
00000290: 1f10 fbbb 897f 90bb 4e32 c1bd 6cd6 793d
000002a0: 2cf0 c4bd 13fb ed3d b984 0a3b 0972 2b3e
000002b0: f898 a63d f003 143e f6dd 083e 594f 0dbd
000002c0: 42ed 5e3b 0cdf ae3d 6ac9 49bc 0283 c63d
000002d0: a5ec db3d 0734 96bd b412 2cbe 0ea6 a23d
000002e0: a45b b33d c1de 433d 2bdf a93c 9864 0bbe
000002f0: 2deb 82bd af44 eabd 1cbf 383e 1bbe ebbc
00000300: 22b7 a73c 8a46 82bc 0ee5 e73d ca44 35bd
00000310: c88b 03bd cc3a 4a3d b7ae 423a 3b62 a9bd
00000320: df00 91bb 0bc8 babd 8e03 c7bd 5fb8 eabd
00000330: 792b 623d 536c 043d d410 843d 112a 06be
00000340: 3102 a8bd 1c13 063d 6a96 d8bd 70bc 07bd
00000350: 6dae 863d 81b0 57bd 6147 993d 7d4e e7bd
00000360: b034 db3d ad67 d23d 434e f5bd c053 75bc
00000370: c21b 223d 3aaf 96bd 2cb7 ae3d ec21 9c3d
00000380: 4746 b2bc 08c7 7fbd d8e2 373d 92e3 b1bd
00000390: 62b6 f6bd a608 0cbd 53c7 0bbd 97de d93c
000003a0: 2cc8 24bb 4045 88bd bfdd ffbc 2497 e4bd
000003b0: 8038 7abc 5476 bfbd d0cc 9abd a6c3 c1bd
000003c0: 7559 87bc 293a ccbd f474 13b9 2f78 ef3b
000003d0: e98b bf3b ffb4 a83d 0ac2 a73d a017 98bc
000003e0: 9567 263d a82c cebd befe 07bd 6642 a93d
000003f0: 466c 4ebd c0c1 8fbd 1efa 28bd 1a6f 8abd
0.085214 0.0059995553 0.08131009 0.06763059 -0.3603459 0.023164887 -0.03284915 0.1283343
0.12312547 0.12935095 0.039610483 -0.057268716 0.054737028 0.056753144 0.17780164 0.09790354
-0.027376086 -0.04478352 0.025360698 0.013062811 0.034318246 -0.0145752495 -0.044635814 0.13835059
0.03448721 0.14902394 -0.006303318 -0.010436324 -0.16845666 0.064106435 -0.082511865 -0.06553148
-0.038058184 0.039510418 -0.111339524 0.0163556 -0.011991749 -0.010679646 0.08878158 0.06562326
0.0855808 0.14027266 0.15528046 0.0066421186 0.039234005 0.092968814 0.07057248 0.03805144
0.1380598 0.07701107 0.15134533 -0.054618448 0.19436476 0.014733599 -0.10419883 0.15643209
-0.07651993 0.12085614 0.032277156 0.010275173 0.06377339 0.0028182317 0.07842172 0.12369659
-0.09904629 -0.08057688 -0.08616327 0.10950886 -0.042356953 -0.007603854 0.08932127 0.10273503
0.09585135 0.021637231 -0.02830188 -0.07355215 0.031080201 -0.07268898 -0.052001506 -0.045163974
-0.11569111 0.08468853 0.028390065 0.12306346 -0.033947736 -0.099173844 0.06720081 0.121823475
0.013921335 -0.029296905 -0.043626696 0.10634585 0.09106554 -0.09179136 -0.07048051 0.098280504
0.039693072 0.10018797 0.07519139 -0.09412205 -0.11177212 -0.08224034 0.08216551 -0.010940775
0.05104159 0.103090346 -0.10956477 0.102333784 0.09826656 -0.123827845 -0.10608341 -0.06343213
0.033681393 -0.061203763 0.09049119 -0.09793453 -0.04715176 0.10946639 -0.029150426 -0.05395247
-0.012164414 0.021173626 -0.07921685 0.064309 -0.02278608 -0.001374498 0.08634837 -0.12147829
0.14072405 0.027067421 -0.016574552 0.019102555 -0.12507395 -0.07563431 0.04258755 0.0472738
0.020090738 0.077980556 0.12443538 0.06845491 0.10795997 0.024040435 0.029202353 0.0943083
0.030772246 0.12564115 -0.09692389 0.07983625 -0.052483805 -0.2824579 0.023626547 -0.046585936
0.07422511 -0.056604173 0.054958764 0.009977706 0.021009417 0.14381063 0.026739355 -0.03464704
0.14185013 0.053346813 -0.029687393 0.08869121 -0.007661834 -0.0044097346 -0.09433423 0.060995504
-0.09616122 0.11620154 0.0021136238 0.1674272 0.08134645 0.14454627 0.13365921 -0.0344995
0.0034015928 0.085386366 -0.012316087 0.096929565 0.10738496 -0.07334142 -0.1680401 0.07941829
0.087577134 0.047819857 0.020736298 -0.13612592 -0.063925125 -0.114388816 0.18041652 -0.028777173
0.020473067 -0.015902776 0.113229856 -0.044255055 -0.032115728 0.04937248 0.0007426547 -0.08270689
-0.0044251527 -0.091201864 -0.09717475 -0.11460947 0.05521724 0.03232987 0.06448522 -0.13101985
-0.08203543 0.032733068 -0.10575564 -0.033138692 0.06576238 -0.05265856 0.074843176 -0.11294267
0.10703409 0.10273681 -0.11977818 -0.014973581 0.039577253 -0.073576406 0.08531031 0.076236576
-0.021762026 -0.06244567 0.04489407 -0.08685984 -0.120465055 -0.034187935 -0.034125637 0.026595397
-0.0025143726 -0.066538334 -0.031233666 -0.1116164 -0.01527226 -0.09348741 -0.07558596 -0.09461145
-0.016522149 -0.09972031 -0.00014062581 0.007308028 0.005845536 0.08237647 0.08191307 -0.018565953
0.040626127 -0.10067111 -0.033201925 0.082646176 -0.050396226 -0.07019377 -0.041254155 -0.06759472

fc2.bias f4 [64]
00000000: 75fa 573d 3cc8 10bd c13c f43d 639b 383d
00000010: 1501 8dbc 1aeb 603c a8af d03c 1c3a 9b3d
00000020: f734 183d d1d5 ec3d cc08 183d d4f7 e93d
00000030: b287 023d 9a17 a3bd 4f2f b2bd 5c3e 8abd
00000040: 2490 c03d 4ae5 473d 5e9d 303c e00e 093c
00000050: f0a2 90bc e080 89bd 9643 d43d e295 e93c
00000060: d5a9 30ba 8b59 c0bd b477 893d af9f 0c3e
00000070: 92e1 c93d 8785 01bd 6aae bd3d fa2a 323e
00000080: 7803 c8bc c2ec 723b ccd0 183e 3df1 e63c
00000090: 985a 94bd e983 fe3d 7a1d 613d 92ed 4dbd
000000a0: 8fde 0a3e 7b48 053e b6d3 9a3d 134f a3bc
000000b0: 4a97 6dbd e72d 1b3e 06f7 0ebe fa74 bfbd
000000c0: e9db b13d e724 9abd 5371 a3bd b414 d73d
000000d0: ad6f ba3d cbf6 89bd 2298 ed3c 7c0b 173e
000000e0: f224 3bbd 71c6 543d 1d06 84bd 4bcd 233e
000000f0: e532 183d 4bf7 9abb 4f3f 243e 84f7 d3bc
0.05272909 -0.03534721 0.119256504 0.045070063 -0.01721243 0.013727928 0.025474384 0.07579443
0.037159886 0.1156422 0.037117764 0.114242226 0.03186769 -0.07963486 -0.0870043 -0.06750175
0.09402493 0.04880265 0.010779707 0.008365363 -0.01765582 -0.06714034 0.103644535 0.028513853
-0.0006739174 -0.09392079 0.06712285 0.1373279 0.09857477 -0.031621482 0.092617825 0.17399207
-0.024415717 0.0037067388 0.149234 0.028191203 -0.07243842 0.124275036 0.05495975 -0.050275393
0.13561462 0.1301593 0.07559912 -0.019935166 -0.05800561 0.15154229 -0.1396142 -0.093484834
0.08684523 -0.0752657 -0.07980599 0.10501996 0.09103332 -0.06736525 0.029003207 0.14750475
-0.04568953 0.05194706 -0.064464785 0.15996282 0.03715791 -0.0047291867 0.16039775 -0.02587486

value_stream.0.weight f4 [32, 64]
00000000: 4cd7 ff3d 8649 b9bd 14b4 1f3e 0b06 11bd
00000010: e13b c6bd 12d5 0b3e bc49 f43d 74d4 2e3e
00000020: 069d 2cbd 2585 54bc c8bd 9e3d 9956 0e3d
00000030: c86d 103d c988 9b3d 9061 d9bd 0a4c d03d
00000040: f109 82bc aca5 f93d 12db a1bb 7849 17bd
00000050: cc72 3e3d 7db1 333e 687b 2b3d a83a 48bd
00000060: ef8f 87bd 0330 883e 188e c6bc f6c3 bb3c
00000070: 56d3 2c3d bf85 403c ac3e 5abc dd06 1a3e
00000080: 1800 103e 003d 783d 8882 ca3d 94f4 28be
00000090: f215 6a3b 8e06 1b3e 2bba 223e c5ae 293e
000000a0: aca0 093e be0c f83d d605 cabd 4300 0a3e
000000b0: abd5 a73d 19d1 34bc ece4 13be 8c3c 1abe
000000c0: 749c 2d3e be62 4c3d 06e9 fc3c ff6e 84bc
000000d0: e1fb 0f3e 950b e23d 7500 8c3b be80 943d
000000e0: 47c3 1f3d f25a 8ebd 3564 433a 3e1a d63c
000000f0: 7ef0 d4bd ef14 db3d 44f7 1a3e a229 713d
00000100: 94d6 ae3d 724b fc3d c2c8 d7bd 62a4 97bd
00000110: a027 b93b 7c70 efbd 74a6 75bd 2869 f53c
00000120: f050 1abc bee0 9ebd 7c30 03bd 987e 83bd
00000130: f89f 9bbc e821 5fbd a483 64bd b826 bcbc
00000140: 127c cb3d 1800 303d 603e 7c3c 02de c4bd
00000150: e007 e3bd 28c5 99bc 2094 b7bb aec6 d73d
00000160: f495 693d f24e bebd 92f4 bd3d 5014 54bd
00000170: 8a97 843d 58a5 d9bc 5c18 e8bd 46bf e4bd
00000180: 6283 a8bd 6ebf ffbd 069b 9e3d e029 953c
00000190: 4afd cb3d 04d1 cb3d 5c46 9d3d 1031 f3bc
000001a0: 00de c0bd 98f5 33bd 1c8a b1bd 8030 0abb
000001b0: cc74 b03d 3012 703d 0899 893d e03a 06bc
000001c0: c89e dc3d eefc 9fbd 0c36 af3d f277 f93d
000001d0: b475 79bd d83d aebc d09d 7f3d 202e bdbd
000001e0: 60c5 c43d cc5e 62bd e001 56bc d8cb 29bd
000001f0: 88e2 57bd 2e4f 82bd e80d 0cbd c06a 533b
00000200: 422d 8ebd 2870 d63c e918 29bd 84c1 b5bd
00000210: 205a 713d d767 d13d 005c 81bc ce3f 663d
00000220: 4416 1bbd 8889 cfbc 9480 233d 06fc ccbc
00000230: 96d8 ce3d 795c 95bc 9abe e7bd 085e 9b3c
00000240: d01c 2f3c d919 4fbd 1c38 953d 0c07 00bd
00000250: dad2 bb3d 338b a53d 4d9f e2bd 0080 ce36
00000260: aeed cf3d ca0f a9bd 40e6 c43d eb34 823d
00000270: f06c 093c 3517 db3d 09f9 b0bc 6f34 b4bd
00000280: 19e4 8fbd 18b4 e73d cfd3 013e df54 b93d
00000290: 5bf3 d7bd 95ed 30bc fcb4 56bd b05a 513d
000002a0: 1ca3 dc3d a5f8 c43d 0cc2 9cbd 24fa b1bd
000002b0: d8b6 5f3d 5659 44bd 8897 523d 6cb4 c53d
000002c0: f04f aabd 8c7d 04bd 7801 d3bc 6429 b73c
000002d0: 7909 813d 6e59 9bbd 9be6 42bd e8e6 8dbd
000002e0: 402a afbc 3411 6fbd 0cf8 95bd 6f66 1dbd
000002f0: a031 533c 7979 5a3b dd2c b4bd dea0 a53d
00000300: 18ac c83c f02e 73bc 7f9a 08bd 270f af3d
00000310: 8760 c13c 07a4 47bd a04d eabc 4822 623d
00000320: 506a 71bd 6ed0 e8bc c842 9b3d 1a58 af3d
00000330: e195 6e3d 1807 bebd f220 b1bd 7cce 433d
00000340: 0c1f e83d 306f 503d 4d82 2d3d 5745 923d
00000350: 200f bebb 7bfb dfbd fe82 cdbd 48eb c73d
00000360: 00d2 10be b4c5 e9bd 89aa 56bd 4253 1fbe
00000370: e260 b43c a4ff 5bbd 1b68 ee3d a308 bdbd
00000380: 18c2 a93d 1746 23be d19c ccbc 4ef7 7e3e
00000390: 53fd cc3d 9224 8fbc 9ca5 c23d 0ef7 9f3d
000003a0: e7e7 4fbe ac95 e6bc 61d8 013d c2d1 023e
000003b0: 9fac 74bd 15a0 91bc e7bc f5bd 5a1b 843d
000003c0: bb62 febd 5ca5 15be e2b9 d23c eff4 fcbd
000003d0: 0c69 093e 3263 a2bd ca51 e4ba f504 2a3d
000003e0: cbed d0bc 3071 833d 5b4f f33d ddd8 0a3d
000003f0: a01c e03d 8958 d6bb c1a3 883d 43ab 8e3d
0.124922365 -0.090472266 0.15596038 -0.035406154 -0.0967939 0.13655499 0.11928126 0.17073232
-0.042141937 -0.012971197 0.07751042 0.034750555 0.035260946 0.07594449 -0.10614312 0.10170753
-0.015873881 0.121898025 -0.0049394453 -0.0369353 0.046496198 0.17548175 0.041865736 -0.048884064
-0.0661925 0.2659913 -0.024237677 0.02292059 0.042193733 0.011750638 -0.013320606 0.1504168
0.14062536 0.06060505 0.09888178 -0.16499549 0.0035718647 0.15139219 0.1589133 0.16570576
0.13440198 0.121118054 -0.09864394 0.13476662 0.08195051 -0.011036181 -0.14442796 -0.1506216
0.16954213 0.049898855 0.030872833 -0.016166208 0.14060928 0.11037365 0.0042725154 0.07251118
0.03900459 -0.0695094 0.00074535917 0.02613556 -0.10397433 0.10697352 0.15133387 0.058877595
0.08537021 0.123190776 -0.105363384 -0.074044004 0.0056504756 -0.116913766 -0.059973195 0.029957369
-0.009418711 -0.0775771 -0.03202866 -0.0642063 -0.018997177 -0.054475695 -0.055789605 -0.022967681
0.09935774 0.04296884 0.015395731 -0.09612657 -0.110854864 -0.01877077 -0.0056023747 0.10535942
0.057027772 -0.092924014 0.09275164 -0.051777184 0.06474216 -0.0265681 -0.11332771 -0.11169295
-0.08228184 -0.12487684 0.07744412 0.018208444 0.099604204 0.09951976 0.076794356 -0.02968648
-0.09417343 -0.04393539 -0.086689204 -0.0021086037 0.08616027 0.058611095 0.067186415 -0.008192748
0.107724726 -0.078119144 0.085552305 0.12181081 -0.060903266 -0.021269724 0.06240636 -0.09237313
0.09607959 -0.055266187 -0.0130619705 -0.041454166 -0.05270627 -0.063627586 -0.03419295 0.0032259673
-0.06942226 0.026176527 -0.04128352 -0.08874801 0.05892384 0.10224884 -0.01579094 0.056213193
-0.03786303 -0.025334135 0.039917544 -0.025022518 0.10099904 -0.018232571 -0.11315651 0.018965736
0.010688022 -0.05056176 0.07286093 -0.03125672 0.09171076 0.08083191 -0.110655405 6.1541796e-06
0.10152756 -0.08254965 0.09614229 0.063577496 0.008387789 0.10697786 -0.021603124 -0.087990634
-0.07025928 0.11313647 0.12678455 0.09049391 -0.10544463 -0.0107988315 -0.052418694 0.051111877
0.10773298 0.09617738 -0.07654199 -0.08690289 0.054617733 -0.04793676 0.051414043 0.09653553
-0.08316028 -0.032346293 -0.025757536 0.022358604 0.06300635 -0.07585417 -0.047583204 -0.069288075
-0.021382451 -0.058366016 -0.07322702 -0.038427766 0.0128902495 0.0033336564 -0.087976195 0.080873236
0.024496123 -0.014842734 -0.033350464 0.08547812 0.023605598 -0.048740413 -0.028601468 0.055208474
-0.058939278 -0.0284197 0.07581097 0.08561726 0.058248404 -0.09278697 -0.08648862 0.04780434
0.11334047 0.050887287 0.042360593 0.07142132 -0.005800143 -0.10936638 -0.100347504 0.09761673
-0.14142609 -0.11414662 -0.05240873 -0.15559104 0.022018854 -0.053710595 0.1164095 -0.09230163
0.082889736 -0.15944706 -0.02497712 0.24899027 0.10009255 -0.017473493 0.09504244 0.07810794
-0.20303307 -0.028147541 0.031700496 0.12775329 -0.059734937 -0.017776528 -0.11998921 0.064505294
-0.12421175 -0.14613861 0.025723401 -0.12351405 0.13418978 -0.07929076 -0.0017419395 0.041508634
-0.025504014 0.06418073 0.1188037 0.033898223 0.1094296 -0.006541316 0.066718586 0.06966259

value_stream.0.bias f4 [32]
00000000: 0f68 df3c 54df 98bd 86e6 ec3c 2de9 bd3c
00000010: 10c5 883c 3281 8dbd aea9 d6bd 7d9e c93d
00000020: b876 c0bc 1d82 19bd f97a 94bd 32e0 1b3c
00000030: 2657 4e3d ee2c cdbd 12eb d0bd 16ad 533d
00000040: 7564 953d 3b33 963d d516 2d3e 2842 93bd
00000050: 60d7 13be 50f8 363c 25a7 97bb 8a39 dbbd
00000060: 5b2e 263e ddf4 73bd 3cb7 b4bd 1498 d53d
00000070: f568 843d 3c78 ac3d ac86 e23d 1d5c 9b3d
0.027271299 -0.074644715 0.028918516 0.023182476 0.01669553 -0.06909408 -0.104815826 0.09844682
-0.02349411 -0.0374776 -0.07250018 0.009513902 0.05037608 -0.10018335 -0.10201086 0.05167874
0.07294551 0.0733399 0.16903241 -0.07190353 -0.14437628 0.011167601 -0.0046280795 -0.10704334
0.1622862 -0.05955969 -0.08824012 0.10429397 0.064653315 0.084213704 0.11060843 0.075859286

value_stream.2.weight f4 [1, 32]
00000000: 1565 febd 3954 a0bd 9135 35be 169a 933e
00000010: 2e12 02be 3b1c 23be 9866 7c3d 166d 16be
00000020: d15a 83bd 74af 5abe 42d9 243e 42c3 063e
00000030: 5c0f 8fbd 0e41 95bd 81cc 813d b7fc 1ebe
00000040: bca0 fb3d 560f bc3d d4c2 27be 59e9 093e
00000050: 7223 073e 1081 cf3c 12f5 143d 7f0d 2b3e
00000060: d923 48be a1bc d0bd edb5 043e 0af0 67be
00000070: 9726 4abe cd95 f93d d019 0bbd 9ad0 d33d
-0.124216236 -0.07828564 -0.17696215 0.28828496 -0.12702248 -0.15928738 0.06162128 -0.1469005
-0.06413806 -0.21355993 0.16098502 0.13160422 -0.069853514 -0.07287799 0.06337834 -0.1552609
0.12286517 0.091826126 -0.16382915 0.13467921 0.13197115 0.025330096 0.03636653 0.16704367
-0.19544925 -0.10192228 0.12960024 -0.22650161 -0.19741283 0.12186775 -0.033960164 0.10342522

advantage_stream.0.weight f4 [32, 64]
00000000: 7e72 e2bd e2f2 933d 6e3b f3bd 4369 44bd
00000010: 7e17 bf3d f6f2 373d 9b8c 69bc a3bd 873d
00000020: 1786 1dbd f999 9cbd 7894 1ebd 49ba c2bd
00000030: e047 5dbc bbbf cbbd b379 1bbc c401 083d
00000040: 78f6 d0bc 3fff adbd 090c 753d cbd8 5c3d
00000050: 0c80 69bd 72e2 2dbd 7718 a93c c445 b63d
00000060: c72a c5bd 4c8c ed3d 5f86 b0bd 929b bdbd
00000070: b881 433d a964 9dbd 9c4a 2d3d a78d 5cbd
00000080: fdc2 bcbd f05e 27bc 6457 25bd d061 d83d
00000090: 2329 133d 9d91 163c 3cea 20bc 0340 96bd
000000a0: c8a9 b13b 3a54 aa3d 2d4f e8bd 7c50 72bd
000000b0: b44c 74bd bd63 84bd 36d4 d3bd 7130 38bd
000000c0: ebfe 49bd eef1 113d c03a 9e3b 9e4e a23d
000000d0: d541 903d 6ba2 b3bd 64e2 873d ebdc c8bd
000000e0: c010 89bb 1117 36bd 7aad ee3d 52d0 36bd
000000f0: 6098 cbbc 537d 64bd dcdf a7bd 7c6a 10bc
00000100: dbf1 0c3d 52c1 cebd 2526 a43d 1051 cfbc
00000110: 340d ffbd 94ef 1d3d ec1b 29bd f8d1 e3bd
00000120: ebd5 37bd 180d ff3c 8289 99bd db06 db3d
00000130: 9ce8 09bd c853 6d3c 97e6 e5bd 5884 963c
00000140: 63d5 09bd 5c34 c9bd 0032 673d 8f64 7cbd
00000150: a08e a2bc 3131 963d a591 b63d ba09 993d
00000160: 6715 90bc 590b 823d 1b11 c93d 98a4 7bbd
00000170: 2632 023c 89fc ae3d c6b6 193d c711 cc3d
00000180: 2ea9 463d cfb9 aebc bcc3 833d 1c9b 9a3c
00000190: 1861 583d 515d b7bd c7b5 713d db3a dfbd
000001a0: 77d6 fabd 0ac0 9fbd 946a 32bd 306b 803d
000001b0: d677 b0bd c644 dd3d 5bda 273d 1092 053d
000001c0: 4f0c a43d 3fb7 1c3d 4812 bf3c ef14 2a3d
000001d0: 9c84 e0bd 1c0c 5fbd 834a a6bd d10b 223d
000001e0: 1889 ccbd 343a 653d bade 0dbd e5bb c4bd
000001f0: 9347 8c3d 8c1b 9e3d 9a68 03be 0045 613a
00000200: 0eda a53b fc7f a53d 735f 02be 2a8a 85bd
00000210: 8853 513d fc52 b6bd 7449 733d 88dd 84bc
00000220: a785 8e3d 00f5 e63d e06b d7bd e88a e9bd
00000230: 1c6d 203d 5865 123d 61a3 2c3d a428 173d
00000240: 887c aebd 7d3d d5b7 7a37 b5bd e0c1 f7bb
00000250: 44b5 42bd c091 fabd 3f1b e93d 6e72 903d
00000260: 2061 c0bd 3863 ed3d 1f60 b13d 728d a03d
00000270: 5445 9c3d 1547 4dbd b989 fbbd 4c14 e8bd
00000280: c0fd 5e3b 887e 9f3c eb1e dfbc c0fd 5cbb
00000290: b48b efbd 3a74 d1bc 3c9b 443c b130 a7bd
000002a0: 2164 ae3d a00c 49bc 407d 813c 208f 003d
000002b0: 00bb 08bb 0923 f13d 42d8 183d a402 debd
000002c0: 029f 98bd b44c 8e3d bc01 15bd 6b0a cabc
000002d0: 336a 493d 60a4 b5bc 9e1c fbbd 5e0b a7bc
000002e0: a4ea 7bbd 8a49 cd3d a13c c8bc 5f1b f3bd
000002f0: 24e3 64bd 9955 cbbc 3ed1 e2bc 8811 e0bc
00000300: 2abd d9bd 70cb 903c 9354 84bc acb3 e33d
00000310: c016 413d 2def 6c3d cdc0 b13b f535 28bc
00000320: 02ac e53c 2484 efbd 2cc7 8c3a ac11 e73c
00000330: 8a60 c0bd 48f3 91bd 18f4 ddbd fc3e 75bd
00000340: 129f f2bd 6b2c acbd cac5 af3d 132a 093d
00000350: d057 3cbc 177b a8bd 004c a63d c8fa 833d
00000360: c441 723d b6c1 de3d bbbf c6bd eabe c1bd
00000370: e123 803d dded fabd bfb1 6fbb bc82 6ebc
00000380: 58ca 09be c069 a03b 995b d73d a149 2abd
00000390: ea53 dbbd d15d fa3b 0e79 623d 1b90 9bbd
000003a0: fbe8 0c3d feb2 153d 7671 24bd 39e7 863b
000003b0: 0ad3 d6bd b1f3 8bbd 020a 9fbd 5555 c03b
000003c0: 7c40 e6bd bf71 a73d a86b 013d 224b 943d
000003d0: c227 03bd 9146 cfbd 282c cf3d 6ec8 febd
000003e0: 6fc2 ba3d 4021 eebd 3c59 963d d8e3 b53c
000003f0: c55d cd3d 5ddc b13d f752 d43d 783b 37bd
-0.11056994 0.072240606 -0.1187657 -0.047951948 0.09330653 0.04490944 -0.014254714 0.06627967
-0.038457956 -0.076465555 -0.03871581 -0.09508187 -0.013505906 -0.09948679 -0.009489465 0.03320481
-0.02550815 -0.0849595 0.05982593 0.053917687 -0.05700688 -0.042452283 0.020641549 0.089000255
-0.096273 0.11599025 -0.08619379 -0.09258188 0.04773113 -0.07685215 0.04230748 -0.053846028
-0.092168786 -0.010215506 -0.040366545 0.10565531 0.035927903 0.00918999 -0.009821471 -0.07336428
0.005421851 0.08316846 -0.113432266 -0.059158787 -0.059643462 -0.06464336 -0.103432104 -0.044968072
-0.049315374 0.035631113 0.004828781 0.07925151 0.070438065 -0.08771213 0.066349775 -0.09807762
-0.004182905 -0.04445559 0.11654182 -0.044632263 -0.024852931 -0.05578358 -0.08196995 -0.00881445
0.03441034 -0.10095467 0.08015088 -0.025307208 -0.1245369 0.038558558 -0.041286394 -0.11124033
-0.044881742 0.031134173 -0.07496931 0.10694667 -0.0336691 0.014485307 -0.11225622 0.018373653
-0.033650767 -0.0982444 0.056444168 -0.061619338 -0.0198434 0.07333601 0.08914498 0.07472558
-0.01758833 0.06349821 0.09817716 -0.061436266 0.007946527 0.08544261 0.037527822 0.09964328
0.048501186 -0.021328835 0.06433818 0.01887279 0.05282697 -0.089533456 0.059011247 -0.10899898
-0.12247937 -0.078003004 -0.043558672 0.062704444 -0.08616607 0.10804133 0.040979724 0.03261
0.0801016 0.038260695 0.023324147 0.04152387 -0.10962793 -0.054454908 -0.08119681 0.03956205
-0.09987086 0.05596371 -0.034636237 -0.096061505 0.06849589 0.07720098 -0.12832871 0.00085933506
0.0050613945 0.08081052 -0.12731723 -0.06520493 0.051105052 -0.08902547 0.059396222 -0.016218916
0.06959086 0.11277199 -0.105186224 -0.114034474 0.039166555 0.03574118 0.042147998 0.036903992
-0.08519846 -2.5420211e-05 -0.08848472 -0.0075609535 -0.04753615 -0.12234831 0.1138215 0.07053076
-0.09393525 0.1159119 0.08660912 0.078394786 0.07630411 -0.050116617 -0.12282128 -0.11331996
0.0034025759 0.019469514 -0.027236423 -0.0033720583 -0.11696568 -0.025568116 0.011999901 -0.08163584
0.08515192 -0.012271076 0.015806794 0.031386495 -0.0020863414 0.117742606 0.037315615 -0.108403474
-0.07452203 0.06948224 -0.036378607 -0.02466317 0.049173545 -0.022173107 -0.12261318 -0.020391162
-0.061503068 0.10023792 -0.024442973 -0.11870455 -0.05588068 -0.02482109 -0.027687665 -0.02735211
-0.10631783 0.017675132 -0.01615361 0.11118254 0.047140837 0.057845283 0.005424595 -0.010266771
0.028036121 -0.11695126 0.001074051 0.028206669 -0.09393413 -0.0712648 -0.10837573 -0.05987452
-0.118467465 -0.084069096 0.08582647 0.03348739 -0.0114955455 -0.082266025 0.081199646 0.06444317
0.05914475 0.10876791 -0.097045384 -0.09460242 0.06256843 -0.122524 -0.003657445 -0.014557537
-0.13456094 0.004895419 0.10515518 -0.041574124 -0.10709365 0.0076405783 0.055291228 -0.07595845
0.034401875 0.036547653 -0.040147267 0.0041169194 -0.10489471 -0.0683359 -0.07765581 0.0058695474
-0.11242768 0.08175992 0.03159681 0.07240893 -0.032020338 -0.10120881 0.10115844 -0.12440573
0.091191165 -0.11627436 0.07341239 0.02220337 0.10027651 0.08684609 0.10367387 -0.04473445

advantage_stream.0.bias f4 [32]
00000000: 446f b73d 46ac c5bd 7a40 88bc 8b36 a3bd
00000010: 265e f2bc fc3f cfbd f70d 6c3d 6596 0ebc
00000020: 60b4 babd 9a15 c83d 450d a33d d1d8 d43d
00000030: 5618 eabd f16a c23d 75c5 653d dbd5 be3c
00000040: 80e2 b43d 3e1d c5ba a8ec c93d 2cea 60ba
00000050: 456a cabc 59b0 713d d586 42bc 1aa4 c3bc
00000060: 7cc6 353d cd5f ee3c 4018 9dbd 2d97 81bd
00000070: 7de6 7a3d 369d 0cbe 5fed f63d b562 343d
0.08956769 -0.09651999 -0.016632307 -0.079693876 -0.02958591 -0.10119626 0.057630505 -0.008702849
-0.09116435 0.09769745 0.07961515 0.10392917 -0.11430423 0.09493054 0.056096513 0.023295334
0.08832264 -0.0015038622 0.09859592 -0.0008579816 -0.024708876 0.05900607 -0.011872967 -0.02388196
0.044378743 0.029098416 -0.07670641 -0.063276626 0.061254967 -0.13731846 0.12056994 0.044039447

advantage_stream.2.weight f4 [2, 32]
00000000: 8e1c 1abe b559 7ebd ea3b 02bd 361f 093e
00000010: 8b03 ebbd 86f1 cf3d 762e 31bd 0207 a1bd
00000020: b76d 2a3d 69aa 283e a8a5 e53c 123a 1c3e
00000030: c07a 08be 1369 e3bb 41fd 0d3d f0fa 1a3e
00000040: d34d 98bd b254 fb3d eb94 8f3c e0cb df3d
00000050: 60b8 16be 53a1 8dbd 61f0 bbbd 495d 26bd
00000060: 5fb8 d3bb 01e6 15be 5041 cabc 9775 60bd
00000070: f6ec d73d a370 aabd f119 fb3d f88b 2fbe
00000080: b874 29be 8786 253e eaad c03d 3c5f c23d
00000090: 8bfe 963d ea3c eb3d 5e7a 0bbe 3933 ce3d
000000a0: 001c f43d 6afe e5bd 99ca 90bd 0a6c 1f3e
000000b0: 397e 06be 63eb 143d 61f0 933d cea3 2f3e
000000c0: 3f4b f73d 8612 19be 013c d73d 371a 20bd
000000d0: cbc7 023d d3bf 34bd 02e4 03be 53bc 39bc
000000e0: ef73 7e3d 53de 063e 50ce 3f3d a873 c9bd
000000f0: 53f1 323d a0ca 9bbd b1a1 e6bb 5055 14bc
-0.15049955 -0.06209727 -0.03179542 0.13390812 -0.11475285 0.10153489 -0.0432572 -0.07862665
0.04160854 0.16471256 0.028033093 0.15256527 -0.13328075 -0.006940016 0.03466535 0.15134788
-0.07436719 0.12272014 0.017527064 0.10927558 -0.14718771 -0.06915536 -0.09176708 -0.040616307
-0.0064611877 -0.14638521 -0.024689347 -0.054799642 0.105432436 -0.08322265 0.12260807 -0.17143238
-0.16548431 0.161646 0.094081715 0.09490821 0.07372769 0.11486228 -0.13620898 0.10068364
0.11919403 -0.11230166 -0.070698924 0.15568557 -0.13134088 0.036357295 0.07223583 0.1715233
0.12074899 -0.14948472 0.10509492 -0.0390875 0.03192882 -0.04412825 -0.12879947 -0.011336404
0.06212228 0.13170747 0.046827614 -0.09836513 0.043687176 -0.07607007 -0.007038318 -0.009053543

advantage_stream.2.bias f4 [2]
00000000: fe83 153d 59dc 02be
0.03650283 -0.12779368
